model_checkpoint_epoch_10.pth (torch, 815827 bytes, 4 tensors)

fc1.weight f4 [256, 784]
000000 00 e1 83 3c d0 01 94 bc 8b 2e 17 bc 1e e7 6c 3c
       0.0160985 -0.01806727 -0.009227405 0.0144593995
000010 a0 27 13 bd 76 96 9c 3c b3 1f 1e bc b4 f8 81 3c
       -0.03592646 0.019114714 -0.009651112 0.015865661
000020 16 66 2e 3b d1 c8 da bb 02 1a f9 3b b5 0f 0e ba
       0.002661114 -0.006676771 0.0076019773 -0.00054192106
000030 30 f7 2f 3c 47 e3 84 bc 59 d0 a0 bb f3 d8 b4 bb
       0.010740086 -0.016221656 -0.0049076495 -0.0055190264
000040 72 45 3c 3b 93 54 20 bb 42 e2 ec 3c 79 58 10 3c
       0.0028727916 -0.0024464473 0.028916482 0.008810156
000050 e2 a7 7f bc 02 93 c3 bc fe d2 07 bc 04 12 91 bc
       -0.015603991 -0.02387381 -0.008290051 -0.017708786
000060 d5 40 61 bc 87 a3 1b ba 9d 89 9b 3c a1 26 8c 3c
       -0.013748367 -0.0005937148 0.018986518 0.017108263
000070 10 70 18 bd a6 7f a2 3c 1d 72 fb 3b fb 52 01 3d
       -0.037216246 0.019836258 0.0076735155 0.031573277
000080 04 3e ae 3c 90 b9 0e bd 06 c5 14 bd ce b4 a0 bc
       0.021269806 -0.034844935 -0.03632071 -0.019617464
000090 38 47 ec 3c 94 22 09 bc 22 53 52 3c f0 4a 9c bc
       0.028842553 -0.0083700605 0.012837203 -0.019078702
0000a0 df 66 05 3d 4c 4b 90 bc 4d ea c7 3c 73 0f 02 bb
       0.03256881 -0.01761403 0.024403716 -0.0019845634
0000b0 e9 1c ae bc 16 c8 82 3c 5a 6e af bc 73 ee 03 3c
       -0.02125402 0.015964549 -0.021414924 0.008052456
0000c0 97 7d 4f bc 99 f7 cb bb 2d 1d 16 bd 0f 78 9e bc
       -0.01266422 -0.0062245843 -0.036648918 -0.019344358
0000d0 06 e3 8b 3c e3 fa 33 bc 96 45 08 3d 44 a6 d7 3c
       0.017076027 -0.010985109 0.033269487 0.026324399
0000e0 63 49 82 bb ad 28 d6 bc d7 47 9f 3c ff 84 10 3c
       -0.0039760335 -0.026142443 0.019443436 0.008820771
0000f0 44 e1 cf bc 89 05 ab 3c 48 93 9d 3c cc 76 ee 3c
       -0.02537597 0.020876663 0.019235268 0.029109381
000100 d0 74 ba bc 68 c2 10 bc 75 4f 8a bb db bf 35 3a
       -0.022760779 -0.008835413 -0.004220898 0.0006933191
000110 10 23 05 bd 22 e5 00 bd 7c f6 52 3c cb 69 6c bc
       -0.03250414 -0.031468518 0.012876149 -0.01442952
000120 ca 33 44 3c b5 ed 52 bb a1 f2 02 3c 77 30 98 3b
       0.011975238 -0.0032185141 0.007992418 0.0046444493
000130 b9 10 22 3c 7b 27 73 3c 9b 4a 12 bd 43 a3 7b 3c
       0.009891682 0.014840956 -0.03571568 0.015358749
000140 a5 30 e2 bc 2c b3 ef bc cf 3b 0a b9 27 75 09 bc
       -0.027611086 -0.02926024 -0.00013182986 -0.008389748
000150 3b f6 98 3c 9b 4f bc bc 9f 7e 0b bd 0a ed c2 3c
       0.0186721 -0.022987178 -0.034056302 0.02379467
000160 bf 99 f7 bb 27 48 86 3c 48 ad fc 3b 7e 7a fe bc
       -0.0075561698 0.016391827 0.0077110864 -0.031064268
000170 c9 f7 4f 3b b3 ab 83 3b b3 b3 ec bc 95 d7 c8 bc
       0.0031733385 0.004018271 -0.028894281 -0.02451686
000180 cf 57 46 3b 14 55 0d bb d3 b4 b9 bc e9 45 88 bc
       0.003026474 -0.0021565603 -0.022669232 -0.016634898
000190 90 a3 e3 3c b9 62 06 bc 98 96 73 3c f6 a2 24 3c
       0.027787954 -0.008202248 0.014867447 0.010048619
0001a0 1f 5f c5 bc cf d1 fe bc fc 9b 04 3d 1d 98 20 bb
       -0.024093209 -0.031105904 0.03237532 -0.002450473
0001b0 82 01 a7 3c 67 ff b1 3b 6d 26 18 3c 96 aa c7 3c
       0.020386461 0.0054320577 0.009286505 0.024373334
0001c0 3b 46 01 3d 95 04 d5 bc 65 c4 0c 3b ad fa c6 3c
       0.031561118 -0.026003161 0.0021479365 0.024289453
0001d0 f6 c3 ba 3c 4e 55 83 3c 4c e3 04 bd f6 04 02 bd
       0.02279852 0.016031887 -0.03244333 -0.031743012
0001e0 a0 f5 fb bc 27 cb 97 ba fa 5f f0 3c 4d 72 d6 bc
       -0.030756772 -0.001158093 0.02934264 -0.02617755
0001f0 36 a7 57 3c 5f 86 d5 bc 48 99 1a bd f1 8b ae bb
       0.013162425 -0.02606505 -0.037743837 -0.005326741
000200 e4 2f 9e 3c 5b aa 18 3d ab e2 a0 bc 69 b8 c4 3b
       0.019309945 0.03727184 -0.019639334 0.0060034287
000210 8c d4 fa 3c 28 05 c7 3c 80 4c b5 3c a3 6c c2 3c
       0.030618928 0.02429445 0.022131205 0.023733443
000220 28 d1 b7 3c f6 d5 00 3c 39 cd d9 bc da 8c 04 bd
       0.0224386 0.007863512 -0.026587116 -0.03236089
000230 46 ef 98 bc c8 c3 d3 bb 95 77 c6 bc ee 0f 2a 3c
       -0.018668782 -0.006462548 -0.024226943 0.0103797745
000240 3f da c2 3b 46 37 84 bc 2f 04 a0 3b 0f 87 02 3b
       0.005946427 -0.016139638 0.004883311 0.0019916927
000250 c6 57 83 3c 79 80 bd 3c 19 da 0b bc a2 62 29 3d
       0.016033065 0.02313255 -0.008535885 0.04135383
000260 42 8e bc bb 11 60 16 3b f9 d8 c7 bc 6d 95 8b bc
       -0.005754263 0.0022945444 -0.024395453 -0.017039025
000270 ce bd 8d bc ec aa ac ba ef f0 11 3d da 98 0f bc
       -0.01730242 -0.0013173497 0.035630163 -0.00876447
000280 65 3d ad bc 48 e2 a4 3c 79 04 91 3c 4a 8e c3 3c
       -0.02114744 0.02012743 0.017702328 0.02387156
000290 bb 72 8c bc ae 98 0a 3c 2d f3 74 bc 77 2c 2b bc
       -0.017144552 0.008459253 -0.014950556 -0.010447613
0002a0 28 07 fc bc f6 3a 98 bc 1b 84 55 bc 61 6a 45 3c
       -0.030765131 -0.018582802 -0.013031985 0.0120492885
0002b0 c1 7f 88 3a 0a 47 88 3b ef 89 f5 3c 71 2f fe 3c
       0.001041405 0.004158859 0.029972998 0.031028481
0002c0 2d 4e e0 3c ee e4 75 b9 e3 e4 93 bc 31 77 1e 3d
       0.027381027 -0.00023450304 -0.018053478 0.03868789
0002d0 bf 25 bd 3a e2 c3 52 3c c5 ab 6c bc a9 91 02 3b
       0.0014430805 0.012864085 -0.01444525 0.0019923246
0002e0 2a 4f 90 bc 06 0b 2b 3d 37 89 8e bc 2f 6a 64 bc
       -0.017615873 0.04175856 -0.017399414 -0.013941332
0002f0 3e d8 01 3c ef d5 89 bb 06 3b e7 3c 4b d6 b2 bb
       0.007925091 -0.004206411 0.028226387 -0.0054576746
000300 79 57 28 bc d0 9f 77 3b 33 b7 ca 3c 23 c1 e0 bc
       -0.010274761 0.0037784465 0.02474556 -0.027435845
000310 f1 0a 6d 3c 47 ac a8 3c 04 7b 07 3d 27 e5 e4 bc
       0.014467941 0.02058996 0.0330763 -0.0279413
000320 1d c6 82 3a 2a 63 fa bc 3f f4 fd 3c fe 5c 3d bc
       0.0009977255 -0.030564863 0.031000255 -0.011557816
000330 76 1c d8 3c 40 bc 05 3c 42 2c 99 3c e5 f5 d0 3c
       0.026380759 0.008162558 0.018697862 0.025507877
000340 3a ff b7 3c 89 4e fd 3c dc e7 6d 3c 67 da a8 3c
       0.022460569 0.030921238 0.014520612 0.020611955
000350 30 30 8a bc 55 0e 2d 3d 78 9d 5a 3d c9 bb 31 3d
       -0.01686868 0.042249996 0.05337283 0.043391977
000360 3b 09 0a 3d 32 59 7b bc 2e b2 5c b8 71 fc 3f 3d
       0.03370021 -0.01534109 -5.261803e-05 0.046871606
000370 59 c7 a4 bc e4 a0 0c 3d 1a 71 f1 bc 5f 5c e0 bc
       -0.020114588 0.034333125 -0.029472876 -0.027387796
000380 bb fe 7c 3c 9b 5b e4 bc 95 e2 23 bc b9 a5 bf 3c
       0.015441592 -0.027875712 -0.010002752 0.023394452
000390 54 1a a7 3c 78 69 fc 3c 81 51 89 bb ff 2e c5 bc
       0.020398296 0.03081201 -0.004190624 -0.024070261
0003a0 fe 84 26 3d 97 a4 1b 3c 2f e4 f4 3b ec 92 fe 3c
       0.040654175 0.0094996905 0.0074734907 0.031075917
0003b0 87 09 10 bb fd 95 15 3d 43 e5 35 3d 51 5d 0b bc
       -0.0021978335 0.036519993 0.044408094 -0.008506135
0003c0 6a e8 93 bb fd 01 0a 3c 1d d5 f7 3c 0b fe c1 3b
       -0.00451379 0.008423326 0.030252988 0.005920177
0003d0 27 35 26 bc 67 82 2d 3b ed fb eb bc ac af 32 bc
       -0.010144508 0.002647543 -0.028806651 -0.010906141
0003e0 be dd 67 bc a0 12 03 3d 55 21 fb 3c c9 35 6a bc
       -0.014151989 0.032000184 0.030655542 -0.01429505
0003f0 1d 6c 34 ba 0a 0c 61 3c 17 20 2a 3b dd 31 a6 bc
       -0.0006882565 0.0137357805 0.0025959068 -0.020287449

fc1.bias f4 [256]
000000 6a f2 2f 3c d9 36 ff bc a9 df c6 3c ab 61 98 bb
       0.010738948 -0.031154083 0.024276571 -0.004650315
000010 41 10 c8 3c a2 a1 5b bb 80 c4 e5 3c 16 90 a8 3c
       0.024421813 -0.0033513089 0.0280478 0.020576518
000020 17 80 a5 3c 02 61 e8 3c 6e a4 eb bc 8d ad a5 39
       0.02020268 0.02836657 -0.02876493 0.00031600558
000030 97 c3 5f bc e9 a1 a7 3c 31 8c f0 bc 85 16 e6 3c
       -0.013657472 0.020462947 -0.029363723 0.02808691
000040 2c 8d c9 bb 85 52 b4 3c 5f 9b 24 bb 6c fa ee bb
       -0.006150862 0.022012005 -0.0025117022 -0.007293036
000050 e1 62 da bb f1 6e 12 3d 4d 3f 38 3c 79 76 86 3c
       -0.0066646193 0.035750333 0.011245561 0.016413914
000060 6b c2 09 bc 0c f2 86 3c bf f1 cd 3b a8 e1 4b bc
       -0.008408169 0.016472839 0.006284922 -0.012443937
000070 a9 f6 ca bc b1 42 f6 bb 94 eb 18 3c 4d 6d 52 bb
       -0.02477582 -0.0075152745 0.00933351 -0.0032108605
000080 e5 90 f3 bb af 74 0c 3d ea 4e b9 3c 72 2f 22 3a
       -0.0074330443 0.034290966 0.022620637 0.00061868795
000090 8c fc e3 3a 9a b0 de 3c 83 b1 41 bc d3 d9 f9 3c
       0.001739399 0.02718382 -0.011822107 0.030499374
0000a0 ef d2 50 3c 14 46 7e 3c 86 53 a6 3b 0e a2 b8 3b
       0.012745603 0.015519638 0.0050758747 0.005634553
0000b0 f5 2b 2b 3b b5 2d 4b bc 96 51 fb bb f8 8f 98 bc
       0.002611873 -0.012401034 -0.007669638 -0.018623337
0000c0 c8 52 a7 bb c9 77 5a 3b 0f 96 28 bc 46 45 96 bb
       -0.005106304 0.0033335558 -0.010289683 -0.0045858948
0000d0 e1 1a 22 3c a5 9e 05 bd d1 51 f6 bc a4 75 1c 3d
       0.009894104 -0.032622 -0.03006831 0.03819813
0000e0 f2 7d a7 3c 71 7e 8a bc fd be aa 3c 12 c0 86 bb
       0.020445798 -0.016905995 0.020843023 -0.004112252
0000f0 f8 dc aa 3c 01 2f 28 3c 12 fa 94 bb be 68 d2 3c
       0.02085732 0.010265113 -0.0045464123 0.02568471
000100 d5 24 3c bc 8b 1f d6 bc c1 09 3f bc 49 4f 81 bc
       -0.011483391 -0.026138088 -0.01166004 -0.015784876
000110 0c f5 23 3d f7 30 ab 3b fe c9 6d bc 69 e2 76 bc
       0.040028617 0.005224343 -0.014513491 -0.015068629
000120 1a e9 f9 3b ea ad 60 3c d6 76 52 bc d0 62 5a 3b
       0.007626665 0.013713339 -0.0128457155 0.0033323057
000130 d1 de 0a 3d cc c8 89 3c 98 16 90 3c 09 01 4e bc
       0.0339039 0.01681938 0.017588899 -0.012573489
000140 98 6b b3 bc 2d 7d bb 3c 19 3c 32 3d 0d b7 0d bd
       -0.02190189 0.022886837 0.043514345 -0.0345984
000150 7c 28 0d bb 89 60 2c 3a 96 02 e4 bc ab 67 84 bb
       -0.0021539023 0.0006575664 -0.027833264 -0.0040406785
000160 7d 9f 95 3c 62 a9 9f 3c b2 ce 27 bd 5b b4 32 bd
       0.018264527 0.019489948 -0.040968604 -0.04362903
000170 0a e2 c3 3b cb 30 a3 3c 4c 69 e3 bc 8e 92 d3 bc
       0.0059778737 0.019920727 -0.02776017 -0.025826719
000180 e0 c3 fe bb a9 21 09 bd 50 e0 14 bd 02 74 b8 3b
       -0.007774815 -0.033479366 -0.036346734 0.0056290636
000190 e1 64 d7 ba 32 6f 8c 3b 05 c8 e5 3c 5c 3c 9d bc
       -0.0016433262 0.0042857165 0.028049478 -0.01919382
0001a0 6b 61 86 3c 89 0d a8 bc 9c 44 19 bc 42 04 f8 3c
       0.016403874 -0.020514267 -0.009354737 0.030275468
0001b0 c5 b0 d4 3c d5 b1 ba b8 9e 00 2b 3c dc 1f 1e 3d
       0.025963197 -8.902295e-05 0.010437159 0.038604602
0001c0 a7 7d 84 3c ad ac bf 3c 4b 72 ee 3c 40 f7 94 3c
       0.016173197 0.023397768 0.029107234 0.018184304
0001d0 26 18 e7 3c 10 56 63 3c a4 2a 9a bc 82 0a 93 3a
       0.028209757 0.013875499 -0.01881916 0.0011218342
0001e0 a9 b0 02 bd 57 be 0e 3c c6 a2 aa 3b 73 7a 54 bc
       -0.031906758 0.008712373 0.0052073924 -0.012968647
0001f0 28 c0 70 3c 87 8a 62 3c 82 b4 a8 bb d0 6a 15 3a
       0.014694251 0.013826973 -0.0051484713 0.0005699815
000200 3a 47 d3 bc 19 13 a9 3c 6e 2d 49 3c 7e 7b 96 3c
       -0.0257908 0.02063899 0.012278898 0.018369433
000210 fa c3 8a 3b 1f 47 84 bc b2 6f 81 bc 25 36 c7 bc
       0.004234788 -0.016147194 -0.01580033 -0.02431781
000220 7f 1f c5 bc b6 9c a9 3b 36 41 b2 3b 9e d3 71 bb
       -0.02406287 0.005176152 0.0054399027 -0.0036899815
000230 3e 7f a7 bb e6 76 e3 ba 05 1d b7 bc 8a 48 97 3c
       -0.005111604 -0.001735416 -0.022352705 0.018467207
000240 39 5d 8c bb c0 47 0e 3d 00 41 05 bc 91 19 16 bb
       -0.004283574 0.034736395 -0.008133173 -0.0022903422
000250 65 6a 88 bc ed d1 df 3c e9 1f aa bc 96 e9 12 3d
       -0.016652295 0.02732178 -0.02076717 0.035867296
000260 b3 2a 0f 3d 22 f5 8d bc 96 67 29 bc 00 46 5f bb
       0.03495283 -0.017328802 -0.010339638 -0.0034068823
000270 bb d8 67 3c 07 9d ef 3c 51 57 06 3d 9f d3 44 bb
       0.014150794 0.029249681 0.032798115 -0.0030033363
000280 05 3e 5c 3c a8 b8 91 3c 63 8b 9d bc d5 8a fa bc
       0.013442521 0.017788246 -0.019231504 -0.030583778
000290 80 20 14 bc 70 86 13 3d 33 9f f8 3c fb 0f 66 3c
       -0.009040952 0.03601688 0.03034935 0.014041896
0002a0 3c fd 7c 3c e7 ab fa bb db d4 e3 ba 28 e6 f4 3c
       0.015441235 -0.007649887 -0.0017382161 0.029894903
0002b0 6f fa d9 bc a2 f8 84 3c 76 ad 0f 3d fd 8b f3 3b
       -0.026608674 0.016231839 0.035077535 0.0074324594
0002c0 8e 82 e9 3c 69 31 d8 bb 41 af c2 ba 6f ac 81 3c
       0.028504636 -0.006597687 -0.0014853255 0.015829293
0002d0 46 ae 58 bc 09 d9 42 3c 2d 97 3e 3c 86 06 86 3c
       -0.013225144 0.0118925655 0.011632723 0.016360532
0002e0 01 34 4b bb 49 a5 83 bc 97 34 a9 3a bb 4c 42 3c
       -0.0031006339 -0.016070025 0.001290935 0.011859114
0002f0 df 9b 70 3a 39 60 d0 3c b7 35 f1 3c 4a 93 39 3b
       0.00091785 0.025436508 0.029444559 0.002831655
000300 81 61 c5 bc a9 48 eb bc 36 91 1a ba a5 80 10 3d
       -0.024094345 -0.02872117 -0.0005896272 0.035278935
000310 08 c7 d2 3c bf b6 ca 3c 2d 72 83 3b ca 54 22 3d
       0.025729671 0.024745343 0.0040114135 0.039631642
000320 2d ca 3c 3d d4 b4 8a 39 d7 0f d6 3c a9 fe 47 bc
       0.046091247 0.0002645614 0.0261306 -0.012206712
000330 2c f7 10 bd 8c bb 61 bc 62 11 8f 3b 59 86 40 bc
       -0.03539197 -0.013777625 0.004366086 -0.011750781
000340 d2 66 0b bc 7e f6 c3 3c 35 07 c7 3c 1d 21 26 3d
       -0.008508401 0.023921248 0.024295429 0.040558923
000350 5d 97 a7 3b 2b b3 0a 3d ca e4 2a bc ae c0 d7 3a
       0.0051144795 0.033862274 -0.010430524 0.0016460621
000360 5f fa 6b bb 2a 28 e9 bc 59 ab 31 ba bd 82 6e bc
       -0.0036007387 -0.028461535 -0.0006777547 -0.014557538
000370 fe 3d e0 3b ef d6 70 3c 76 51 4d 3c 4a 83 7e bc
       0.0068433275 0.014699682 0.012531629 -0.015534231
000380 3f 6e 45 3c ac 00 64 bc 34 f0 35 bc 2e 47 54 bc
       0.0120502105 -0.013916176 -0.011104632 -0.012956424
000390 7e 10 8f 3a 7d fc 8d bc d6 13 9d bc bd db ee bc
       0.0010914949 -0.01733231 -0.019174498 -0.029157514
0003a0 40 a3 e4 3c 9b 8e 09 bd ee 41 17 b9 8a 29 f4 37
       0.027909875 -0.033583265 -0.00014425043 2.910641e-05
0003b0 52 8b 94 bc 00 eb f7 3c e3 50 b2 3c 55 2a 39 3d
       -0.01813284 0.030263424 0.021767085 0.045206387
0003c0 1e 2d 8b bb a3 d2 8b bb 0a 65 30 3d 98 d0 8c 3c
       -0.0042473217 -0.004267053 0.04306511 0.017189309
0003d0 5f 1b f3 3b 6e ec c6 3c b4 09 32 bc 71 6b a4 3c
       0.0074190344 0.02428266 -0.010866571 0.020070763
0003e0 6f 23 0d 3c 41 f4 72 3c b8 b7 d8 ba 89 bb ab bc
       0.008614405 0.0148287425 -0.0016534245 -0.020963447
0003f0 87 1f 0d 3d 51 96 fd 3c 4a c6 89 3b 37 65 f9 bb
       0.034453895 0.030955466 0.004204546 -0.0076109427

fc2.weight f4 [10, 256]
000000 5d 6a ec 3d 21 de 8a bd 88 97 30 3e d3 08 79 bd
       0.11543725 -0.06780649 0.17245305 -0.06079943
000010 8a e7 63 3c cc 2e 37 3c 09 19 42 be 1e 03 88 bd
       0.013910184 0.011180591 -0.18954863 -0.066412196
000020 cb 8a 02 be 1e b6 55 3c bf 43 17 bd 2b b9 10 3d
       -0.12748258 0.013043908 -0.036929842 0.03533284
000030 cf 0b 86 bd 78 e2 a1 3d 84 9e af 3d 70 03 5e bd
       -0.06545221 0.079045236 0.08575156 -0.054202497
000040 29 8d b4 3c 56 6e c6 3d f6 17 db bd 7a 55 5c 3d
       0.022039967 0.09689014 -0.106979296 0.053792454
000050 c1 6e 36 bb 70 25 b7 bd 5f 19 1d bd d4 ca 51 3d
       -0.002783701 -0.089426875 -0.038354274 0.051218823
000060 e0 6e 0c be 27 60 5f bd ca 05 94 bd 19 de 52 bc
       -0.1371417 -0.054535057 -0.07227667 -0.012870335
000070 0f 3b 59 3d d2 f9 8a 3d e9 f8 fc bc e4 08 d5 3d
       0.05303484 0.06785931 -0.030880408 0.104020864
000080 79 97 46 be ad 83 6b bd ac 2e 61 bd 95 de 04 bc
       -0.1939372 -0.057498623 -0.05497615 -0.008109708
000090 15 47 c4 3c a5 91 8d b9 f3 be 59 3e a6 db 22 3e
       0.023959676 -0.0002700213 0.21264248 0.15904102
0000a0 f3 81 b0 bd 43 1f 07 3e e6 43 df bd 92 ed 97 bd
       -0.08618536 0.13195519 -0.109016225 -0.0741836
0000b0 5b 2a d6 bd 68 ee 24 be 3f df b7 bd 05 7d 06 3e
       -0.104572974 -0.1610657 -0.08978128 0.13133629
0000c0 18 78 db 3c d3 cc 7b be c5 54 7f bc 02 df c6 bd
       0.026790664 -0.24589853 -0.0155841755 -0.09710504
0000d0 97 0f 19 3e 8c f3 6e 3d 5b c3 22 ba 05 56 b5 3a
       0.14947353 0.058337733 -0.000620892 0.001383484
0000e0 b8 ab 18 3e 5a e7 49 3d e3 8e b7 3d 5c f0 db bd
       0.14909256 0.0492929 0.089628 -0.10739204
0000f0 e3 6c 44 3d 65 64 02 be 3e 86 9d 3d b4 a9 61 3d
       0.047955405 -0.1273361 0.0769162 0.055093482
000100 27 68 69 3d 09 72 63 bd 08 23 d9 3c 00 64 a1 bd
       0.056984093 -0.055528674 0.026505962 -0.078804016
000110 2d 93 e8 3d 4d c7 0b 3d 51 48 89 bd 08 fe de bd
       0.113561966 0.034125615 -0.067032464 -0.10888296
000120 c0 df ea bc 86 07 d3 bc 62 c3 0f bd 55 df 82 3d
       -0.028671145 -0.025760423 -0.03509844 0.063902535
000130 99 26 b3 bd 1e 59 57 be e0 04 97 bd eb 1b 31 3e
       -0.08747596 -0.2103009 -0.07373977 0.17295806
000140 5c 31 48 3e fa 06 73 3d 14 14 db bd f3 0e 87 be
       0.19550079 0.059332825 -0.10697189 -0.26378593
000150 3e 08 0f 3d f7 46 81 be 3c 12 9c bc 16 85 20 3d
       0.03491997 -0.25249454 -0.019051664 0.03918942
000160 cd b3 b5 bd 1c a4 a6 bc 24 0c 87 3d 70 06 c0 bc
       -0.08872185 -0.020341925 0.065941125 -0.02344057
000170 08 71 e4 3c 1c 0c 1b 3d 03 bf 96 3d 65 60 60 3d
       0.027885929 0.037853345 0.07360651 0.05477943
000180 e5 14 0f bd e1 d2 5a bd dd 5b 7a 3d 17 0f c5 3d
       -0.034932036 -0.053423766 0.061122764 0.09622019
000190 ae 30 01 3e 6b e5 91 3d 3c 50 dd 3d 7e a2 21 3d
       0.12616226 0.07123836 0.10806319 0.039461605
0001a0 47 9d cf 3d b0 c1 0e be ea a2 0a bc f8 f7 20 be
       0.1013742 -0.13941073 -0.008461693 -0.15719593
0001b0 d4 07 9d 3d 3a 54 04 bd cf 14 9e bd 6b ab 97 3d
       0.07667509 -0.032306887 -0.07718813 0.07405742
0001c0 30 2e e7 3d ed 2f df 3c d9 6a df bd 64 73 d4 3c
       0.112881064 0.027244532 -0.109090514 0.025933929
0001d0 c7 e2 ca 3d 13 fc 04 3e 33 b9 ef 3c 88 f8 2e be
       0.099065356 0.12986784 0.029263115 -0.17086995
0001e0 0a 1f 18 bd 95 ed 00 3d a2 98 37 3c 8b 67 00 3d
       -0.037138976 0.031476576 0.011205824 0.031348746
0001f0 43 48 d4 bd 5a 2e 2c bd d8 59 73 bd 3c e5 8d 3d
       -0.10365345 -0.04203639 -0.059411854 0.069284886
000200 23 5d 4c bc 9c 2c 05 be 26 be 05 3d ae 48 c5 bc
       -0.012473377 -0.13005298 0.032652043 -0.024082508
000210 e6 6f 2c 3c 03 ad 35 bd 75 13 2a 3d 95 87 c1 3d
       0.010524726 -0.04435445 0.041522462 0.09449688
000220 09 6f 8b 3d 10 2e 8e bc 91 ed 23 3d 52 6e a7 bd
       0.06808288 -0.017355949 0.040021483 -0.08175339
000230 d4 4d 57 bd 03 78 cd bd 55 68 3a 3e 16 b6 07 be
       -0.052564457 -0.10032656 0.18203862 -0.13253054
000240 d0 8a 03 be 18 d5 19 3d ed ec c8 bd 07 5b 0a be
       -0.12845922 0.037556738 -0.09810815 -0.13511287
000250 a2 e5 67 3b 2d 7f 96 3c 5a be 1b bb 8b d5 e6 bd
       0.0035384675 0.018371189 -0.0023764581 -0.11271199
000260 48 d3 88 3d c2 19 f9 ba 7c 60 88 bd 08 98 08 be
       0.06680924 -0.0019004869 -0.06659028 -0.13339245
000270 66 7d 81 3d dc 7e d6 3d 65 4e 39 bb 72 88 ec bc
       0.06322746 0.10473415 -0.0028275487 -0.028873656
000280 ef 5b bb 3d b6 63 ab 3d f6 41 b6 3d c3 c6 af 3d
       0.09148394 0.08368628 0.088993 0.08582833
000290 e2 8d 8d 3d 4d 43 f1 bd f8 ef 32 bd ef 1d 07 3d
       0.069118276 -0.11780415 -0.043685883 0.03298753
0002a0 bc 59 5c 3d 9a 88 6b bd f9 1c a5 bd 22 ca 25 3e
       0.053796515 -0.05750332 -0.08062167 0.16190389
0002b0 3d c4 01 3d 9b 88 60 3e 00 0b 6f be fd 4f 7e bd
       0.031681288 0.21927111 -0.2334404 -0.062088
0002c0 65 87 1e be 14 0d b6 bd 0a 93 60 3d 51 da bb 3d
       -0.15481336 -0.08889213 0.054827727 0.091725
0002d0 9c ce 04 be 31 1a d4 3d 94 e2 92 3b 4b db bb bb
       -0.1296944 0.10356558 0.0044825766 -0.005732929
0002e0 d3 49 c6 bd a1 79 74 3d 50 1c f2 bc 05 9b 27 3d
       -0.096820496 0.059686307 -0.029554516 0.040919323
0002f0 e1 c7 a8 3d 87 32 36 be df 34 31 bb b7 7e e7 3b
       0.08241249 -0.17792712 -0.002703957 0.007064666
000300 12 b7 d5 bd f3 ed 76 3d 17 ea 61 bd b3 c3 07 3e
       -0.104353085 0.06028552 -0.055154886 0.13258247
000310 c2 18 0c 3c c4 2f 5a bd 4c e8 15 3e 53 3b e5 bd
       0.008550825 -0.05326821 0.14639395 -0.11192956
000320 c9 3e 17 3e aa 7e d6 bc 8f 17 e8 3d 5f 27 63 3d
       0.14770044 -0.026183445 0.113326184 0.05545747
000330 a3 8a 12 3d 27 0b b7 bd 2c 4f e8 bd 85 ed 07 3d
       0.035776746 -0.08937674 -0.11343226 0.0331855
000340 1c 52 ac bd 47 cd b3 3d 42 02 17 bc fd d8 b1 3d
       -0.084140986 0.08779388 -0.009216847 0.08683965
000350 08 ba 4c 3d 4f f9 48 3d e2 de 76 bd 53 e4 aa 3c
       0.0499821 0.049065884 -0.06027115 0.020860827
000360 1a 12 ee bd db 22 3a bc 3d da 0d bd ce 05 4d bd
       -0.11624546 -0.011360849 -0.034631956 -0.050054364
000370 a4 8c 25 bd 0c b9 36 bd 5c 36 c7 3c 13 54 58 3e
       -0.04041733 -0.04461007 0.024317913 0.21125822
000380 33 95 95 3d f9 95 57 3c 09 54 2a bd df a6 cf bc
       0.07303848 0.013158315 -0.04158405 -0.025348125
000390 ae 0d 75 bd e4 07 dd 3d 74 d9 a2 3c 16 0f 07 be
       -0.0598275 0.10792521 0.01987908 -0.13189349
0003a0 29 c0 6c bd 9e d2 4e be 19 8a c8 3d e4 32 29 be
       -0.057800446 -0.20197532 0.09791965 -0.1652332
0003b0 3e 94 89 3d b5 1b 81 3d 4e 33 0d bd 9d 11 b5 bd
       0.06717728 0.06304113 -0.034472756 -0.0884125
0003c0 5f f4 7e 3d 94 16 a5 3d fb 6a 99 bd c3 ef 58 3d
       0.06224477 0.08060947 -0.07491108 0.05296303
0003d0 2f ed cd bd 06 de e3 b8 3f 62 3f bd 4f aa ab bd
       -0.10055005 -0.000108655586 -0.046724554 -0.08382093
0003e0 93 e6 b8 3d ad e6 05 3e 52 4f 01 3e 94 38 e8 3c
       0.090283535 0.13076277 0.12627915 0.028347291
0003f0 b6 f0 a3 3d ed b8 15 3c 17 5f 21 be 75 4a 59 bd
       0.08004896 0.009138328 -0.1575893 -0.053049523

fc2.bias f4 [10]
000000 ea 7e b8 3c bb 14 49 bd 20 02 ee 3b 8b a6 1c 3d
       0.022521455 -0.049092036 0.007263437 0.038244765
000010 7f e8 37 bb d1 69 93 3d b4 0e 92 3c 7c 68 6c bd
       -0.0028062162 0.07197917 0.017829277 -0.05771683
000020 f4 57 a8 3d 41 ab 2e bd
       0.08219901 -0.04264379
