model_checkpoint_epoch_5.pth (torch, 815827 bytes, 4 tensors)

fc1.weight f4 [256, 784]
0.015977597 -0.018188173 -0.009348309 0.014338496 -0.036047406 0.018993812 -0.009772016 0.01574475
0.002540222 -0.006797675 0.0074810735 -0.0006628212 0.010619183 -0.016342558 -0.0050285533 -0.0056399303
0.0027518994 -0.0025673395 0.02879558 0.008689253 -0.015724896 -0.023994712 -0.008410954 -0.017829688
-0.013869271 -0.0007146149 0.018865615 0.016987361 -0.03733719 0.019715356 0.0075526116 0.03145235
0.021148903 -0.034965724 -0.036425617 -0.019715523 0.028785054 -0.008473417 0.0127420565 -0.019151697
0.032491636 -0.017698718 0.024283761 -0.0020806785 -0.021339864 0.015867773 -0.021497572 0.007960885
-0.012779308 -0.0063454607 -0.036768038 -0.019462714 0.016955124 -0.011106012 0.033148542 0.026203496
-0.004096939 -0.026263345 0.019322583 0.0086770505 -0.025505034 0.020763217 0.019158253 0.029053412
-0.022802588 -0.008941213 -0.004244514 0.0009276595 -0.03204492 -0.030633034 0.013761391 -0.013829517
0.012552911 -0.0025433449 0.007774591 0.0041911188 0.009577371 0.014666411 -0.03581411 0.0152968485
-0.027682403 -0.029381562 -0.00025272786 -0.008510651 0.018551197 -0.02310808 -0.034177125 0.023607457
-0.007735677 0.016630422 0.008002434 -0.030701607 0.0033536581 0.0037217673 -0.029325359 -0.024060545
0.0039084707 -0.0020854257 -0.023121959 -0.017763393 0.02648336 -0.010642246 0.013633823 0.009411695
-0.025860341 -0.032446988 0.03163953 -0.0019560482 0.020877015 0.0050877067 0.009100473 0.024252431
0.0314402 -0.026124049 0.0020324867 0.024174541 0.022865761 0.017044362 -0.031594392 -0.03152398
-0.029962316 -0.0022322538 0.029528012 -0.026500767 0.013953199 -0.02447203 -0.036429748 -0.0057984795
0.020091178 0.03645386 -0.020614095 0.0053717713 0.02850174 0.022309354 0.020432632 0.023124425
0.021418847 0.007260901 -0.02680205 -0.03246166 -0.018789684 -0.0065834518 -0.024341483 0.010301915
0.0064966585 -0.01489534 0.0057385676 0.002957652 0.014986083 0.02104779 -0.0109743215 0.03849446
-0.0036138587 0.0037655109 -0.025606664 -0.016400915 -0.014464771 -0.0008017412 0.03660724 -0.0069431746
-0.022077091 0.018145047 0.015563409 0.023648437 -0.018341502 0.006950486 -0.01522471 -0.010539434
-0.030886034 -0.018702671 -0.013244287 0.012005874 0.0013967841 0.0036160976 0.029654281 0.03087273
0.025059482 0.0007553765 -0.01874761 0.03759643 0.00057934655 0.010399856 -0.017380584 0.00074914616
-0.016104538 0.044179104 -0.016473945 -0.013386017 0.008380123 -0.0059653916 0.025662033 -0.005938917
-0.012416061 0.0020783327 0.024272982 -0.027548302 0.014347026 0.020504048 0.032704193 -0.028117491
0.0018295465 -0.03125229 0.029506996 -0.0124759665 0.026295021 0.008713485 0.0146325305 0.020433804
0.020969018 0.029599216 0.014886627 0.018817946 -0.018043812 0.043849815 0.05318984 0.045912776
0.037028007 -0.013867604 -0.00056780945 0.044762935 -0.020610679 0.033816297 -0.029611561 -0.027524238
0.015170823 -0.02801403 -0.0103563545 0.023083573 0.021068158 0.029983243 -0.0065649445 -0.025421647
0.040777855 0.00582815 0.0035402281 0.028171454 -0.0050681555 0.037118174 0.03844944 -0.013667952
-0.008384581 0.012019143 0.033205036 0.012772401 -0.0073426715 0.0066185487 -0.026039563 -0.011637935
-0.014717113 0.032022268 0.030505357 -0.014432137 -0.00081170903 0.013599181 0.0022632226 -0.020552466
00000000: 73e3 823c 5dff 94bc a629 19bc 03ec 6a3c
00000010: 72a6 13bd e998 9b3c ce1a 20bc 22fb 803c
00000020: da79 263b 08bf debb cb23 f53b 2ec1 2dba
00000030: 15fc 2d3c d4e0 85bc 90c6 a4bb 2acf b8bb
00000040: 3659 343b cf40 28bb b5e4 eb3c 5e5d 0e3c
00000050: 7fd1 80bc 8f90 c4bc 19ce 09bc 910f 92bc
00000060: f03b 63bc fe54 3bba 108c 9a3c 1429 8b3c
00000070: e2ee 18bd 1982 a13c e67b f73b 2ed4 003d
00000080: 7740 ad3c 3838 0fbd 0733 15bd 7382 a1bc
00000090: a2ce eb3c 16d4 0abc 0fc4 503c 05e4 9cbc
000000a0: f315 053d e7fc 90bc bdee c63c fe5b 08bb
000000b0: f0d0 aebc 22fd 813c ad1b b0bc 5f6e 023c
000000c0: 4d60 51bc 95ed cfbb 159a 16bd 4570 9fbc
000000d0: 79e5 8a3c fef5 35bc c4c6 073d b7a8 d63c
000000e0: 9e3f 86bb 3a26 d7bc 654a 9e3c 302a 0e3c
000000f0: efef d0bc 9f17 aa3c c5f1 9c3c 6c01 ee3c
00000100: 7ecc babc 2a7e 12bc 9015 8bbb 2d2e 733a
00000110: 8941 03bd 21f2 fabc 7577 613c 3395 62bc
00000120: baaa 4d3c 3fae 26bb ffc1 fe3b a755 893b
00000130: 68ea 1c3c 634b 703c d1b1 12bd a29f 7a3c
00000140: 35c6 e2bc 9ab1 f0bc 8f80 84b9 4270 0bbc
00000150: aef8 973c 284d bdbc 50fd 0bbd 6d64 c13c
00000160: 907b fdbb 863c 883c a41c 033c f081 fbbc
00000170: 0cc9 5b3b e5e8 733b bc3b f0bc 9f1a c5bc
00000180: a112 803b a3ab 08bb 436a bdbc 8984 91bc
00000190: a2f3 d83c d15c 2ebc 6660 5f3c 8333 1a3c
000001a0: 11d9 d3bc 22e7 04bd 7498 013d 0b31 00bb
000001b0: 4606 ab3c c7b6 a63b 261a 153c 09ad c63c
000001c0: 70c7 003d 1a02 d6bc 7833 053b b009 c63c
000001d0: fa50 bb3c 9ea0 8b3c 1f69 01bd 4a1f 01bd
000001e0: 8873 f5bc 014b 12bb bbe4 f13c 2318 d9bc
000001f0: f59b 643c 9179 c8bc 5c37 15bd 2c01 bebb
00000200: 4196 a43c a550 153d e4de a8bc af05 b03b
00000210: 7b7c e93c 1bc2 b63c 5662 a73c 6f6f bd3c
00000220: 9476 af3c daec ed3b f98f dbbc 85f6 04bd
00000230: d3ec 99bc ffb9 d7bb ca67 c7bc 5dc9 283c
00000240: ece1 d43b 960b 74bc 980a bc3b 2bd5 413b
00000250: 3088 753c 6a6c ac3c a4cd 33bc 5eac 1d3d
00000260: 7dd6 6cbb cac6 763b 11c5 d1bc 365b 86bc
00000270: a6fd 6cbc f12b 52ba 79f1 153d 9283 e3bb
00000280: 04db b4bc eca4 943c abfd 7e3c 5eba c13c
00000290: eb40 96bc e7c0 e33b 1071 79bc 97ad 2cbc
000002a0: b504 fdbc 5836 99bc 91fe 58bc 49b4 443c
000002b0: 4c14 b73a 0dfc 6c3b 89ed f23c cfe8 fc3c
000002c0: 8b49 cd3c 7504 463a 9694 99bc b7fe 193d
000002d0: 4adf 173a 2864 2a3c ba61 8ebc 5962 443a
000002e0: aaed 83bc 26f5 343d 5ef4 86bc 0651 5bbc
000002f0: c94c 093c 5579 c3bb 2f39 d23c 3f9b c2bb
00000300: bc6c 4bbc a334 083b 22d8 c63c faac e1bc
00000310: ca0f 6b3c 1bf8 a73c d5f4 053d a756 e6bc
00000320: 65cd ef3a 6702 00bd a8b8 f13c ff67 4cbc
00000330: a868 d73c 01c3 0e3c 48bd 6f3c cb64 a73c
00000340: 38c7 ab3c 0e7a f23c 0ae7 733c 1828 9a3c
00000350: 9ed0 93bc dd9b 333d 97dd 593d 090f 3c3d
00000360: aeaa 173d f234 63bc 0cd9 14ba 5759 373d
00000370: bad7 a8bc f582 0a3d f293 f2bc 837a e1bc
00000380: 0b8f 783c ae7d e5bc b3ad 29bc c319 bd3c
00000390: 2197 ac3c 6b9f f53c bf1e d7bb 0f41 d0bc
000003a0: ae06 273d 11fa be3b 2c03 683b d2c7 e63c
000003b0: c512 a6bb 3a09 183d 297d 1d3d 8cef 5fbc
000003c0: 7b5f 09bc f1eb 443c 0102 083d 5543 513c
000003d0: cb9a f0bb 69e0 d83b ec50 d5bc 0aad 3ebc
000003e0: 0c20 71bc c829 033d 5fe6 f93c c574 6cbc
000003f0: dfc8 54ba 19cf 5e3c 9352 143b a55d a8bc

fc1.bias f4 [256]
0.0110239275 -0.02826378 0.026299173 -0.006344535 0.026531553 -0.0039462964 0.027746458 0.020860037
0.017744847 0.02789871 -0.029664138 -0.00038384364 -0.011906178 0.020438576 -0.029282352 0.029761918
-0.0062880814 0.021022493 -0.0012770706 -0.0099192355 -0.007880743 0.03644044 0.009634364 0.016810328
-0.0055179023 0.019247152 0.005179164 -0.012899773 -0.023595734 -0.006535199 0.008079448 -0.003968405
-0.008991593 0.0346694 0.022631077 0.0009923987 0.0013418052 0.026453981 -0.015824659 0.031772964
0.01376195 0.0139612965 0.007672979 0.005933174 0.0025126666 -0.012242314 -0.0057331403 -0.016501822
-0.0066676387 0.0041732662 -0.007978923 -0.0012398903 0.012051364 -0.029000595 -0.03011281 0.035777207
0.019703474 -0.015051188 0.021894215 -0.0038323856 0.02191884 0.01073163 -0.010611668 0.02853152
-0.007011124 -0.024976358 -0.009077241 -0.013134459 0.03862378 0.0046805665 -0.01469334 -0.015596593
0.006447218 0.014695209 -0.008027577 0.0019353252 0.03421121 0.020256445 0.016915135 -0.013799057
-0.02281338 0.026503671 0.042302687 -0.0298218 -0.0028340607 0.0014123813 -0.02866852 -0.004736065
0.017820403 0.02104825 -0.03695757 -0.040774737 0.004631879 0.020413987 -0.028945182 -0.02480431
-0.0071140244 -0.032852005 -0.036947418 0.005189801 -0.0030723484 0.0053936495 0.025829962 -0.021097587
0.015641151 -0.021169072 -0.008707931 0.02844968 0.026077462 -0.00012687547 0.010163871 0.038060497
0.014089379 0.022602791 0.029244602 0.01747123 0.026970768 0.016326154 -0.017263178 0.00026940444
-0.030464943 0.0135213025 0.0040116557 -0.012512072 0.013050776 0.015855437 -0.0054582115 0.0039546904
-0.024348907 0.017601034 0.011189556 0.017867269 0.005964711 -0.01533529 -0.016074521 -0.02379885
-0.024993954 0.009022775 0.0054256828 -0.002923393 -0.005883438 -0.002130109 -0.021395668 0.018442132
-0.0046099685 0.034542788 -0.0074526835 -0.001071229 -0.016563186 0.027686263 -0.019819053 0.031503584
0.032999814 -0.013794677 -0.009909243 -0.0030689035 0.017940465 0.029184034 0.033408396 -0.0032741046
0.016832052 0.016364045 -0.016891217 -0.03009447 -0.00904526 0.0369233 0.027740654 0.015890772
0.015142784 -0.009169015 -0.0012795378 0.028387893 -0.025627242 0.010285965 0.035610497 0.00533269
0.029762862 -0.0062097055 -0.00016065295 0.016423719 -0.012380692 0.013660212 0.011180169 0.015927609
-0.0035008537 -0.014813918 -0.00059104164 0.010818585 0.0019883388 0.026008606 0.030271431 0.00243902
-0.024939515 -0.028580694 -0.00079461606 0.034749255 0.026331723 0.025747897 0.002847942 0.037778866
0.042085085 -0.00154549 0.025461396 -0.010303614 -0.035212096 -0.015286098 0.0067421305 -0.008375901
-0.008117517 0.024789076 0.02683239 0.03938014 0.005693114 0.03505662 -0.009071811 0.001489578
-0.004560977 -0.028293028 0.00066121476 -0.01589307 0.011357331 0.014444086 0.011779227 -0.011150259
0.012610934 -0.014498799 -0.012443816 -0.012847964 0.00014266813 -0.013830002 -0.02181672 -0.028474377
0.029575478 -0.03231094 0.00048867654 -0.004024183 -0.017466994 0.026391359 0.02279148 0.04047293
-0.007179242 -0.005400309 0.04168644 0.01871854 0.007108079 0.027981127 -0.011385067 0.021162208
0.0064609586 0.018083833 -0.0018342038 -0.020035503 0.034402315 0.031955086 0.004735625 -0.007487395
00000000: b49d 343c 7189 e7bc 5d71 d73c d1e5 cfbb
00000010: b358 d93c ef4f 81bb 8a4c e33c abe2 aa3c
00000020: a45d 913c d68b e43c 3502 f3bc 9f3e c9b9
00000030: 2112 43bc cd6e a73c 8be1 efbc 44cf f33c
00000040: 400c cebb 5d37 ac3c 6163 a7ba 4a84 22bc
00000050: 3b1e 01bc 9242 153d 74d9 1d3c d0b5 893c
00000060: 85cf b4bb 34ac 9d3c fab5 a93b 9259 53bc
00000070: d74b c1bc 3925 d6bb a95f 043c 6509 82bb
00000080: 7951 13bc 8001 0e3d cf64 b93c 6013 823a
00000090: 83df af3a 05b6 d83c b7a2 81bc 5e24 023d
000000a0: cd79 613c ecbd 643c 9d6d fb3b 126b c23b
000000b0: 8dab 243b fd93 48bc 11dd bbbb d42e 87bc
000000c0: 357c dabb e5bf 883b 07ba 02bc d183 a2ba
000000d0: 1673 453c a892 edbc 24af f6bc 1f8b 123d
000000e0: 2e69 a13c 4299 76bc 7f5b b33c c328 7bbb
000000f0: 248f b33c b8d3 2f3c 90dc 2dbc efba e93c
00000100: 92bd e5bb 389b ccbc b5b8 14bc ea31 57bc
00000110: f833 1e3d 705f 993b 56bc 70bc da88 7fbc
00000120: 2f43 d33b 2dc4 703c 1986 03bc bdaa fd3a
00000130: 0e21 0c3d d8f0 a53c 9c91 8a3c 7115 62bc
00000140: 20e3 babc 3a1e d93c 9545 2d3d d94c f4bc
00000150: a6bb 39bb a71f b93a 3eda eabc fe30 9bbb
00000160: 18fc 913c 616d ac3c d260 17bd 6903 27bd
00000170: 04c7 973b 3c3b a73c 721e edbc 6932 cbbc
00000180: c31c e9bb d38f 06bd 2d56 17bd 350f aa3b
00000190: 7459 49bb 36bd b03b 5b99 d33c d9d4 acbc
000001a0: df21 803c c36a adbc b6ab 0ebc 4e0f e93c
000001b0: 67a0 d53c e009 05b9 5d86 263c 53e5 1b3d
000001c0: 24d7 663c 7d29 b93c 6092 ef3c d31f 8f3c
000001d0: cdf1 dc3c 6dbe 853c 826b 8dbc da3e 8d39
000001e0: 9e91 f9bc 7488 5d3c 3574 833b 6fff 4cbc
000001f0: ecd2 553c 43e3 813c ccda b2bb 5996 813b
00000200: 5c77 c7bc 0b30 903c 6654 373c 615e 923c
00000210: 9f73 c33b de40 7bbc b7ae 83bc cef5 c2bc
00000220: 1fc0 ccbc 43d4 133c edc9 b13b 6596 3fbb
00000230: dbc9 c0bb 4c99 0bbb f845 afbc f413 973c
00000240: 380f 97bb bd7c 0d3d a435 f4bb 7b68 8cba
00000250: 85af 87bc 4dce e23c 915b a2bc e709 013d
00000260: d02a 073d 1203 62bc 615a 22bc a81f 49bb
00000270: e2f7 923c 5b13 ef3c 3ed7 083d 5c92 56bb
00000280: 5fe3 893c e40d 863c 735f 8abc ae88 f6bc
00000290: 9232 14bc e33c 173d 5e40 e33c 5d2d 823c
000002a0: 7119 783c a339 16bc 2ab6 a7ba ba8d e83c
000002b0: 39f0 d1bc 7786 283c 50dc 113d d9bd ae3b
000002c0: 3fd1 f33c c97a cbbb f374 28b9 098b 863c
000002d0: 63d8 4abc 15cf 5f3c 072d 373c 9e7a 823c
000002e0: 946e 65bb 13b6 72bc 22f0 1aba 6f40 313c
000002f0: ca4e 023b 0010 d53c cbfb f73c f7d7 1f3b
00000300: f44d ccbc 0f22 eabc c84d 50ba 3c55 0e3d
00000310: a0b5 d73c 41ed d23c 8aa4 3a3b 03be 1a3d
00000320: 6961 2c3d 0a92 caba 6b94 d03c 7dd0 28bc
00000330: 8f3a 10bd 8b72 7abc 17ed dc3b 133b 09bc
00000340: 56ff 04bc 7612 cb3c 9acf db3c 124d 213d
00000350: 4d8d ba3b 8897 0f3d efa1 14bc f23d c33a
00000360: 4074 95bb c8c6 e7bc 5f55 2d3a 2f32 82bc
00000370: 1914 3a3c e3a6 6c3c a9fd 403c 93af 36bc
00000380: 179e 4e3c 5f8c 6dbc 26e1 4bbc 4480 52bc
00000390: 2f99 1539 3c97 62bc fab8 b2bc 1943 e9bc
000003a0: 4648 f23c 7a58 04bd 871a 003a 4bdd 83bb
000003b0: f116 8fbc b132 d83c 33b5 ba3c f1c6 253d
000003c0: d93f ebbb 13f5 b0bb 67bf 2a3d a057 993c
000003d0: e3ea e83b ad38 e53c 6f88 3abc 5e5c ad3c
000003e0: 73b6 d33b 8c24 943c ab69 f0ba 7f21 a4bc
000003f0: 71e9 0c3d 56e3 023d 4d2d 9b3b d258 f5bb

fc2.weight f4 [10, 256]
0.10860861 -0.06809154 0.11830271 -0.05936414 0.034001186 0.011475499 -0.1508102 -0.03726086
-0.09867558 0.013172107 -0.036163524 0.045857064 -0.06213973 0.07477805 0.089273244 -0.028273674
0.013010213 0.0881246 -0.090356186 0.036868047 -0.019181145 -0.07013611 -0.046395503 0.057090722
-0.13103904 -0.035271946 -0.067367084 0.007720735 0.0312939 0.075079165 -0.029021466 0.10782311
-0.17711212 -0.055313356 -0.052028406 0.0019189632 0.016004268 -0.00051557436 0.1683826 0.16452447
-0.073676154 0.13710979 -0.105807185 -0.05758379 -0.09954187 -0.14352189 -0.089363664 0.12595046
0.011724865 -0.20884219 -0.03360827 -0.0695975 0.14448358 0.04422491 -0.0012251375 0.006114912
0.14216027 0.027548281 0.05786729 -0.09468375 0.033990208 -0.110788696 0.075827986 0.028402545
0.05655253 -0.042849828 0.027126113 -0.06266418 0.086673215 0.04063624 -0.053620942 -0.07605538
-0.016810223 0.00980788 -0.041735664 0.07255717 -0.08084199 -0.16550882 -0.06430658 0.15694417
0.17801663 0.03393155 -0.103900656 -0.21095338 0.037240162 -0.21223284 -0.021198837 0.02958371
-0.06506772 -0.021768564 0.027079605 -0.03539102 0.016764598 0.03717996 0.05289642 0.0571484
-0.03389344 -0.041467816 0.057892773 0.065071225 0.120846204 0.06883605 0.08361214 0.046701226
0.094911665 -0.11349377 -0.026833633 -0.13622133 0.07780068 -0.03851017 -0.047855448 0.05676359
0.09242908 0.01766232 -0.08400429 0.019767199 0.07781419 0.10344376 0.033871625 -0.15852278
-0.042850412 0.032077625 0.017870579 0.017258205 -0.09433112 -0.032012876 -0.06396996 0.06755756
-0.014219786 -0.1103038 0.022928158 -0.019288125 0.0101062395 -0.038967673 0.04141851 0.100742266
0.063305475 -0.024956712 0.04025723 -0.06359647 -0.035255194 -0.077475 0.1730283 -0.11860368
-0.099023424 0.046491984 -0.086808175 -0.102941975 -0.0039431816 0.006822595 -0.0031438004 -0.10449151
0.045696463 0.009408484 -0.066758476 -0.12043212 0.039872024 0.08748312 0.009870204 -0.034664743
0.058633298 0.062698066 0.07963594 0.07345802 0.0697516 -0.09176646 -0.045354698 0.011813565
0.047894042 -0.04625266 -0.06246882 0.15771785 0.03632829 0.18806833 -0.18419 -0.060873054
-0.13814278 -0.07583907 0.010783338 0.08585634 -0.107391655 0.10166939 0.0013557508 -0.0049886405
-0.07884768 0.04190762 -0.033750758 0.043970734 0.08189337 -0.15258332 -0.0027553716 0.00444137
-0.081938 0.07253534 -0.049198125 0.13988714 -0.0036412354 -0.048349947 0.12859458 -0.09462284
0.13919492 -0.014592557 0.11164056 0.046105888 0.022873716 -0.060307052 -0.09567189 0.03325066
-0.068586886 0.084005445 -0.0043820925 0.085376404 0.043759506 0.04920544 -0.051327337 0.02814562
-0.10677894 -0.011633378 -0.045616474 -0.036970567 -0.03692763 -0.033159245 0.027101867 0.14891545
0.08210093 0.005433618 -0.042693708 -0.0029525473 -0.044818852 0.07390216 0.017429551 -0.10438453
-0.05080635 -0.16631201 0.10089404 -0.121999495 0.0589167 0.07446557 -0.022880882 -0.08826157
0.05797237 0.07387265 -0.07579051 0.04223057 -0.060375374 -0.031795416 -0.04613664 -0.08355794
0.05968505 0.11752668 0.08978064 0.03165878 0.056441948 0.014098761 -0.11473796 -0.052693453
00000000: 316e de3d 9473 8bbd b148 f23d d027 73bd
00000010: d444 0b3d bb03 3c3c fd6d 1abe d89e 18bd
00000020: 6c16 cabd d2cf 573c 3420 14bd 9ed4 3b3d
00000030: 3b86 7ebd 3c25 993d e4d4 b63d 319e e7bc
00000040: ca28 553c ac7a b43d aa0c b9bd f302 173d
00000050: c721 9dbc 85a3 8fbd 3609 3ebd f6d7 693d
00000060: 192f 06be 5179 10bd c1f7 89bd 38fe fc3b
00000070: 082e 003d 1bc3 993d 6dbe edbc 5dd2 dc3d
00000080: e15c 35be 4290 62bd bd1b 55bd b885 fb3a
00000090: 621b 833c 9c27 07ba 7d6c 2c3e 1a79 283e
000000a0: 86e3 96bd 8266 0c3e 70b1 d8bd fbdc 6bbd
000000b0: 9cdc cbbd 67f7 12be 4c04 b7bd 28f9 003e
000000c0: a619 403c bada 55be d3a8 09bd 2289 8ebd
000000d0: 81f3 133e 2e25 353d cb94 a0ba 9a5f c83b
000000e0: 7692 113e efac e13c 4006 6d3d 8ee9 c1bd
000000f0: 5139 0b3d 2fe5 e2bd b44b 9b3d 74ac e83c
00000100: a0a3 673d 4d83 2fbd 9537 de3c 1456 80bd
00000110: ba81 b13d 3072 263d a2a1 5bbd ecc2 9bbd
00000120: 98b5 89bc 3bb1 203c 04f3 2abd db98 943d
00000130: 7c90 a5bd 257b 29be 2bb3 83bd f9b5 203e
00000140: fe49 363e cffb 0a3d dec9 d4bd 2a04 58be
00000150: 2489 183d 9153 59be 2fa9 adbc 8959 f23c
00000160: 3a42 85bd fd53 b2bc 0cd6 dd3c 2df6 10bd
00000170: e955 893c 044a 183d eba9 583d 7114 6a3d
00000180: d9d3 0abd 28da 29bd f920 6d3d 1044 853d
00000190: 377e f73d eaf9 8c3d d73c ab3d c949 3f3d
000001a0: 0c61 c23d 6c6f e8bd 35d2 dbbc 9b7d 0bbe
000001b0: f755 9f3d d7bc 1dbd 1304 44bd f080 683d
000001c0: 754b bd3d 92b0 903c 710a acbd d2ee a13c
000001d0: 0c5d 9f3d 52da d33d f9bc 0a3d cc53 22be
000001e0: ea83 2fbd d463 033d 5265 923c 1461 8d3c
000001f0: ad30 c1bd ef1f 03bd af02 83bd 9e5b 8a3d
00000200: 1bfa 68bc f5e6 e1bd d5d3 bb3c 2102 9ebc
00000210: a494 253c 919c 1fbd 75a6 293d f651 ce3d
00000220: 4da6 813d 0572 ccbc c4e4 243d de3e 82bd
00000230: c067 10bd 36ab 9ebd 552e 313e 7ce6 f2bd
00000240: cbcc cabd 616e 3e3d 7cc8 b1bd 3ed3 d2bd
00000250: ce35 81bb 1390 df3b 3808 4ebb a5ff d5bd
00000260: 372c 3b3d 0b26 1a3c abb8 88bd 1ea5 f6bd
00000270: d950 233d 5a2a b33d a3b6 213c 9efc 0dbd
00000280: 7829 703d d867 803d 2b18 a33d 2971 963d
00000290: edd9 8e3d 0ef0 bbbd d9c5 39bd af8d 413c
000002a0: 8b2c 443d 6e73 3dbd 4edf 7fbd ca80 213e
000002b0: f9cc 143d fc94 403e 4e9c 3cbe 0656 79bd
000002c0: 4d75 0dbe 8451 9bbd 99ac 303c 73d5 af3d
000002d0: 28f0 dbbd 0b38 d03d 73b3 b13a c077 a3bb
000002e0: e47a a1bd 53a7 2b3d 3c3e 0abd a81a 343d
000002f0: b6b7 a73d cd3e 1cbe 7793 34bb e988 913b
00000300: 1ccf a7bd 698d 943d f983 49bd 933e 0f3e
00000310: cba1 6ebb 980a 46bd 4cae 033e 9fc9 c1bd
00000320: 1d89 0e3e 9f15 6fbc cea3 e43d 87d9 3c3d
00000330: a961 bb3c 8704 77bd a0ef c3bd d831 083d
00000340: 4877 8cbd 0c0b ac3d a897 8fbb d3d9 ae3d
00000350: 2b3d 333d a58b 493d 9d3c 52bd a591 e63c
00000360: ebae dabd ed99 3ebc 57d8 3abd 736e 17bd
00000370: 6d41 17bd fdd1 07bd bc04 de3c 4b7d 183e
00000380: 8824 a83d 7e0c b23b 99df 2ebd 867f 41bb
00000390: f993 37bd 045a 973d 6bc8 8e3c 8ec7 d5bd
000003a0: 521a 50bd b24d 2abe 89a1 ce3d dfda f9bd
000003b0: a352 713d 6881 983d b070 bbbc 7bc2 b4bd
000003c0: 7074 6d3d 8b4a 973d 0e38 9bbd f6f9 2c3d
000003d0: 2b4c 77bd e93b 02bd c6f9 3cbd 6d20 abbd
000003e0: 5078 743d d4b1 f03d eade b73d a3ac 013d
000003f0: ac2f 673d 7dfe 663c bcfb eabd 17d5 57bd

fc2.bias f4 [10]
0.027679665 -0.04793618 0.013263303 0.038516488 -0.009993354 0.076556 0.01899411 -0.046666656
0.06132777 -0.04396301
00000000: 77c0 e23c ba58 44bd 534e 593c 77c3 1d3d
00000010: 2abb 23bc 64c9 9c3d 8999 9b3c 8925 3fbd
00000020: d432 7b3d 8f12 34bd
