model_checkpoint_epoch_2.pth (torch, 815827 bytes, 4 tensors)

fc1.weight f4 [256, 784]
0.015749717 -0.01841605 -0.009576192 0.014110613 -0.03627526 0.018765934 -0.009999899 0.015516881
0.0023123426 -0.007025551 0.0072531975 -0.0008907018 0.0103913 -0.016570436 -0.0052564293 -0.0058678063
0.0025240202 -0.0027952187 0.028567702 0.008461369 -0.015952773 -0.02422259 -0.008638837 -0.018057566
-0.014097154 -0.0009424942 0.018637737 0.016759483 -0.037565045 0.019487478 0.0073247356 0.031224469
0.020921025 -0.035193577 -0.036638293 -0.01992106 0.028623596 -0.008680986 0.012545991 -0.019334994
0.032324728 -0.017862637 0.024065854 -0.0022849254 -0.02153299 0.015657615 -0.021692075 0.0077631623
-0.012999366 -0.006572522 -0.036991667 -0.019684684 0.016727246 -0.011333896 0.03292069 0.025975619
-0.0043248152 -0.026491223 0.019094724 0.008436124 -0.0257376 0.020539202 0.018954854 0.028872207
-0.022929018 -0.009071988 -0.0042842934 0.0011923896 -0.0315604 -0.029984502 0.01458359 -0.013262925
0.012818705 -0.0022827268 0.0075693605 0.0038375796 0.009324919 0.01447058 -0.036005944 0.015154606
-0.027857397 -0.0296087 -0.00048060756 -0.0087385345 0.018323319 -0.023335958 -0.034404937 0.02334449
-0.007961301 0.016964972 0.008303339 -0.030316332 0.0034632445 0.0037508542 -0.029207267 -0.023021167
0.005299295 -0.0012782962 -0.022778623 -0.018414345 0.025300572 -0.013257274 0.012175929 0.008010871
-0.028316034 -0.03453478 0.030351931 -0.0020573142 0.020884253 0.0046741283 0.008828625 0.024024554
0.031212293 -0.026351886 0.001809014 0.023965498 0.022906745 0.018099366 -0.030440997 -0.030910129
-0.028650519 -0.0025865375 0.028980138 -0.028167496 0.013388976 -0.024472 -0.036491968 -0.007539099
0.019803405 0.03335605 -0.024189334 0.0028242788 0.025767015 0.019766292 0.018576693 0.022097606
0.020099552 0.006639116 -0.027069457 -0.03266122 -0.019017562 -0.0068113278 -0.02456215 0.010192081
0.007213922 -0.013451308 0.0072185816 0.004081411 0.01421132 0.018430354 -0.014637301 0.035024684
-0.0033243059 0.0034933013 -0.02578009 -0.014305226 -0.011854766 -0.0023346473 0.035058156 -0.0070658
-0.023672462 0.015742501 0.013349666 0.023169206 -0.019412251 0.0059946883 -0.015500498 -0.010712669
-0.031113913 -0.018929904 -0.0135559 0.012037562 0.002065655 0.0034831895 0.02945702 0.02931768
0.02161258 3.1892097e-05 -0.021050192 0.035154235 -0.0008679975 0.0074065253 -0.019713756 0.0018175121
-0.013271657 0.04665685 -0.015697662 -0.014139403 0.008928334 -0.008316908 0.022774823 -0.007090232
-0.01393282 0.0013232076 0.023743937 -0.027762325 0.014119127 0.020286174 0.032300685 -0.028234808
0.0030896496 -0.031777147 0.026804214 -0.01511843 0.02415745 0.007745393 0.01012186 0.0149523085
0.018576132 0.026515855 0.013035306 0.017583057 -0.01901999 0.044716273 0.053041566 0.0476872
0.039499793 -0.012922745 -0.0008505489 0.042682167 -0.021664431 0.033185598 -0.029987263 -0.027770698
0.014860418 -0.0282744 -0.010723518 0.022897549 0.022420105 0.029081205 -0.009233665 -0.02643669
0.041130237 0.0037511163 0.0011173593 0.025968209 -0.008928563 0.034246918 0.031507775 -0.018618928
-0.012118119 0.014916232 0.035949748 0.01719936 -0.0049184184 0.01046065 -0.022611104 -0.012837704
-0.016731149 0.03103429 0.029942939 -0.014694619 -0.0010435856 0.013342816 0.0018709272 -0.020752748
00000000: 8d05 813c 42dd 96bc 76e5 1cbc 3330 673c
00000010: 5e95 14bd 04bb 993c 9ed6 23bc 843a 7e3c
00000020: ac8a 173b 9836 e6bb 3bac ed3b fc7d 69ba
00000030: 4540 2a3c b9be 87bc 203e acbb ba46 c0bb
00000040: 086a 253b fd2f 37bb d006 ea3c 8ea1 0a3c
00000050: 64af 82bc 746e c6bc e989 0dbc 76ed 93bc
00000060: c0f7 66bc b711 77ba 2bae 983c 2f4b 893c
00000070: cedd 19bd 34a4 9f3c 5604 f03b 75ca ff3c
00000080: 9262 ab3c 2427 10bd 0912 16bd 7e31 a3bc
00000090: 087c ea3c b23a 0ebc b38d 4d3c 6c64 9ebc
000000a0: ef66 043d aa54 92bc c125 c53c b0be 15bb
000000b0: f465 b0bc 6644 803c 94b3 b1bc 2062 fe3b
000000c0: 4bfb 54bc 505e d7bb 9384 17bd c641 a1bc
000000d0: 9407 893c ceb1 39bc d8d7 063d d2ca d43c
000000e0: 2eb7 8dbb 1f04 d9bc 8a6c 9c3c ab37 0a3c
000000f0: a9d7 d2bc d441 a83c 3647 9b3c 6885 ec3c
00000100: a3d5 bbbc ada2 14bc 4263 8cbb f549 9c3a
00000110: 7a45 01bd 0fa2 f5bc 03f0 6e3c bd4c 59bc
00000120: 8c05 523c cd99 15bb 6608 f83b e77f 7b3b
00000130: 8cc7 183c 0316 6d3c f87a 13bd 064b 783c
00000140: 3235 e4bc f28d f2bc 0efa fbb9 122c 0fbc
00000150: c91a 963c 0d2b bfbc 31ec 0cbd f23c bf3c
00000160: 1e70 02bc 20fa 8a3c ba0a 083c f559 f8bc
00000170: 9af7 623b e4d0 753b 1444 efbc e396 bcbc
00000180: b5a5 ad3b 818c a7ba 3c9a babc aed9 96bc
00000190: 2543 cf3c 0a35 59bc 8c7d 473c 0740 033c
000001a0: 07f7 e7bc 5774 0dbd 9da4 f83c 01d4 06bb
000001b0: 7415 ab3c 6e29 993b f0a5 103c 24cf c43c
000001c0: ecb0 ff3c e9df d7bc 701c ed3a 4b53 c43c
000001d0: eda6 bb3c 1f45 943c 665f f9bc 3d37 fdbc
000001e0: 7eb4 eabc e682 29bb c167 ed3c 85bf e6bc
000001f0: 705d 5b3c 8179 c8bc 9a78 15bd 8c0a f7bb
00000200: c03a a23c 5aa0 083d b628 c6bc 8917 393b
00000210: 5915 d33c ebec a13c 262e 983c 0a06 b53c
00000220: d1a7 a43c f18c d93b c4c0 ddbc c5c7 05bd
00000230: b8ca 9bbc 8f31 dfbb 9036 c9bc b0fc 263c
00000240: c462 ec3b e062 5cbc da89 ec3b 5bbd 853b
00000250: 99d6 683c 41fb 963c 4ad1 6fbc 0b76 0f3d
00000260: 99dc 59bb dfef 643b c430 d3bc 7760 6abc
00000270: 7e3a 42bc e200 19bb 2499 0f3d 3a88 e7bb
00000280: c0ec c1bc 6bf6 803c 8fb8 5a3c 59cd bd3c
00000290: 7106 9fbc 176f c43b cdf5 7dbc 3184 2fbc
000002a0: 9be2 febc e312 9bbc 9119 5ebc 3239 453c
000002b0: f15f 073b 3946 643b d94f f13c a22b f03c
000002c0: de0c b13c e1c3 0538 7471 acbc e3fd 0f3d
000002d0: 548a 63ba 70b2 f23b be7e a1bc 9639 ee3a
000002e0: 5d71 59bc 411b 3f3d 6298 80bc f4a8 67bc
000002f0: 2648 123c a443 08bc 4492 ba3c 2d55 e8bb
00000300: 7c46 64bc 7b6f ad3a a582 c23c d16d e3bc
00000310: e953 673c 312f a63c b94d 043d af4c e7bc
00000320: b87b 4a3b c128 02bd 8394 db3c 4bb3 77bc
00000330: d8e5 c53c 11cd fd3b 28d6 253c 87fa 743c
00000340: f92c 983c c737 d93c 0992 553c 580a 903c
00000350: cfcf 9bbc 6928 373d 1d42 593d a753 433d
00000360: 89ca 213d ecb9 53bc 5ff7 5eba 7fd3 2e3d
00000370: 9b79 b1bc 9fed 073d d9a7 f5bc 607f e3bc
00000380: 1c79 733c b79f e7bc b2b1 2fbc a493 bb3c
00000390: 5eaa b73c b53b ee3c cc48 17bc c291 d8bc
000003a0: 2e78 283d 4ad5 753b 5b74 923a 48bb d43c
000003b0: 1c49 12bc 7f46 0c3d 4c0e 013d b986 98bc
000003c0: 138b 46bc 3663 743c 0b40 133d ace5 8c3c
000003d0: af2a a1bb 2563 2b3c ec3a b9bc 3c55 52bc
000003e0: c30f 89bc a03b fe3c e54a f53c b3c1 70bc
000003f0: ecc8 88ba d49b 5a3c e639 f53a ab01 aabc

fc1.bias f4 [256]
0.011561123 -0.025780803 0.029315507 -0.00862988 0.026901107 -0.0045578303 0.027638655 0.021234693
0.016539164 0.027212644 -0.03008632 -0.0018135412 -0.008111315 0.021284498 -0.029760592 0.03100759
-0.0069900146 0.020073956 0.00024622056 -0.012782201 -0.008217994 0.037293844 0.007889638 0.017541908
-0.0021416007 0.02161526 0.005714203 -0.014319767 -0.022952419 -0.0055034016 0.008344187 -0.005268685
-0.011866189 0.035571598 0.022209914 0.0015261673 0.0020901235 0.025382848 -0.018200204 0.03498365
0.015662227 0.012421733 0.008358661 0.0058906632 0.0016237983 -0.011548652 -0.0037415146 -0.013897352
-0.0067052 0.0041532344 -0.0073638223 -1.9244984e-05 0.013949804 -0.024311926 -0.0306561 0.03333096
0.01996826 -0.014396397 0.024193779 -0.005332773 0.024017837 0.012247341 -0.01083809 0.032156754
-0.0026602058 -0.024997773 -0.0068506547 -0.011276925 0.037880052 0.003032115 -0.014999187 -0.016753878
0.0043636006 0.017012727 -0.005178764 0.0017417781 0.035411097 0.023052499 0.01597622 -0.013271276
-0.022886686 0.02888087 0.041183203 -0.02715264 -0.003379751 0.0028477847 -0.029804224 -0.0059416764
0.017612394 0.023697458 -0.03311685 -0.037028156 0.0037438788 0.020031378 -0.02996882 -0.024506574
-0.005644056 -0.031527508 -0.03532072 0.005470805 -0.0037399544 0.006772049 0.025663918 -0.023638567
0.014723573 -0.020479662 -0.0074882503 0.027246105 0.026173906 0.00016292828 0.010077043 0.03775549
0.01272553 0.02257701 0.02897205 0.016631482 0.02601808 0.019759504 -0.016000038 -0.0015712037
-0.028321166 0.018825594 0.0032962854 -0.013280268 0.0133775445 0.017086428 -0.0060397564 0.007122045
-0.024359137 0.015495784 0.009991217 0.017905725 0.0076270564 -0.0136518115 -0.01660441 -0.023505328
-0.025006479 0.012880145 0.0063019274 -0.00027873047 -0.0065371445 -0.003047653 -0.020713007 0.016494017
-0.0043070787 0.03423987 -0.008103811 -0.002433236 -0.015987432 0.0279261 -0.018652504 0.026594682
0.031834874 -0.012242705 -0.009643145 -0.0020203579 0.019826919 0.030446816 0.03648567 -0.0034338317
0.021602154 0.014311322 -0.014078784 -0.028499898 -0.009272934 0.036866546 0.023693992 0.017648946
0.01628727 -0.010132234 0.00048550224 0.028669933 -0.02402281 0.008240214 0.034508117 0.0051538413
0.032526236 -0.0070450893 0.0009800582 0.018069642 -0.014101947 0.015478289 0.010970212 0.015096946
-0.004476841 -0.013213705 -0.0019789732 0.009061605 0.0026726057 0.029429328 0.031686552 0.004261197
-0.023526527 -0.028986337 -0.0012477305 0.034922294 0.026906196 0.027108686 0.0021515002 0.037386645
0.04026478 -0.0010518866 0.025381753 -0.007723203 -0.03395989 -0.01568069 0.0092662545 -0.0058775996
-0.0073597683 0.02299482 0.030459927 0.03835273 0.0065086978 0.035300005 -0.00933307 0.00015462335
-0.0052307625 -0.028059306 0.00046156088 -0.015706714 0.015916487 0.013706141 0.011384293 -0.00837768
0.013920611 -0.015679287 -0.013028619 -0.014605781 0.003101998 -0.01140982 -0.024174675 -0.027929544
0.03222336 -0.031063942 0.0011968849 -0.003726871 -0.017620511 0.02574003 0.023838405 0.0356404
-0.008599767 -0.006422459 0.039142545 0.021126695 0.0057967356 0.030609624 -0.01238733 0.023321474
0.005947661 0.02068413 -0.0021867892 -0.019355446 0.03367874 0.033623558 0.005858948 -0.006958624
00000000: dd6a 3d3c 4332 d3bc 1327 f03c 5764 0dbc
00000010: b65f dc3c da59 95bb 766a e23c 61f4 ad3c
00000020: 247d 873c 0ded de3c 9677 f6bc 58b4 edba
00000030: 52e5 04bc d45c ae3c 7ccc f3bc a103 fe3c
00000040: 7e0c e5bb 2372 a43c 2a17 8139 706c 51bc
00000050: c4a4 06bc 6ec1 183d 8a43 013c 0cb4 8f3c
00000060: 195a 0cbb 7c12 b13c 363e bb3b 759d 6abc
00000070: b606 bcbc e155 b4bb 0fb6 083c efa4 acbb
00000080: 676a 42bc 86b3 113d 91f1 b53c ad09 c83a
00000090: 74fa 083b b1ef cf3c 9818 95bc 044b 0f3d
000000a0: 124e 803c 8684 4b3c c4f2 083c 7706 c13b
000000b0: a1d5 d43a 8f36 3dbc 3334 75bb b8b1 63bc
000000c0: 4bb7 dbbb db17 883b 384c f1bb 4a70 a1b7
000000d0: b88d 643c ce29 c7bc 8022 fbbc 0b86 083d
000000e0: 7a94 a33c dede 6bbc 0832 c63c 8bbe aebb
000000f0: 0ec1 c43c 12a9 483c 3f92 31bc cdb6 033d
00000100: d956 2ebb 21c8 ccbc 757b e0bb dac2 38bc
00000110: 1d28 1b3d 73b6 463b 26bf 75bc 6e3f 89bc
00000120: 89fc 8e3b 465e 8b3c 9fb2 a9bb 604c e43a
00000130: 3a0b 113d 98d8 bc3c 90e0 823c c46f 59bc
00000140: dc7c bbbc 9397 ec3c b8af 283d 376f debc
00000150: d07e 5dbb e6a1 3a3b fd27 f4bc 65b2 c2bb
00000160: de47 903c 2c21 c23c 89a5 07bd d6aa 17bd
00000170: dd5b 753b d818 a43c 2c81 f5bc 03c2 c8bc
00000180: c6f1 b8bb fd22 01bd 76ac 10bd 7044 b33b
00000190: 061a 75bb 10e8 dd3b 233d d23c aba5 c1bc
000001a0: 243b 713c f7c4 a7bc ff5f f5bb 3933 df3c
000001b0: a96a d63c bad7 2a39 2f1a 253c 80a5 1a3d
000001c0: be7e 503c 6cf3 b83c cb56 ed3c bf3e 883c
000001d0: de23 d53c afde a13c 8312 83bc d9f0 cdba
000001e0: ca01 e8bc 2238 9a3c 7e06 583b 7b95 59bc
000001f0: 7d2d 5b3c d6f8 8b3c 26e9 c5bb 0b60 e93b
00000200: d08c c7bc 07e2 7d3c 34b2 233c 07af 923c
00000210: 63ec f93b d9ab 5fbc f905 88bc 3f8e c0bc
00000220: 63da ccbc 3e07 533c 6680 ce3b 9222 92b9
00000230: 8b35 d6bb 22bb 47bb 53ae a9bc 761e 873c
00000240: 6522 8dbb 1b3f 0c3d d9c5 04bc ed76 1fbb
00000250: 13f8 82bc 47c5 e43c 23cd 98bc 17dd d93c
00000260: 4965 023d a095 48bc 48fe 1dbc fb67 04bb
00000270: 106c a23c 9a6b f93c ff71 153d 230a 61bb
00000280: 00f7 b03c 097a 6a3c b3aa 66bc 9e78 e9bc
00000290: 81ed 17bc 6001 173d e719 c23c 8694 903c
000002a0: e16c 853c ab01 26bc 028b fe39 35dd ea3c
000002b0: 7ccb c4bc f601 073c 6258 0d3d 8ee1 a83b
000002c0: 3b3a 053d 7eda e6bb 4c75 803a c906 943c
000002d0: da0b 67bc a698 7d3c 67bc 333c 2e59 773c
000002e0: 77b2 92bb 4c7e 58bc a9b1 01bb 2077 143c
000002f0: e226 2f3b c615 f13c c2c9 013d 83a1 8b3b
00000300: b4ba c0bc c174 edbc e38a a3ba ae0a 0f3d
00000310: 626a dc3c 0913 de3c 2f00 0d3b bd22 193d
00000320: afec 243d 75df 89ba 65ed cf3c ec12 fdbb
00000330: 8719 0bbd ca74 80bc 7dd1 173c e198 c0bb
00000340: 362a f1bb a25f bc3c 1987 f93c c117 1d3d
00000350: ea46 d53b bd96 103d bce9 18bc 6422 2239
00000360: d166 abbb a1dc e5bc a7fd f139 5eab 80bc
00000370: 4b63 823c b98f 603c 3085 3a3c 8942 09bc
00000380: 4613 643c d971 80bc fd75 55bc 164d 6fbc
00000390: e44a 4b3b 41f0 3abc f809 c6bc 80cc e4bc
000003a0: a4fc 033d cf79 febc cbe0 9c3a 853e 74bb
000003b0: e458 90bc c1dc d23c c248 c33c abfb 113d
000003c0: 0ae6 0cbc 7e73 d2bb ef53 203d e411 ad3c
000003d0: 8bf2 bd3b 09c1 fa3c 3af4 4abc ad0c bf3c
000003e0: 99e4 c23b c471 a93c 3c50 0fbb 508f 9ebc
000003f0: b8f2 093d dbb8 093d 6bfc bf3b 2b05 e4bb

fc2.weight f4 [10, 256]
0.11231305 -0.06274089 0.06751947 -0.06010345 0.049812846 0.015457215 -0.1149578 -0.009462608
-0.0767449 0.016226623 -0.03481226 0.052922785 -0.058968626 0.06335699 0.0866268 -0.008122264
0.009377306 0.08271791 -0.07555697 0.024394926 -0.03321519 -0.05300945 -0.04973192 0.06277277
-0.12614757 -0.024514403 -0.059172485 0.018696737 0.009988661 0.083719656 -0.029036324 0.10793428
-0.16505925 -0.053601187 -0.048863985 -0.0049918704 -0.0041662985 -0.0007878395 0.12363093 0.16271865
-0.06531669 0.13033672 -0.09857151 -0.045159865 -0.09353227 -0.12467161 -0.08505181 0.11201916
-0.004499026 -0.17049238 -0.046193674 -0.05200129 0.13121939 0.025331978 0.0018181159 0.013500014
0.13575341 0.016037365 0.016514895 -0.08479126 0.03613243 -0.093769744 0.07976113 0.010617379
0.053918604 -0.029776884 0.029521639 -0.04648643 0.063910306 0.052970327 -0.045831066 -0.05025614
-0.009245082 0.027111957 -0.048796292 0.07541016 -0.0753409 -0.12271247 -0.055604655 0.14853927
0.1775924 0.0070228325 -0.10108565 -0.15370914 0.040378075 -0.16770428 -0.015697693 0.021038398
-0.048393156 -0.025452945 0.0010971626 -0.038574893 0.010551989 0.036517665 0.03349725 0.05341924
-0.03052061 -0.03200679 0.043002132 0.029797278 0.11807136 0.06655577 0.06920359 0.055748843
0.09306647 -0.09140038 -0.036273304 -0.12026976 0.07905752 -0.04096988 -0.027761152 0.0461508
0.081411205 0.0054313387 -0.0581554 0.014664049 0.05207083 0.08707847 0.028370094 -0.14735925
-0.06551335 0.032177188 0.023919288 0.011688095 -0.08120089 -0.025431102 -0.060987893 0.075688146
-0.03339634 -0.09516597 0.014654112 -0.0072643757 0.00206382 -0.035909906 0.04552562 0.11224893
0.0585316 -0.034206726 0.04479941 -0.051968597 -0.025330612 -0.060798932 0.16928954 -0.113579854
-0.072374545 0.056238834 -0.07781776 -0.07877401 -0.008205062 -0.0011115955 -0.012944715 -0.09651344
0.031711247 0.012792811 -0.06236538 -0.10721045 0.026718503 0.08997772 0.02406286 -0.042771492
0.03277692 0.0471894 0.062303007 0.05812267 0.06592154 -0.067044 -0.04284939 -0.0051401486
0.054153666 -0.037251085 -0.046620104 0.15791923 0.04496882 0.16140813 -0.139906 -0.06106978
-0.121260434 -0.05719297 -0.024702763 0.08023598 -0.0888936 0.10750424 0.0012032513 -0.0030936792
-0.06853477 0.024283126 -0.04565047 0.039927147 0.07406623 -0.12712088 -0.0063245418 0.0025293175
-0.06264077 0.080603085 -0.037021726 0.13903366 -0.02105194 -0.03838199 0.11120342 -0.08140573
0.12647124 0.00066868303 0.11039485 0.040595155 0.011463898 -0.04876623 -0.07383953 0.03735324
-0.05176058 0.08659888 -0.0027892527 0.08033971 0.038486376 0.046178382 -0.046340466 0.031866573
-0.0935715 -0.011667552 -0.05509824 -0.025492953 -0.032296028 -0.022867784 0.03950433 0.0930283
0.08211205 -0.001194069 -0.044944692 0.0056250137 -0.031307235 0.053639974 0.020040907 -0.07961518
-0.049950294 -0.13110277 0.09870628 -0.078068346 0.058483884 0.08322588 -0.0088667115 -0.09021244
0.052467465 0.070213474 -0.08298605 0.03253931 -0.031898234 -0.05638537 -0.03837581 -0.08256097
0.038844496 0.09055237 0.05630943 0.032707583 0.040216267 0.013522075 -0.08607657 -0.052696526
00000000: 6204 e63d 4c7e 80bd a647 8a3d 092f 76bd
00000010: 8e08 4c3d 4240 7d3c ff6e ebbd 0e09 1bbc
00000020: 6e2c 9dbd b2ed 843c 4d97 0ebd 90c5 583d
00000030: 1689 71bd 4fc1 813d 6469 b13d 3f13 05bc
00000040: 46a3 193c 0268 a93d 9dbd 9abd ded7 c73c
00000050: a70c 08bd 7020 59bd b3b3 4bbd 038f 803d
00000060: d42c 01be 6ed2 c8bc d95e 72bd e629 993c
00000070: 7ba7 233c 3675 ab3d 96dd edbc a60c dd3d
00000080: 4b05 29be eb8c 5bbd 9a25 48bd d892 a3bb
00000090: 7285 88bb 0487 4eba 3732 fd3d b89f 263e
000000a0: c2c4 85bd fd76 053e dcdf c9bd 8df9 38bd
000000b0: d98d bfbd d453 ffbd a52f aebd 4d6a e53d
000000c0: 916c 93bb 8e95 2ebe 9435 3dbd 4eff 54bd
000000d0: 605e 063e 0285 cf3c d94d ee3a 2a2f 5d3c
000000e0: f102 0b3e cb60 833c 3f4a 873c 0aa7 adbd
000000f0: 99ff 133d 5a0a c0bd ce59 a33d 84f4 2d3c
00000100: c1d9 5c3d a7ee f3bc 5dd7 f13c 8e68 3ebd
00000110: 68e3 823d 6af7 583d 5bb9 3bbd 62d9 4dbd
00000120: af78 17bc e519 de3c 9fde 47bd a470 9a3d
00000130: 544c 9abd ad50 fbbd b5c1 63bd ae1a 183e
00000140: c8da 353e ca1f e63b fe05 cfbd ee65 1dbe
00000150: 7b63 253d acba 2bbe 7398 80bc b858 ac3c
00000160: e737 46bd b282 d0bc abce 8f3a b500 1ebd
00000170: 40e2 2c3c 8c93 153d 6a34 093d 22ce 5a3d
00000180: 5c06 fabc 8d19 03bd 0123 303d 6c19 f43c
00000190: 66cf f13d 644e 883d 9dba 8d3d e658 643d
000001a0: a299 be3d 1f30 bbbd 5193 14bd fe4f f6bd
000001b0: e9e8 a13d 08d0 27bd 5b6b e3bc 9f08 3d3d
000001c0: ebba a63d 5ff9 b13b 5b34 6ebd 7b41 703c
000001d0: 3948 553d 3256 b23d 6668 e83c 58e5 16be
000001e0: dd2b 86bd 3acc 033d 62f2 c33c 6c7f 3f3c
000001f0: a74c a6bd e354 d0bc 71ce 79bd 6302 9b3d
00000200: 9aca 08bd 60e6 c2bd cd17 703c 000a eebb
00000210: 2741 073b 4416 13bd 1379 3a3d c4e2 e53d
00000220: d5be 6f3d 5a1c 0cbd 967f 373d 06dd 54bd
00000230: 2582 cfbc 4d08 79bd 3d5a 2d3e 8e9c e8bd
00000240: 1b39 94bd b15a 663d eb5e 9fbd 4554 a1bd
00000250: 866e 06bc f5b2 91ba 1216 54bc d7a8 c5bd
00000260: a7e3 013d f098 513c d772 7fbd 2791 dbbd
00000270: c3e0 da3c 3d46 b83d 7a1f c53c 2931 2fbd
00000280: 1741 063d ac49 413d 7031 7f3d 0912 6e3d
00000290: df01 873d 5d4e 89bd d882 2fbd b16e a8bb
000002a0: 3cd0 5d3d 9894 18bd b9f4 3ebd 94b5 213e
000002b0: 3a31 383d 2c48 253e 8543 0fbe 4e24 7abd
000002c0: 6457 f8bd 2d43 6abd 735d cabc c352 a43d
000002d0: d90d b6bd 2f2b dc3d 6ab6 9d3a 53bf 4abb
000002e0: f55b 8cbd 68ed c63c fdfb 3abd a68a 233d
000002f0: 09b0 973d fa2b 02be 1a3e cfbb e8c2 253b
00000300: ce49 80bd 3b13 a53d 18a4 17bd d75e 0e3e
00000310: 1e75 acbc 6f36 1dbd 9ebe e33d 0cb8 a6bd
00000320: ad81 013e 8f4a 2f3a b216 e23d 1b47 263d
00000330: 13d3 3b3c 19bf 47bd 2e39 97bd b6ff 183d
00000340: e702 54bd c15a b13d e5cb 36bb 2589 a43d
00000350: e4a3 1d3d 8b25 3d3d 80cf 3dbd 8686 023d
00000360: 6aa2 bfbd 4329 3fbc b1ae 61bd 99d6 d0bc
00000370: d748 04bd 3855 bbbc 4bcf 213d 9f85 be3d
00000380: 5d2a a83d 4f82 9cba ed17 38bd 0952 b83b
00000390: 043c 00bd 97b5 5b3d d42c a43c 490d a3bd
000003a0: ae98 4cbd ce3f 06be 8526 ca3d 4ce2 9fbd
000003b0: cc8c 6f3d 5572 aa3d af45 11bc 4dc1 b8bd
000003c0: 20e8 563d 15cc 8f3d 97f4 a9bd f147 053d
000003d0: b9a7 02bd 59f4 66bd f42f 1dbd ba15 a9bd
000003e0: 681b 1f3d 8573 b93d b8a4 663d 63f8 053d
000003f0: d0b9 243d b18b 5d3c ea48 b0bd 50d8 57bd

fc2.bias f4 [10]
0.035155118 -0.04667137 0.018933823 0.037500545 -0.010688485 0.081140436 0.021022206 -0.04048779
0.033064313 -0.041190665
00000000: d0fe 0f3d 7a2a 3fbd 1b1b 9b3c 2c9a 193d
00000010: c11e 2fbc f52c a63d c336 ac3c 86d6 25bd
00000020: 726e 073d 8bb7 28bd
