model_checkpoint_epoch_6.pth (torch, 815827 bytes, 4 tensors)

fc1.weight f4 [256, 784]
000000 dc 1e 83 3c f4 c3 94 bc cb b2 18 bc de 62 6b 3c
       0.016005926 -0.018159844 -0.009319971 0.0143668335
000010 b3 88 13 bd 52 d4 9b 3c f3 a3 1f bc 92 36 81 3c
       -0.03601904 0.01902214 -0.009743678 0.015773091
000020 3b 55 28 3b 4e d1 dd bb 85 11 f6 3b 74 53 26 ba
       0.0025685567 -0.006769336 0.0075094127 -0.0006344833
000030 f0 72 2e 3c 6b a5 85 bc d6 d8 a3 bb 70 e1 b7 bb
       0.01064752 -0.016314229 -0.005000214 -0.005611591
000040 97 34 36 3b 6e 65 26 bb 1e 20 ec 3c 39 d4 0e 3c
       0.0027802342 -0.0025390047 0.028823908 0.00871759
000050 15 96 80 bc 26 55 c4 bc 3e 57 09 bc 28 d4 91 bc
       -0.015696565 -0.023966383 -0.008382617 -0.01780136
000060 15 c5 62 bc 44 e7 33 ba 79 c7 9a 3c 7d 64 8b 3c
       -0.013840933 -0.00068627694 0.018893944 0.01701569
000070 23 d1 18 bd 82 bd a1 3c a0 69 f8 3b e8 f1 00 3d
       -0.037308823 0.019743685 0.007580951 0.0314807
000080 e0 7b ad 3c 8d 1a 0f bd e6 19 15 bd 08 54 a1 bc
       0.021177232 -0.03493743 -0.03640165 -0.01969339
000090 99 ef eb 3c c9 6c 0a bc 52 1c 51 3c ef bd 9c bc
       0.028800773 -0.008448788 0.0127631 -0.019133536
0000a0 89 28 05 3d ff d7 90 bc 4b 25 c7 3c 88 f1 06 bb
       0.03250936 -0.01768112 0.024309775 -0.0020590741
0000b0 53 a9 ae bc 6e 2b 82 3c 88 eb af bc f2 cf 02 3c
       -0.021320974 0.01588985 -0.021474615 0.007984148
0000c0 58 ef 50 bc e7 ff ce bb e8 7c 16 bd 70 36 9f bc
       -0.0127523765 -0.006317127 -0.036740214 -0.019435138
0000d0 e2 20 8b 3c 23 7f 35 bc 83 e4 07 3d 20 e4 d6 3c
       0.016983453 -0.011077675 0.03317691 0.026231825
0000e0 e4 51 85 bb d1 ea d6 bc ca 85 9e 3c 8c b2 0e 3c
       -0.0040686 -0.026235016 0.019350905 0.008709561
0000f0 48 b1 d0 bc 09 50 aa 3c 3b 1a 9d 3c 73 21 ee 3c
       -0.02547516 0.020790117 0.019177547 0.029068684
000100 36 b7 ba bc 6c 1a 12 bc 1d c6 8a bb 25 71 66 3a
       -0.02279244 -0.008917432 -0.0042350427 0.00087906636
000110 44 b0 03 bd cd 80 fc bc b9 0a 5e 3c 64 37 65 bc
       -0.032150522 -0.030823136 0.013552361 -0.013990257
000120 a2 77 4b 3c 9b 83 2f bb 5e 43 00 3c bf ce 8c 3b
       0.012418659 -0.0026781324 0.007828562 0.004297107
000130 ed fd 1d 3c 79 e3 70 3c 7f 97 12 bd 98 d3 7a 3c
       0.00964306 0.014702671 -0.03578901 0.015309237
000140 2d a6 e2 bc 3f 76 f0 bc 95 4a 6b b9 67 f9 0a bc
       -0.02766713 -0.02935326 -0.0002243913 -0.008482314
000150 17 34 98 3c bf 11 bd bc 98 df 0b bd 85 b7 c1 3c
       0.018579526 -0.023079751 -0.034148782 0.02364708
000160 07 54 fc bb 38 ca 87 3c 12 33 02 3c ed 17 fc bc
       -0.0077004465 0.016575918 0.007946746 -0.030773127
000170 64 ef 5a 3b ed c2 79 3b 68 83 ef bc 30 21 c6 bc
       0.0033406848 0.003811057 -0.029237464 -0.024185747
000180 39 a4 71 3b 1d 9a 09 bb 7b 9a bc bc 11 cd 8e bc
       0.0036871566 -0.00209964 -0.02302288 -0.017431768
000190 23 fd db 3c b7 c7 23 bc 29 7f 64 3c a3 6a 1d 3c
       0.026854103 -0.009996346 0.013946333 0.009607944
0001a0 5a 23 d0 bc fd 6d 03 bd a6 7e 02 3d ed 08 05 bb
       -0.025407482 -0.032087315 0.031859063 -0.002029951
0001b0 d3 43 aa 3c 6c 50 a9 3b 5f da 15 3c 72 e8 c6 3c
       0.020784294 0.0051670577 0.009146302 0.02428076
0001c0 28 e5 00 3d b5 c6 d5 bc 68 ed 06 3b 7b 3e c6 3c
       0.03146854 -0.026095727 0.0020588282 0.024199715
0001d0 f6 1e bb 3c ba ca 89 3c ad 37 02 bd 43 4f 01 bd
       0.022841912 0.0168203 -0.031791378 -0.03156973
0001e0 c2 10 f7 bc b9 ea fe ba 99 5a f2 3c 0d 3d d7 bc
       -0.030159358 -0.0019448615 0.029584216 -0.026274228
0001f0 85 09 64 3c cc b1 c9 bc b0 7f 15 bd 5f 79 b3 bb
       0.013918285 -0.024620913 -0.036498725 -0.005477115
000200 d3 5c a3 3c f4 9c 16 3d d0 a9 a5 bc 46 87 b7 3b
       0.019941723 0.036770776 -0.020222574 0.0056008426
000210 66 f9 ec 3c 4a ae b9 3c 17 0d aa 3c 8a 7e be 3c
       0.028927516 0.022666115 0.020758195 0.023253698
000220 76 30 b1 3c 62 bb f1 3b 60 3f db bc 1c de 04 bd
       0.021629553 0.007377074 -0.026763618 -0.032438383
000230 6a b1 99 bc 45 cc d6 bb 57 31 c7 bc 5f 02 29 3c
       -0.018761355 -0.0065551125 -0.02431552 0.010315507
000240 a4 56 d0 3b 8b ae 78 bc f0 9b b6 3b 0c 89 35 3b
       0.0063579846 -0.015178333 0.0055727884 0.0027700095
000250 cc f6 79 3c 7d 7c b1 3c 9a dd 27 bc 4b 0b 21 3d
       0.015256595 0.021665806 -0.010245705 0.03931741
000260 ad 16 84 bb 34 57 6f 3b 60 f4 cf bc 3b 90 87 bc
       -0.0040310235 0.0036520483 -0.025385082 -0.016548267
000270 f4 95 76 bc a3 de 2f ba 07 19 16 3d e7 6c ee bb
       -0.0150504 -0.00067088957 0.03664496 -0.0072761658
000280 39 53 b4 bc f6 e9 97 3c 55 11 83 3c 15 a3 c1 3c
       -0.02201234 0.018544178 0.015999475 0.023637334
000290 ad 6b 94 bc f3 41 ee 3b f0 94 78 bc 35 52 2c bc
       -0.01811775 0.0072710454 -0.015172228 -0.010517647
0002a0 4c c9 fc bc 61 fb 98 bc 7b 32 58 bc 64 a9 44 3c
       -0.030857705 -0.018674554 -0.013195629 0.0120032765
0002b0 51 b0 a9 3a e5 7b 77 3b ce 6e f4 3c d9 cd ff 3c
       0.0012946223 0.0037763056 0.029837992 0.031226085
0002c0 a9 4c d4 3c 78 12 3f 3a 34 0e 97 bc 77 9e 1b 3d
       0.02591546 0.0007288824 -0.01843939 0.03799292
0002d0 f2 7a 8b 3a 63 a7 3a 3c 54 41 87 bc 6b 4f 63 3a
       0.0010641499 0.011392447 -0.016510643 0.0008671197
0002e0 a6 26 87 bc 58 fa 32 3d eb 6d 88 bc 39 07 5c bc
       -0.016497921 0.043695778 -0.016653975 -0.013429456
0002f0 60 1e 06 3c f5 ae b4 bb 96 7e d7 3c 4c 6b be bb
       0.008185953 -0.0055140206 0.026305478 -0.0058111306
000300 c6 1e 45 bc 32 ee 1c 3b 52 b7 c7 3c f7 74 e1 bc
       -0.012031263 0.0023945686 0.024379406 -0.027521593
000310 a9 86 6b 3c 70 24 a8 3c ea 4d 06 3d 36 0c e6 bc
       0.014375367 0.020525187 0.03278915 -0.028081995
000320 49 bf cf 3a 03 36 fe bc a8 a5 f6 3c 02 fe 41 bc
       0.0015849854 -0.031031614 0.030108288 -0.011840345
000330 8b ae da 3c 26 83 0f 3c d9 e3 7f 3c 71 62 b3 3c
       0.026694557 0.008759296 0.015618288 0.021897526
000340 c1 df b2 3c 7b 49 fa 3c c2 07 7b 3c 58 a9 9c 3c
       0.02183521 0.030552616 0.015321674 0.019123718
000350 79 1a 93 bc f4 f5 31 3d 50 a1 59 3d 1f f0 39 3d
       -0.01795696 0.04344745 0.053132355 0.045395013
000360 50 17 15 3d e5 b2 65 bc 02 b4 d9 b9 fc 82 39 3d
       0.036399186 -0.014019703 -0.00041523582 0.045290932
000370 7a d3 a7 bc 0a de 0a 3d a6 47 f2 bc 1e 37 e1 bc
       -0.020486582 0.03390316 -0.02957518 -0.027492102
000380 61 81 79 3c 86 38 e5 bc 3b 4f 28 bc cc b6 bd 3c
       0.0152286 -0.027981054 -0.010272796 0.023158453
000390 11 a7 aa 3c c7 02 f8 3c 9e 37 bd bb bb dd cb bc
       0.020831617 0.030274762 -0.0057744524 -0.024886003
0003a0 66 65 27 3d e6 3f d4 3b ce d7 89 3b 40 22 ed 3c
       0.040868185 0.006477344 0.004206634 0.028946996
0003b0 c6 b7 82 bb 42 17 1a 3d 6d 1b 25 3d b0 34 48 bc
       -0.0039891927 0.037619837 0.04030936 -0.012219593
0003c0 8c a1 f5 bb c5 30 34 3c 99 3e 04 3d 17 60 38 3c
       -0.0074960645 0.010997956 0.03228626 0.011253378
0003d0 47 df 00 bc d1 95 c0 3b f5 95 d9 bc 05 4e 39 bc
       -0.0078657335 0.0058772345 -0.026560763 -0.011310105
0003e0 65 46 6c bc 32 58 03 3d 6a 6c fa 3c b3 e7 6b bc
       -0.01442108 0.03206653 0.030569274 -0.014398503
0003f0 70 2d 4d ba 73 58 5f 3c 08 fe 19 3b 72 c2 a7 bc
       -0.00078269 0.013631928 0.0023497362 -0.020478461

fc1.bias f4 [256]
000000 8b 85 33 3c f6 08 ed bc 99 1f d3 3c 8f 14 be bb
       0.010957132 -0.028934937 0.025771903 -0.0058007906
000010 e6 16 d3 3c 01 ee 75 bb 7c bd e2 3c 1c 6e a9 3c
       0.025767755 -0.0037525895 0.027678244 0.020682387
000020 9d b8 9a 3c a7 db e4 3c 24 04 f0 bc 2e 80 8b b8
       0.018886859 0.02793677 -0.02929885 -6.651912e-05
000030 74 d0 43 bc fb bb a9 3c b6 35 ea bc 47 a6 f2 3c
       -0.011951555 0.020719519 -0.028590064 0.029620303
000040 7c 02 c5 bb c2 5a b4 3c 96 7d da ba e2 19 19 bc
       -0.006012259 0.022015933 -0.0016669508 -0.00934455
000050 8a 31 fc bb d2 12 14 3d 9c dc 1e 3c 28 3e 88 3c
       -0.007696335 0.03615076 0.009696152 0.0166312
000060 40 9d ce bb 2b 12 99 3c 3f 7c b4 3b 13 85 4f bc
       -0.0063053668 0.018685421 0.0055079754 -0.012666005
000070 37 23 c3 bc 91 36 d6 bb 38 40 0a 3c 9f eb 72 bb
       -0.023820503 -0.0065372665 0.0084381625 -0.003706671
000080 0c d7 0d bc b4 de 0e 3d c1 0f b9 3c 3f f0 49 3a
       -0.008657228 0.034880355 0.02259052 0.0007703341
000090 65 28 a6 3a f0 45 da 3c 7d 6b 6a bc f4 a9 01 3d
       0.0012676833 0.026644677 -0.014307854 0.03165622
0000a0 1b 44 69 3c 26 ae 6e 3c f0 ba e6 3b fd e8 c2 3b
       0.014237429 0.014567887 0.0070413277 0.0059481845
0000b0 59 42 32 3b a2 6b 41 bc 87 0a c0 bb 9b 44 8b bc
       0.002720019 -0.011805447 -0.00586063 -0.017000487
0000c0 0a 97 d4 bb f1 1b 88 3b 94 9e 10 bc 2a 3b 0a bb
       -0.006487732 0.0041537215 -0.0088268705 -0.0021092393
0000d0 3d 8c 41 3c 8d 70 f8 bc e1 2c f6 bc 6b f8 13 3d
       0.011813221 -0.030327106 -0.030050697 0.03612558
0000e0 01 50 a7 3c 94 e6 7d bc 8b 0c b1 3c 84 72 78 bb
       0.020423891 -0.015496869 0.021612426 -0.0037910054
0000f0 a2 d4 b0 3c 33 1d 33 3c bb 7f 0d bc 49 75 e4 3c
       0.021585766 0.010932255 -0.00863641 0.027887957
000100 2d 6e 04 bc 0f ec cd bc 72 c6 1a bc 0c 6c 5f bc
       -0.008082909 -0.025136976 -0.009446727 -0.0136366
000110 e3 43 20 3d f5 36 92 3b c6 d3 6e bc 99 8d 7d bc
       0.03912724 0.004462118 -0.014576858 -0.015475654
000120 6b d5 dc 3b f3 70 6e 3c 70 57 18 bc 2e d3 2c 3b
       0.0067393086 0.014553296 -0.0092981905 0.002637099
000130 88 f7 09 3d 24 42 9f 3c c8 bf 8c 3c 3a e1 5c bc
       0.03368333 0.019440718 0.017181292 -0.013481433
000140 31 b3 b2 bc a1 98 cf 3c 70 75 2f 3d b8 5e ff bc
       -0.02181396 0.025341334 0.042836607 -0.031173095
000150 be 4d 42 bb 35 21 a4 3a 37 c4 e8 bc 74 a6 93 bb
       -0.0029648389 0.0012522103 -0.028413875 -0.0045059267
000160 0e 26 93 3c da 3a aa 3c 13 7f 1b bd cb a8 2a bd
       0.017962482 0.020780016 -0.037962984 -0.04166488
000170 fd 31 9d 3b c2 b1 a4 3c a6 04 ea bc b3 41 cf bc
       0.004797219 0.020104293 -0.02856667 -0.025299883
000180 a9 4d ed bb b9 8f 0a bd b5 c6 16 bd 95 b2 aa 3b
       -0.007241924 -0.03382847 -0.036810596 0.005209277
000190 26 82 1b bb d7 cf a0 3b fb 05 d9 3c 4f 7b a8 bc
       -0.0023728698 0.004907589 0.02649211 -0.02056661
0001a0 68 82 81 3c 40 91 a8 bc ff 9c 11 bc 1d 32 ee 3c
       0.015809253 -0.020577073 -0.008887528 0.02907663
0001b0 01 2e d3 3c 64 9e 15 ba 48 a4 2f 3c 10 48 1c 3d
       0.025778772 -0.0005707501 0.01072032 0.03815466
0001c0 5d 82 78 3c 65 f1 b6 3c 19 43 ee 3c a0 f6 8e 3c
       0.0151678 0.022331903 0.029084729 0.017451584
0001d0 9e dd df 3c c2 ef 84 3c 07 be 8c bc 19 33 fa 39
       0.027327355 0.016227607 -0.017180456 0.00047721787
0001e0 da d4 ff bc d9 bf 4a 3c 08 34 8b 3b 4a 9b 53 bc
       -0.031229425 0.012374842 0.004248146 -0.012915442
0001f0 0e d5 5b 3c 07 32 78 3c 20 54 b0 bb be 7b 33 3b
       0.013417495 0.015148646 -0.005381122 0.0027386989
000200 e7 f7 cc bc 12 1a 96 3c d4 6d 3d 3c 99 b8 92 3c
       -0.025020553 0.018322978 0.01156183 0.017910289
000210 4a 0e c1 3b cb a8 7f bc 0d f2 84 bc 04 21 c1 bc
       0.005891596 -0.015604208 -0.0162287 -0.023575313
000220 00 f6 c9 bc e7 1f 02 3c 97 f9 ac 3b c3 d4 2a bb
       -0.024653435 0.007942176 0.005278777 -0.0026066757
000230 78 dc c0 bb 51 6a 0d bb 67 b0 b1 bc 19 ec 95 3c
       -0.005885657 -0.0021578262 -0.02169056 0.018301057
000240 0b bd 9e bb d7 16 0d 3d 8b 12 e5 bb a1 48 c3 ba
       -0.004844313 0.03444561 -0.006990736 -0.0014898964
000250 c2 7d 86 bc 7d f3 e0 3c 87 55 a2 bc 69 e2 05 3d
       -0.016417388 0.027459854 -0.019816173 0.032686625
000260 7e 32 08 3d 4c f5 6f bc 6d ae 1d bc 0b f9 54 bb
       0.033251278 -0.014645886 -0.009624106 -0.0032497074
000270 51 12 8b 3c 18 9b ee 3c 62 62 07 3d f9 1c 49 bb
       0.016976507 0.029126689 0.03305281 -0.0030687435
000280 bb f0 84 3c 49 35 8a 3c 2e 42 90 bc 90 c6 f7 bc
       0.01622807 0.016871111 -0.017609682 -0.03024605
000290 e7 b2 15 bc 26 70 17 3d 1f fb ea 3c b6 e3 81 3c
       -0.009136892 0.036972187 0.028684197 0.015855651
0002a0 9a e6 82 3c 15 bb 07 bc aa a7 a8 ba f4 d5 ee 3c
       0.0159791 -0.00828435 -0.0012867351 0.029154755
0002b0 65 e6 cf bc a8 1e 3f 3c 4c d4 11 3d c0 e8 bd 3b
       -0.025378415 0.011665024 0.035602853 0.005795568
0002c0 dd e5 f2 3c 83 0d d4 bb fc 03 28 ba e3 42 85 3c
       0.029650623 -0.0064713373 -0.0006409285 0.016267246
0002d0 69 8c 54 bc e6 ec 5d 3c c1 c5 3b 3c 20 0d 84 3c
       -0.0129729295 0.0135452505 0.011460722 0.01611954
0002e0 29 77 4e bb 89 89 75 bc 0d ea d4 b8 e2 7f 34 3c
       -0.003150413 -0.014986404 -0.00010152543 0.011016818
0002f0 e4 7f 0b 3b 03 d5 d1 3c 5b 6d f6 3c 9e 1c 62 3b
       0.0021285946 0.025614267 0.030081442 0.003450192
000300 de 41 c8 bc fe b4 e7 bc 73 fd 7a ba d9 19 0f 3d
       -0.02444547 -0.028284546 -0.000957451 0.03493676
000310 19 5a d7 3c 17 64 d1 3c e9 47 7f 3b 23 e0 1c 3d
       0.02628808 0.025560422 0.0038952774 0.03829969
000320 2c e6 30 3d 0b 4b 9a ba f9 fc d4 3c e3 66 2f bc
       0.04318826 -0.0011771632 0.025999533 -0.010705682
000330 4a d9 0f bd 6d f6 71 bc 50 52 c4 3b a7 af 10 bc
       -0.035119332 -0.014768225 0.0059912577 -0.008830941
000340 7c 5e 06 bc 32 09 c7 3c 5e 67 dc 3c 2e 2d 23 3d
       -0.008201238 0.024296377 0.026904758 0.03983801
000350 ba a8 b1 3b 0b 4d 0e 3d 14 3c 1b bc b5 7d d9 3a
       0.005421725 0.034741443 -0.009474773 0.001659325
000360 6b e1 91 bb 3a 2f e7 bc 26 e3 bb 39 d9 69 79 bc
       -0.0044519207 -0.028220762 0.00035836658 -0.01522299
000370 0b b3 26 3c 5d 8b 71 3c 75 9c 47 3c f3 d4 49 bc
       0.010174523 0.014742699 0.012183298 -0.012318837
000380 49 46 50 3c 8b ee 68 bc a2 3f 46 bc 71 bb 4e bc
       0.01271207 -0.014217029 -0.012100132 -0.012617932
000390 17 04 87 39 ed 3d 6d bc a7 a8 ae bc f8 0b ea bc
       0.00025752254 -0.014480096 -0.021320654 -0.02857016
0003a0 12 75 f4 3c a3 24 03 bd 5f 0c 43 3a 08 38 3d bb
       0.02984098 -0.03201736 0.0007440503 -0.0028872509
0003b0 38 a7 93 bc 1a ec de 3c e5 7b b8 3c cd ed 2a 3d
       -0.018024072 0.027212191 0.022520015 0.04173069
0003c0 3d 92 d0 bb 92 79 a0 bb 00 98 2c 3d e0 73 96 3c
       -0.006365089 -0.004897305 0.042137146 0.0183658
0003d0 0a 07 e7 3b 44 29 de 3c a4 1d 3c bc a2 21 ac 3c
       0.0070503997 0.027119286 -0.011481676 0.021012131
0003e0 d0 d7 ed 3b 3f d3 8e 3c d0 ab eb ba e4 72 a4 bc
       0.007258393 0.017434714 -0.0017980281 -0.020074315
0003f0 64 7e 0d 3d 4b 26 02 3d c4 90 93 3b 11 19 f7 bb
       0.034544364 0.0317748 0.0045033414 -0.00754083

fc2.weight f4 [10, 256]
000000 e0 10 e5 3d b3 63 8c bd b1 9c 05 3e f6 05 74 bd
       0.11184859 -0.068549536 0.13048054 -0.059575997
000010 91 ab f0 3c 8a e0 36 3c 69 69 23 be 75 37 35 bd
       0.029378684 0.011161933 -0.1595818 -0.04424234
000020 5a 13 d7 bd eb 3b 4e 3c 61 40 15 bd d1 59 31 3d
       -0.10501738 0.012587528 -0.03643835 0.043298546
000030 a3 07 81 bd ad f7 a1 3d bd 0a b8 3d bc 75 0c bd
       -0.06300285 0.079085685 0.08986423 -0.034291968
000040 4d a0 7a 3c c2 3e c3 3d eb 47 c0 bd ef bd 2c 3d
       0.015297008 0.095334545 -0.09388717 0.042173322
000050 61 00 6f bc b6 bc 99 bd 1c 16 39 bd 05 9b 62 3d
       -0.014587493 -0.07506697 -0.0451871 0.05532362
000060 43 8a 07 be 05 75 1f bd 93 90 8c bd f5 f3 a1 3b
       -0.13236336 -0.038929958 -0.06863513 0.004942412
000070 ac 0f 19 3d 88 85 99 3d b2 dd ef bc d2 f0 e0 3d
       0.03736846 0.07496172 -0.029280517 0.10983433
000080 2e a2 37 be e4 4a 67 bd 8c 5a 58 bd 7c 35 4d 3b
       -0.1793296 -0.056467906 -0.052820727 0.0031312397
000090 ca 64 9a 3c f9 e8 ca b9 b9 d6 3b 3e cb ac 2b 3e
       0.018846888 -0.0003870202 0.18343629 0.16765134
0000a0 0c 85 9c bd 09 b6 0d 3e 8b 7c d8 bd 45 b1 78 bd
       -0.07642564 0.13838972 -0.1057063 -0.060715932
0000b0 82 27 cb bd 96 9c 16 be d4 47 b7 bd 15 d8 03 3e
       -0.09919645 -0.1470817 -0.08949247 0.12875398
0000c0 ea f3 81 3c 73 3d 5f be 43 c3 f8 bc e1 53 96 bd
       0.015863378 -0.21800785 -0.030366546 -0.073402174
0000d0 3b eb 17 3e 33 8d 45 3d 60 94 09 b8 0e cb 8b 3b
       0.14835827 0.04823036 -3.280153e-05 0.0042661494
0000e0 b6 3a 15 3e d3 80 05 3d 23 ed 86 3d 79 c4 c5 bd
       0.14573178 0.03259356 0.06588199 -0.09656615
0000f0 06 db 1a 3d 6e ac e9 bd 46 bd 9c 3d 6e d3 08 3d
       0.037806533 -0.114098415 0.076532885 0.03340476
000100 bc 8a 6f 3d 2c 86 3e bd aa a3 d8 3c 40 94 87 bd
       0.058481917 -0.046514675 0.026445229 -0.06620073
000110 74 af c1 3d 7a 24 1f 3d 09 e5 66 bd 93 4d aa bd
       0.09457293 0.038853146 -0.05637077 -0.08315577
000120 cc 93 9a bc 4a 32 4f 3b b1 31 23 bd 85 dc 92 3d
       -0.018869303 0.0031615668 -0.03984231 0.07170967
000130 c7 e7 a8 bd b0 6b 34 be e1 7e 87 bd ad b9 24 3e
       -0.08247333 -0.17619205 -0.06615997 0.16086455
000140 b7 a2 3c 3e 07 11 24 3d a7 bc d5 bd 68 9c 63 be
       0.18421446 0.0400553 -0.10436373 -0.22227633
000150 f6 e4 14 3d e7 80 62 be e2 db a9 bc 44 d5 01 3d
       0.036351167 -0.22119485 -0.020734731 0.031697527
000160 b6 d3 8e bd 4e fb ac bc 46 fc 0e 3d 3a 69 07 bd
       -0.069739744 -0.021115925 0.034908555 -0.033059336
000170 e1 38 a0 3c a5 cf 18 3d 7c e4 70 3d 1e 22 69 3d
       0.019558372 0.0373074 0.05881165 0.056917302
000180 61 8a 0b bd 31 33 37 bd d9 7e 6f 3d 42 00 94 3d
       -0.034067515 -0.044726554 0.05847058 0.07226612
000190 c6 13 fe 3d 6e 66 8d 3d 89 26 bc 3d 82 7e 45 3d
       0.12406115 0.069043025 0.091870375 0.04821635
0001a0 af a6 c8 3d 0d c4 f5 bd 2f 3b bf bc 07 38 10 be
       0.09797417 -0.12000284 -0.02334365 -0.14083873
0001b0 1e 48 9f 3d 66 1b 15 bd c8 7c 5f bd 14 f6 75 3d
       0.07777427 -0.036403082 -0.05456236 0.06004913
0001c0 45 70 c9 3d a3 da a4 3c 54 4a b7 bd dc e7 ad 3c
       0.09835867 0.020123785 -0.08949724 0.021228723
0001d0 2a a9 ae 3d 3a 49 e0 3d e9 ed 0a 3d ce d3 23 be
       0.08528359 0.10951467 0.033918295 -0.15998766
0001e0 c8 30 25 bd 12 5c 04 3d 52 5e 84 3c 9e 8c a5 3c
       -0.040329725 0.032314368 0.016158257 0.020208653
0001f0 64 19 c6 bd 2a da 0a bd 7b fd 80 bd a2 b2 87 3d
       -0.096728116 -0.033899464 -0.062983476 0.066258684
000200 f2 51 50 bc 65 81 ee bd bb ee d1 3c ab f7 a4 bc
       -0.01271485 -0.11645774 0.02562653 -0.020137629
000210 25 ad 3f 3c 3c 82 24 bd c7 31 2a 3d 83 c8 ce 3d
       0.011698996 -0.040163264 0.041551378 0.10096838
000220 51 d5 85 3d d6 84 b0 bc ba b4 2a 3d 7e 8e 89 bd
       0.065348275 -0.021547716 0.04167626 -0.06716631
000230 e9 e2 1f bd 15 c6 a6 bd 82 99 35 3e be 0e f3 bd
       -0.039034758 -0.0814325 0.1773434 -0.11868046
000240 09 c4 da bd b9 de 38 3d 01 94 b6 bd e4 3c dc bd
       -0.10681922 0.04513428 -0.08914948 -0.107538015
000250 b0 d2 08 bb b0 b8 23 3c 52 6b 55 bb 70 b0 d3 bd
       -0.0020877533 0.009992763 -0.0032565189 -0.10336387
000260 af 33 54 3d e2 32 f7 3b e0 40 89 bd 4c c6 fc bd
       0.0518071 0.0075439075 -0.06701827 -0.123425096
000270 fb 3e 3a 3d bd d3 b9 3d 98 3d d4 3b 34 88 0a bd
       0.04547022 0.09073589 0.006477069 -0.0338213
000280 fc 58 85 3d e6 3d 8c 3d 90 b0 a8 3d a7 e3 9d 3d
       0.06511113 0.06847744 0.082368016 0.07709437
000290 65 22 8d 3d 85 a3 c8 bd ff f7 28 bd 28 e7 8b 3c
       0.06891326 -0.09796814 -0.041252133 0.017077997
0002a0 50 8f 4b 3d 7b 86 43 bd 6f cb 88 bd 2e 7f 25 3e
       0.04969722 -0.047735672 -0.06679427 0.16161796
0002b0 63 9c 14 3d f0 3c 4a 3e 7c cf 46 be d5 e4 78 bd
       0.036281954 0.19749808 -0.19415087 -0.060765106
0002c0 c8 96 11 be 60 c6 a3 bd bc 04 ac 3c e5 66 b1 3d
       -0.14217675 -0.079968214 0.020998351 0.08662204
0002d0 81 6a e5 bd 1e bd cf 3d 9b eb 5b 3b 37 59 96 bb
       -0.11201955 0.10143493 0.003355718 -0.004588272
0002e0 20 44 aa bd 5e 76 3e 3d 17 23 02 bd ca bb 38 3d
       -0.08313775 0.046499602 -0.031771746 0.045100965
0002f0 c8 14 ab 3d 23 ec 21 be 87 4d 81 ba a1 c3 b3 3b
       0.08353573 -0.15812735 -0.0009865024 0.0054859673
000300 40 a9 b1 bd 9a ac 93 3d 96 49 50 bd e9 d5 0f 3e
       -0.0867486 0.072106555 -0.050851427 0.14046444
000310 83 43 85 ba 61 c6 4a bd 25 6a 0b 3e 93 cd ca bd
       -0.0010167215 -0.049505595 0.1361471 -0.099024914
000320 97 ad 13 3e 4c 32 93 bc 7b 4a ec 3d 25 f7 49 3d
       0.14421688 -0.01796832 0.115376435 0.04930796
000330 c2 41 d2 3c 8d fc 85 bd be d3 cc bd aa b2 0e 3d
       0.025666121 -0.06542311 -0.10001324 0.034838356
000340 50 de 95 bd 86 37 b3 3d 3b 42 9c bb 68 9d b0 3d
       -0.07317793 0.08750825 -0.0047686375 0.08623773
000350 c2 86 37 3d dd 87 50 3d 1b 98 57 bd 0d 48 db 3c
       0.04480625 0.05091082 -0.052635293 0.026767755
000360 3f 4e e0 bd 04 57 3d bc 31 ec 2e bd 66 f3 23 bd
       -0.10952424 -0.011556391 -0.04270572 -0.040027045
000370 cb c5 1b bd 80 e4 11 bd 01 e1 ca 3c b8 f6 27 3e
       -0.038030427 -0.035618305 0.024765493 0.1640271
000380 02 ee a6 3d 52 68 f3 3b 62 66 27 bd d5 22 f3 bb
       0.08150865 0.0074282074 -0.040869124 -0.007419924
000390 db 00 4a bd fb 03 a3 3d db 31 96 3c b0 a1 e2 bd
       -0.049317222 0.079597436 0.01833432 -0.11065996
0003a0 af 76 4f bd 18 53 33 be 6b a3 d2 3d 52 4a 09 be
       -0.050650295 -0.17512167 0.10285076 -0.13407257
0003b0 4f 51 78 3d 70 88 96 3d bc 9f d6 bc d8 ce af bd
       0.060624417 0.07350242 -0.026199214 -0.08584374
0003c0 cb c8 72 3d 60 31 a4 3d 8a f7 92 bd b2 a4 3b 3d
       0.059273522 0.0801723 -0.071761206 0.045811363
0003d0 fe 8a 8d bd 43 a4 d3 bc 19 f4 3d bd a8 fa aa bd
       -0.06911276 -0.025835162 -0.046375368 -0.0834859
0003e0 53 9a 8b 3d d7 1b fb 3d 75 11 c9 3d e6 d7 fd 3c
       0.068165444 0.122611694 0.09817783 0.030986737
0003f0 4a 0e 7e 3d 50 9b 64 3c b5 3b ff bd cf 0a 58 bd
       0.062025346 0.013953045 -0.1246256 -0.052744683

fc2.bias f4 [10]
000000 28 d8 dd 3c ab cb 43 bd 8f 4c 3d 3c 20 18 1e 3d
       0.02708061 -0.047801655 0.0115538975 0.038597226
000010 b5 65 0c bc 1e 57 99 3d 93 35 93 3c 20 6a 4b bd
       -0.008569171 0.074873194 0.017969882 -0.049661756
000020 b5 18 8a 3d 5f f8 32 bd
       0.06742994 -0.043693896
