model_checkpoint_epoch_9.pth (torch, 815827 bytes, 4 tensors)

fc1.weight f4 [256, 784]
0	0x3c83a3f9	0.0160694
1	0xbc943ed7	-0.01809637
2	0xbc17a888	-0.00925649
3	0x3c6c6d21	0.014430315
4	0xbd13461b	-0.03595553
5	0x3c9c596f	0.019085614
6	0xbc1e99b0	-0.009680197
7	0x3c81bbad	0.015836561
8	0x3b2c7e42	0.0026320373
9	0xbbdbbcb8	-0.0067058466
10	0x3bf8261b	0.007572902
11	0xba15af00	-0.0005709976
12	0x3c2f7d33	0.010711002
13	0xbc85204e	-0.016250756
14	0xbba1c440	-0.004936725
15	0xbbb5ccda	-0.005548102
16	0x3b3a5d9e	0.0028437148
17	0xbb223c67	-0.002475524
18	0x3ceca53b	0.028887382
19	0x3c0fde7c	0.008781072
20	0xbc8010fb	-0.015633097
21	0xbcc3d009	-0.02390291
22	0xbc084cfb	-0.008319135
23	0xbc914f0b	-0.017737886
24	0xbc61bad2	-0.013777452
25	0xba2342d2	-0.00062279135
26	0x3c9b4c96	0.018957417
27	0x3c8be99a	0.017079163
28	0xbd188e8b	-0.037245315
29	0x3ca2429f	0.019807158
30	0x3bfa7e36	0.00764444
31	0x3d013480	0.03154421
32	0x3cae00fd	0.021240706
33	0xbd0ed807	-0.03487399
34	0xbd14e10d	-0.036347438
35	0xbca0eac6	-0.019643199
36	0x3cec23ff	0.028825758
37	0xbc098f26	-0.008395946
38	0x3c51e7a7	0.012811578
39	0xbc9c7969	-0.019100862
40	0x3d054e01	0.032545093
41	0xbc907d3e	-0.017637845
42	0x3cc7afcf	0.024375824
43	0xbb039255	-0.0020076234
44	0xbcae4b11	-0.021276029
45	0x3c8294bc	0.015940063
46	0xbcaf98d4	-0.021435179
47	0x3c038f55	0.0080297785
48	0xbc4ff29a	-0.012692118
49	0xbbcceb75	-0.0062536546
50	0xbd163b7c	-0.036677822
51	0xbc9eb49e	-0.019373234
52	0x3c8ba5ff	0.017046927
53	0xbc3474e0	-0.011014193
54	0x3d08271b	0.03324042
55	0x3cd7693d	0.026295299
56	0xbb833d4a	-0.004005109
57	0xbcd665b4	-0.026171543
58	0x3c9f0ad4	0.019414343
59	0x3c0fec87	0.00878442
60	0xbcd023aa	-0.025407631
61	0x3caacd15	0.020849744
62	0x3c9d6f2c	0.01921805
63	0x3cee5600	0.029093742
64	0xbcba9527	-0.0227762
65	0xbc113051	-0.008861617
66	0xbb8abeb6	-0.0042341603
67	0x3a3e3dca	0.0007257132
68	0xbd04d6d1	-0.032431427
69	0xbd0049c8	-0.031320363
70	0x3c558b4d	0.0130337
71	0xbc6adf3d	-0.014335451
72	0x3c45b7fa	0.012067789
73	0xbb49bf83	-0.0030784316
74	0x3c029dc0	0.007972181
75	0x3b94a002	0.004535676
76	0x3c20ca89	0.009813913
77	0x3c726a5e	0.014795868
78	0xbd126788	-0.035743266
79	0x3c7b4ca8	0.0153381005
80	0xbce25e14	-0.02763275
81	0xbceff0f3	-0.029289698
82	0xb928b8d2	-0.0001609058
83	0xbc09ef24	-0.008418832
84	0x3c98b934	0.018643
85	0xbcbc8ca2	-0.023016278
86	0xbd0b9d12	-0.03408534
87	0x3cc28357	0.023744268
88	0xbbf92bba	-0.0076040896
89	0x3c86703a	0.016410936
90	0x3bfdc344	0.0077442247
91	0xbcfe2da3	-0.03102762
92	0x3b522416	0.0032064966
93	0x3b82de48	0.003993783
94	0xbced2fca	-0.028953452
95	0xbcc7e7e0	-0.024402559
96	0x3b53ea90	0.0032335855
97	0xbb07bde0	-0.002071254
98	0xbcb930bd	-0.022606248
99	0xbc883030	-0.01662454
100	0x3ce398d4	0.027782835
101	0xbc09a8d9	-0.008402073
102	0x3c70a595	0.014687915
103	0x3c219073	0.0098610995
104	0xbcc83592	-0.024439607
105	0xbd00495d	-0.031319965
106	0x3d0427ce	0.032264523
107	0xbb1a2b1b	-0.0023524228
108	0x3ca7aeeb	0.02046915
109	0x3baf3ef9	0.005348083
110	0x3c177904	0.009245161
111	0x3cc76d8f	0.024344234
112	0x3d0127c0	0.03153205
113	0xbcd5419c	-0.026032262
114	0x3b0ae4f7	0.0021193603
115	0x3cc6be4a	0.024260659
116	0x3cbabb7e	0.022794481
117	0x3c848898	0.016178414
118	0xbd045dfa	-0.032316186
119	0xbd01e2ff	-0.03171062
120	0xbcfa9a30	-0.0305911
121	0xbaa5cf05	-0.0012650198
122	0x3cf21d15	0.029554883
123	0xbcd4b848	-0.025966778
124	0x3c5d7981	0.013517738
125	0xbcd11594	-0.025522985
126	0xbd182f8a	-0.03715471
127	0xbba54028	-0.0050430484
128	0x3ca086d3	0.01959554
129	0x3d1805d9	0.03711495
130	0xbca43ec1	-0.020049455
131	0x3bb8018f	0.00561542
132	0x3cf66a03	0.030079847
133	0x3cc3a8f8	0.023884282
134	0x3cb29f61	0.021804513
135	0x3cc199d1	0.023632916
136	0x3cb60205	0.02221776
137	0x3bfdaaa1	0.007741288
138	0xbcda3639	-0.026637184
139	0xbd04a98c	-0.032388255
140	0xbc992c4d	-0.018697882
141	0xbbd4b7af	-0.0064916234
142	0xbcc6b312	-0.02425531
143	0x3c299bb2	0.010352062
144	0x3bc4f3ea	0.006010522
145	0xbc82b5b2	-0.01595578
146	0x3ba446e6	0.0050133346
147	0x3b0e8acf	0.0021750217
148	0x3c81baf7	0.015836222
149	0x3cba720e	0.022759464
150	0xbc10ccb8	-0.008837871
151	0x3d283b73	0.04107232
152	0xbba8b511	-0.005148538
153	0x3b437545	0.0029824537
154	0xbcc84937	-0.024448974
155	0xbc8b5dc2	-0.01701248
156	0xbc8b50a2	-0.017006222
157	0xbaa9409a	-0.001291293
158	0x3d115b7a	0.03548763
159	0xbc0fa207	-0.008766658
160	0xbcb0216a	-0.021500308
161	0x3ca0ce3b	0.019629588
162	0x3c8ce5e4	0.017199464
163	0x3cc29c9d	0.02375632
164	0xbc8e8942	-0.017399434
165	0x3c05fd98	0.008178137
166	0xbc760cd4	-0.015017707
167	0xbc2ba171	-0.010475502
168	0xbcfc442f	-0.030794231
169	0xbc9877cb	-0.01861181
170	0xbc564d23	-0.013079914
171	0x3c44e7f2	0.012018191
172	0x3a8aa1d7	0.0010576796
173	0x3b838238	0.004013326
174	0x3cf4fd68	0.02990599
175	0x3cfe991c	0.031078868
176	0x3cdd53f1	0.027017565
177	0x371287ae	8.7338685e-06
178	0xbc9360f3	-0.017990565
179	0x3d1edc45	0.038784284
180	0x3ae60e13	0.0017551802
181	0x3c53cb34	0.012926865
182	0xbc742c04	-0.014903072
183	0x3ab6b0bc	0.0013938169
184	0xbc916714	-0.017749347
185	0x3d2be117	0.04196271
186	0xbc8fb383	-0.017541653
187	0xbc66a1ca	-0.014076659
188	0x3c01debf	0.007926642
189	0xbb94af3b	-0.0045374907
190	0x3ce2a0b9	0.02766453
191	0xbbb807fe	-0.005616187
192	0xbc2fcac7	-0.010729498
193	0x3b61e4d3	0.0034468665
194	0x3cc9ff23	0.024657791
195	0xbce0fc3a	-0.027464021
196	0x3c6c90f3	0.014438855
197	0x3ca87e65	0.020568082
198	0x3d0729f3	0.03299899
199	0xbce54196	-0.027985375
200	0x3a8bbba1	0.0010660776
201	0xbcfbcfda	-0.03073876
202	0x3cfcb6fa	0.030848969
203	0xbc3cb4b3	-0.011517691
204	0x3cd935c8	0.026514903
205	0x3c07ca31	0.008287952
206	0x3c9451ab	0.018105349
207	0x3ccc6c23	0.024953907
208	0x3cbae18d	0.02281263
209	0x3cff5101	0.031166555
210	0x3c701739	0.014653974
211	0x3ca2f867	0.019893838
212	0xbc8ecce8	-0.017431691
213	0x3d2d8329	0.042361412
214	0x3d59a70a	0.053137816
215	0x3d3388ae	0.04383152
216	0x3d0d03c1	0.034427408
217	0xbc77b2a4	-0.015118275
218	0xb9b3a497	-0.0003426417
219	0x3d3e54cb	0.046467584
220	0xbca53fb7	-0.020171983
221	0x3d0c3cfa	0.03423784
222	0xbcf1ae16	-0.029501956
223	0xbce09e98	-0.027419373
224	0x3c7bfcd4	0.015380103
225	0xbce49b99	-0.027906226
226	0xbc250c5d	-0.010073748
227	0x3cbf323b	0.023339381
228	0x3ca7769e	0.020442303
229	0x3cfbba0f	0.030728368
230	0xbb9060ea	-0.0044060843
231	0xbcc62774	-0.024188735
232	0x3d26ef1e	0.040755384
233	0x3c0fd1b3	0.0087780235
234	0x3bdeabf9	0.006795403
235	0x3cfcd74d	0.030864382
236	0xbb126bb4	-0.0022342028
237	0x3d172aef	0.03690618
238	0x3d31ea54	0.043436363
239	0xbc1b0ed1	-0.009463982
240	0xbbab8e67	-0.0052354815
241	0x3c140f17	0.009036801
242	0x3cfb1f49	0.030654566
243	0x3bed8709	0.0072487635
244	0xbc1c02e5	-0.0095221745
245	0x3b5de773	0.0033859878
246	0xbce8d897	-0.02842359
247	0xbc349224	-0.011021171
248	0xbc682199	-0.014168167
249	0x3d034def	0.032056745
250	0x3cfae692	0.030627523
251	0xbc6ab8e0	-0.014326304
252	0xba3c1f99	-0.0007176339
253	0x3c608af2	0.013705002
254	0x3b25d092	0.002530132
255	0xbca6788e	-0.020321157

fc1.bias f4 [256]
0	0x3c3111e7	0.010807491
1	0xbcf9dd7d	-0.030501122
2	0x3ccaba70	0.024747103
3	0xbb9bc490	-0.0047536567
4	0x3cca8e7b	0.024726143
5	0xbb514a60	-0.00319352
6	0x3ce878fa	0.028377999
7	0x3ca9be02	0.020720486
8	0x3ca96f6f	0.020683018
9	0x3ce70f7e	0.02820563
10	0xbcec09e2	-0.028813306
11	0x3995e36f	0.00028588946
12	0xbc5afb53	-0.013365584
13	0x3ca945df	0.0206632
14	0xbcecaf44	-0.028892167
15	0x3ce75ba0	0.028241932
16	0xbbc39fb6	-0.0059699668
17	0x3cb881b9	0.022522794
18	0xbb0fa71e	-0.0021919678
19	0xbbfdf641	-0.007750303
20	0xbbebca3f	-0.0071957405
21	0x3d132884	0.03592731
22	0x3c39bf96	0.011337182
23	0x3c84de0d	0.016219163
24	0xbbfbcc9d	-0.007684304
25	0x3c8b03b7	0.016969545
26	0x3bc8bbe3	0.0061259135
27	0xbc4e0ea5	-0.012576734
28	0xbcc96545	-0.024584422
29	0xbbf387af	-0.007431946
30	0x3c157f0d	0.00912453
31	0xbb40cbe8	-0.0029418413
32	0xbc00c4c8	-0.007859416
33	0x3d0f3764	0.034964934
34	0x3cb73055	0.022361914
35	0x39b28b32	0.00034054514
36	0x3b041196	0.0020152084
37	0x3cde1fd3	0.027114784
38	0xbc4ba038	-0.012428336
39	0x3cf75112	0.030190025
40	0x3c55167e	0.013005851
41	0x3c72bc53	0.014815408
42	0x3bb4a137	0.0055123824
43	0x3bba1ce3	0.005679713
44	0x3b2d1104	0.0026407847
45	0xbc5578db	-0.0130293025
46	0xbbecffd8	-0.0072326474
47	0xbc93765a	-0.01800077
48	0xbba14296	-0.0049212677
49	0x3b6e2149	0.0036335757
50	0xbc223907	-0.009901292
51	0xbb97e693	-0.004635641
52	0x3c2f54dd	0.010701385
53	0xbd0148e5	-0.03156366
54	0xbcf830e6	-0.030296754
55	0x3d1a25d4	0.037633732
56	0x3cab1a8d	0.020886684
57	0xbc863cd4	-0.016386427
58	0x3cad4381	0.021150352
59	0xbb8c4968	-0.0042812116
60	0x3cab7622	0.020930354
61	0x3c2b02ab	0.010437648
62	0xbbb18fe1	-0.005418763
63	0x3cd643dc	0.026155405
64	0xbc31bdc4	-0.010848466
65	0xbcd38bf9	-0.02582358
66	0xbc366be8	-0.011134125
67	0xbc791637	-0.01520305
68	0x3d230f71	0.039809648
69	0x3bac4ad8	0.0052579455
70	0xbc6bec18	-0.014399551
71	0xbc7f4846	-0.015581196
72	0x3bf5db24	0.0075029302
73	0x3c632372	0.013863431
74	0xbc472c7d	-0.012156603
75	0x3b62feb0	0.003463667
76	0x3d099cf6	0.033596955
77	0x3c8f5a3e	0.017499086
78	0x3c914755	0.01773421
79	0xbc4b4dd5	-0.012408693
80	0xbcaf3614	-0.021388091
81	0x3cbedb9b	0.023298075
82	0x3d32aa39	0.04361937
83	0xbd09f300	-0.03367901
84	0xbb1ed870	-0.0024237894
85	0x3a823255	0.0009933213
86	0xbce73c12	-0.028226886
87	0xbb88d614	-0.0041759107
88	0x3c96383f	0.018337367
89	0x3c9e9b17	0.019361062
90	0xbd2495a2	-0.040181763
91	0xbd2e4842	-0.04254938
92	0x3bc1b310	0.0059112385
93	0x3ca54ac0	0.020177245
94	0xbce53aff	-0.027982233
95	0xbcd46fe2	-0.025932256
96	0xbbf1b157	-0.007375877
97	0xbd06604f	-0.03280669
98	0xbd15d671	-0.03658146
99	0x3bac77a3	0.0052632852
100	0xbae135bd	-0.0017182153
101	0x3b97109c	0.0046101343
102	0x3ce60801	0.028079988
103	0xbc9f5f59	-0.019454645
104	0x3c87c712	0.016574416
105	0xbca9bb80	-0.02071929
106	0xbc17ab5f	-0.009257167
107	0x3cf669d8	0.030079767
108	0x3cdaacde	0.026693758
109	0x3962ec5d	0.00021641092
110	0x3c2d8cca	0.010592649
111	0x3d1cccaf	0.03828114
112	0x3c856276	0.016282301
113	0x3cbc799f	0.023007212
114	0x3cee4889	0.029087322
115	0x3c93642a	0.017992098
116	0x3ce6911b	0.028145364
117	0x3c745d7e	0.014914868
118	0xbc96404c	-0.018341206
119	0x3a447f2d	0.00074957573
120	0xbd03d1a1	-0.03218234
121	0x3c21dbf1	0.009879098
122	0x3b9f90db	0.004869563
123	0xbc578fec	-0.013156872
124	0x3c6c1c2b	0.014411013
125	0x3c641c4a	0.01392276
126	0xbba0a632	-0.0049026245
127	0x3a02901f	0.0004980582
128	0xbcd2625f	-0.025681673
129	0x3ca209c4	0.019780047
130	0x3c4732f3	0.012158143
131	0x3c965151	0.018349322
132	0x3ba83796	0.0051335795
133	0xbc862826	-0.016376566
134	0xbc895c90	-0.01676777
135	0xbcc51064	-0.024055667
136	0xbcc6a888	-0.024250284
137	0x3bbab91c	0.0056983363
138	0x3bb5a0ce	0.005542851
139	0xbb54bf0b	-0.0032462503
140	0xbbaa215a	-0.005191964
141	0xbaf24f08	-0.0018486688
142	0xbcb680eb	-0.02227827
143	0x3c95b4ce	0.018274691
144	0xbb864690	-0.004097767
145	0x3d0b3d0d	0.03399377
146	0xbc0024d7	-0.007821283
147	0xbb08b0ae	-0.0020857262
148	0xbc86c0b3	-0.016449308
149	0x3ce159c1	0.027508618
150	0xbcac8586	-0.021059763
151	0x3d10f1c4	0.035386816
152	0x3d0d8c0a	0.03455738
153	0xbc8534b6	-0.016260486
154	0xbc24e72d	-0.010064882
155	0xbb64f205	-0.0034934294
156	0x3c74645e	0.0149165075
157	0x3ceec8dc	0.029148512
158	0x3d04ead9	0.03245053
159	0xbb533766	-0.0032229065
160	0x3c66d910	0.014089838
161	0x3c922c93	0.01784352
162	0xbc9c5015	-0.019081155
163	0xbcfa7144	-0.030571587
164	0xbc13beba	-0.009017641
165	0x3d14727c	0.036241993
166	0x3cf420da	0.029800821
167	0x3c6ec865	0.014574145
168	0x3c7c0de6	0.015384173
169	0xbbfd6625	-0.007733124
170	0xbac947ad	-0.0015356444
171	0x3cf7cff8	0.030250534
172	0xbcd9491c	-0.02652412
173	0x3c77ccf2	0.015124546
174	0x3d11a403	0.035556804
175	0x3be66592	0.007031151
176	0x3ce8e128	0.028427675
177	0xbbd775fd	-0.0065753446
178	0xbaf98b23	-0.0019038658
179	0x3c80d001	0.015724184
180	0xbc5cbcea	-0.013472775
181	0x3c45d83c	0.01207548
182	0x3c3a65c0	0.011376798
183	0x3c888638	0.016665563
184	0xbb4d8a11	-0.0031362812
185	0xbc7f5ddb	-0.015586342
186	0x3a6c3f2d	0.00090120995
187	0x3c422ef1	0.011852012
188	0x3ac6126c	0.0015111691
189	0x3cd38861	0.025821866
190	0x3cf073db	0.02935212
191	0x3b19ef0c	0.002348843
192	0xbcc32cd0	-0.02382508
193	0xbce75302	-0.028237823
194	0xba821368	-0.0009923996
195	0x3d115233	0.035478782
196	0x3cd3b2d0	0.0258421
197	0x3cccca03	0.02499867
198	0x3b85463d	0.004067211
199	0x3d1f6783	0.038917076
200	0x3d37a419	0.04483423
201	0xb89f2ba2	-7.589838e-05
202	0x3cd93ab6	0.026517253
203	0xbc44c9c0	-0.012010992
204	0xbd0fe85a	-0.035133697
205	0xbc63796a	-0.013883928
206	0x3ba3e443	0.005001576
207	0xbc3c9987	-0.011511213
208	0xbc0a7fe3	-0.008453342
209	0x3cc182f3	0.023622012
210	0x3ccd2d79	0.025046097
211	0x3d245a46	0.040125154
212	0x3baac629	0.005211611
213	0x3d0c2f6d	0.034224916
214	0xbc2d147e	-0.010563968
215	0x3af52f28	0.001870607
216	0xbb701183	-0.0036631532
217	0xbce90095	-0.02844266
218	0xb9d2f55c	-0.00040237128
219	0xbc73e2df	-0.014885633
220	0x3bfb44d1	0.0076681157
221	0x3c713839	0.014722877
222	0x3c51c6d5	0.012803753
223	0xbc7488ea	-0.014925221
224	0x3c4bf7a3	0.012449178
225	0xbc648645	-0.013948028
226	0xbc3d3cf4	-0.011550177
227	0xbc56f9e7	-0.013121105
228	0x3a50f604	0.00079712295
229	0xbc8b2bda	-0.016988683
230	0xbc9f0826	-0.019413065
231	0xbcee4ee6	-0.029090356
232	0x3ce72c5d	0.028219396
233	0xbd09d50e	-0.03365045
234	0x39dda8be	0.00042278128
235	0x396c9f9c	0.00022566173
236	0xbc95c34d	-0.018281603
237	0x3cf26eea	0.029593904
238	0x3cb438ba	0.021999706
239	0x3d355262	0.04426802
240	0xbb8e3bf2	-0.004340642
241	0xbb8ef166	-0.004362273
242	0x3d2edeef	0.042693075
243	0x3c8dae08	0.017294899
244	0x3bfce665	0.007717895
245	0x3ccd3440	0.025049329
246	0xbc35b46a	-0.011090377
247	0x3ca5b709	0.02022888
248	0x3c0ed8d6	0.00871869
249	0x3c8442e9	0.016145186
250	0xbaf0a787	-0.0018360474
251	0xbca8e344	-0.020616181
252	0x3d0dc248	0.03460911
253	0x3cfd20fd	0.03089952
254	0x3b85124c	0.004061019
255	0xbbf95863	-0.0076094135

fc2.weight f4 [10, 256]
0	0x3de8f192	0.11374201
1	0xbd8adc03	-0.06780245
2	0x3e2751c6	0.16339788
3	0xbd756eef	-0.059920248
4	0x3c8ff241	0.01757157
5	0x3c335e94	0.010947842
6	0xbe3b303f	-0.18280123
7	0xbd7b6cfc	-0.061383232
8	0xbdfab084	-0.12240699
9	0x3c50a9a6	0.01273576
10	0xbd169ec7	-0.036772516
11	0x3d186421	0.037204865
12	0xbd8454a7	-0.06461459
13	0x3da39561	0.07987476
14	0x3db48822	0.08815028
15	0xbd4d135d	-0.050067294
16	0x3caa52eb	0.020791491
17	0x3dc5d0f2	0.09658994
18	0xbdd43c60	-0.10363078
19	0x3d57d730	0.052695453
20	0xbb7cd1c8	-0.0038577188
21	0xbdb13606	-0.08652882
22	0xbd1f6958	-0.038918823
23	0x3d558a5e	0.05213391
24	0xbe0b6028	-0.136109
25	0xbd502237	-0.05081388
26	0xbd9156b5	-0.07096616
27	0xbc09ba75	-0.008406271
28	0x3d4d8470	0.05017513
29	0x3d8f671f	0.07002091
30	0xbcf6e29e	-0.030137356
31	0x3dd7134e	0.10501729
32	0xbe4290aa	-0.19000497
33	0xbd6ae5a5	-0.057347912
34	0xbd5ef0cf	-0.05442887
35	0xbb5f04af	-0.0034029891
36	0x3ccf6488	0.025316492
37	0xb9961ceb	-0.00028631775
38	0x3e557749	0.20846285
39	0x3e273791	0.1632979
40	0xbdacc7f3	-0.08436575
41	0x3e096faf	0.1342151
42	0xbddc80ab	-0.10766729
43	0xbd922e39	-0.071377225
44	0xbdd2ff36	-0.10302584
45	0xbe20929c	-0.15680927
46	0xbdb760c8	-0.089540064
47	0x3e06bb28	0.13157332
48	0x3cc73d58	0.024321243
49	0xbe75c276	-0.23999962
50	0xbc9601c4	-0.018311389
51	0xbdb9b40f	-0.090675466
52	0x3e1a35cb	0.15059583
53	0x3d69c053	0.05706818
54	0xba0d3ac2	-0.0005387479
55	0x3b1eb8a4	0.002421894
56	0x3e178503	0.14796834
57	0x3d3bf271	0.045885507
58	0x3db11a44	0.08647588
59	0xbdd5aff8	-0.10433954
60	0x3d3af61f	0.045644876
61	0xbdff7e62	-0.124752775
62	0x3d9cdee4	0.076597005
63	0x3d5198e5	0.051171202
64	0x3d6e584c	0.058189675
65	0xbd57e69f	-0.05271017
66	0x3cd644e3	0.026155895
67	0xbd9bb6f4	-0.07603255
68	0x3de0c444	0.10974935
69	0x3d0f3157	0.034959164
70	0xbd83c9aa	-0.06434949
71	0xbdd223c2	-0.102607265
72	0xbcda087d	-0.026615376
73	0xbc9e3b89	-0.019315498
74	0xbd0f557c	-0.034993634
75	0x3d876ebd	0.066129185
76	0xbdaf63bd	-0.085639454
77	0xbe4faa95	-0.20279916
78	0xbd931e61	-0.07183529
79	0x3e2e41f0	0.1701734
80	0x3e444f17	0.19170795
81	0x3d664a47	0.05622318
82	0xbddabe53	-0.10680833
83	0xbe82374e	-0.2543282
84	0x3d0fd9cd	0.03511982
85	0xbe7b1fbb	-0.24523823
86	0xbc9c0101	-0.019043447
87	0x3d1c05de	0.038091533
88	0xbdabf194	-0.08395687
89	0xbca4a5b2	-0.020098541
90	0x3d747523	0.059682023
91	0xbccfb317	-0.025353951
92	0x3cd29054	0.025703587
93	0x3d1b49d3	0.0379122
94	0x3d90b438	0.07065624
95	0x3d6224c5	0.055210847
96	0xbd0e2a19	-0.034708116
97	0xbd526c92	-0.051373072
98	0x3d7b7988	0.061395198
99	0x3dbd947b	0.09256836
100	0x3e006d17	0.12541614
101	0x3d90a733	0.07063141
102	0x3dd4ba3d	0.10387085
103	0x3d2c1e9d	0.042021383
104	0x3dcf699a	0.10127564
105	0xbe09ed18	-0.1346935
106	0xbc3bbbd4	-0.011458356
107	0xbe1c9e94	-0.15294868
108	0x3d9c3ab2	0.07628383
109	0xbd07c8a3	-0.033150326
110	0xbd93d5ba	-0.072184995
111	0x3d92bb73	0.07164659
112	0x3ddfc360	0.10925937
113	0x3cdd273d	0.02699625
114	0xbdd5b962	-0.104357496
115	0x3ccbee3e	0.024893876
116	0x3dc4e8a7	0.096146874
117	0x3e00f041	0.1259165
118	0x3cf99cfb	0.030470362
119	0xbe2b9e95	-0.16759713
120	0xbd12e327	-0.03586116
121	0x3d02c217	0.03192338
122	0x3c49e1cc	0.012321901
123	0x3cef156d	0.029185021
124	0xbdcfb714	-0.10142341
125	0xbd225aec	-0.03963749
126	0xbd79b8a7	-0.060967114
127	0x3d8be3c8	0.06830555
128	0xbc28a370	-0.010292873
129	0xbe02a23c	-0.127572
130	0x3cfffb0e	0.031247642
131	0xbcbb6102	-0.022873405
132	0x3c451de7	0.012031055
133	0xbd32114f	-0.043473538
134	0x3d2f6b21	0.042826775
135	0x3dc3e614	0.09565368
136	0x3d8b99cd	0.068164445
137	0xbc8b1bfa	-0.016981114
138	0x3d2555d6	0.040365063
139	0xbda1f5f8	-0.07908243
140	0xbd4ae8d8	-0.049538463
141	0xbdc2a88e	-0.095048055
142	0x3e39c0ff	0.18140028
143	0xbe034a39	-0.12821282
144	0xbdfe5e7c	-0.12420365
145	0x3d29dc9f	0.041470166
146	0xbdc4be74	-0.096066386
147	0xbe03000e	-0.1279299
148	0x3b202ccb	0.0024440761
149	0x3c851a48	0.016247883
150	0xb906f5b9	-0.00012870775
151	0xbde10ad7	-0.10988396
152	0x3d82ec7b	0.06392761
153	0x3a9a1064	0.0011754152
154	0xbd88518a	-0.06656177
155	0xbe061b72	-0.13096407
156	0x3d79aac1	0.06095386
157	0x3dcec978	0.10097021
158	0xba1a8f9b	-0.00058960327
159	0xbcf54184	-0.029938467
160	0x3db036b6	0.08604185
161	0x3da3bebe	0.079953656
162	0x3db53c97	0.08849447
163	0x3daccf87	0.0843802
164	0x3d8d16a7	0.06889086
165	0xbde81d12	-0.1133367
166	0xbd29a938	-0.041421145
167	0x3cfac29d	0.030610377
168	0x3d5669e5	0.052347083
169	0xbd62827f	-0.055300232
170	0xbd9f4b8d	-0.07778082
171	0x3e264cdf	0.16240261
172	0x3d047072	0.0323338
173	0x3e5bc06c	0.21460122
174	0xbe6597f6	-0.2242125
175	0xbd7afe66	-0.06127777
176	0xbe1b22c3	-0.1514998
177	0xbdb3592c	-0.087572426
178	0x3d47ccc8	0.04877928
179	0x3dbb7cd8	0.091546714
180	0xbdfe9af1	-0.124318965
181	0x3dd1e53a	0.102487996
182	0x3b9becaf	0.0047584395
183	0xbbbafe0d	-0.0057065547
184	0xbdbf282d	-0.09333835
185	0x3d6b4f4e	0.057448678
186	0xbce5549c	-0.027994446
187	0x3d2c5811	0.042076174
188	0x3dab1bef	0.08354937
189	0xbe314549	-0.17311586
190	0xbabac908	-0.0014250586
191	0x3c0dd936	0.008657744
192	0xbdcd43b9	-0.10022683
193	0x3d8058bc	0.06266925
194	0xbd5d9e0b	-0.0541058
195	0x3e09e73e	0.13467118
196	0x3bdfe758	0.0068329982
197	0xbd57c268	-0.052675635
198	0x3e139c07	0.14414988
199	0xbdde6255	-0.10858599
200	0x3e17cec2	0.14824966
201	0xbccd996b	-0.02509757
202	0x3dea73ec	0.114478916
203	0x3d60b121	0.054856423
204	0x3d09d3e5	0.033649344
205	0xbdaab15a	-0.083346084
206	0xbde308aa	-0.11085637
207	0x3d0d1926	0.03444781
208	0xbda7dc75	-0.08196346
209	0x3db6c266	0.08923797
210	0xbc03c4af	-0.0080424985
211	0x3db31053	0.08743348
212	0x3d4abb16	0.049494825
213	0x3d4b0432	0.049564548
214	0xbd6c942a	-0.057758488
215	0x3cb58530	0.022158235
216	0xbdeabfeb	-0.11462387
217	0xbc3b461b	-0.011430289
218	0xbd142070	-0.036163747
219	0xbd43c701	-0.047797207
220	0xbd220a94	-0.03956087
221	0xbd2d5ca2	-0.04232467
222	0x3cc4c722	0.024020735
223	0x3e5004ba	0.20314303
224	0x3d99c339	0.07507939
225	0x3c467bbc	0.0121144615
226	0xbd258b37	-0.04041597
227	0xbca91e7a	-0.020644415
228	0xbd6c58ed	-0.057701994
229	0x3dd11336	0.10208742
230	0x3c9b04bf	0.018923162
231	0xbe0254a0	-0.12727594
232	0xbd67b64a	-0.05657033
233	0xbe4811c2	-0.19538024
234	0x3dcadf17	0.09905832
235	0xbe22b32e	-0.15888664
236	0x3d86a958	0.065752685
237	0x3d83389c	0.06407282
238	0xbd067955	-0.032830555
239	0xbdaff0e8	-0.08590871
240	0x3d7be796	0.061500154
241	0x3da53e61	0.080685385
242	0xbd9455ef	-0.07242953
243	0x3d57c622	0.05267919
244	0xbdbbfb4e	-0.09178792
245	0xbb85cd79	-0.004083332
246	0xbd3f7255	-0.046739895
247	0xbda993ea	-0.082801655
248	0x3dad7ab3	0.08470669
249	0x3e04ed1f	0.1298108
250	0x3df860ad	0.121278144
251	0x3ceb8313	0.028749024
252	0x3d9c060c	0.07618341
253	0x3c38cc6c	0.011279207
254	0xbe1a276f	-0.15054105
255	0xbd58dd22	-0.052945264

fc2.bias f4 [10]
0	0x3cc64e1c	0.024207167
1	0xbd47d1cb	-0.04878406
2	0x3c09b776	0.008405557
3	0x3d206d53	0.03916676
4	0xbb84ad4d	-0.0040489794
5	0x3d93916f	0.07205474
6	0x3c88ee9a	0.016715337
7	0xbd67ac2b	-0.056560677
8	0x3da2793a	0.079332784
9	0xbd2ef0ff	-0.0427103
