model_checkpoint_epoch_3.pth (torch, 815827 bytes, 4 tensors)

fc1.weight f4 [256, 784]
000000 73 79 81 3c 5c 69 96 bc cb fd 1b bc de 17 68 3c
       0.015804982 -0.018360786 -0.009520958 0.014165847
000010 79 5b 14 bd ea 2e 9a 3c f3 ee 22 bc 2e 22 7f 3c
       -0.036220048 0.018821198 -0.009944665 0.015572114
000020 8b 29 1b 3b 30 67 e4 bb a3 7b ef 3b b6 02 5b ba
       0.0023675885 -0.0069703087 0.00730844 -0.0008354591
000030 f0 27 2b 3c d3 4a 87 bc b8 6e aa bb 52 77 be bb
       0.010446534 -0.016515171 -0.005201187 -0.005812564
000040 e7 08 29 3b 1e 91 33 bb b6 7a ea 3c 39 89 0b 3c
       0.002579266 -0.002739973 0.028622966 0.008516603
000050 7e 3b 82 bc 8e fa c5 bc 3e a2 0c bc 90 79 93 bc
       -0.015897509 -0.024167325 -0.008583603 -0.018002301
000060 15 10 66 bc 81 96 68 ba 11 22 99 3c 15 bf 89 3c
       -0.01404192 -0.00088725245 0.018693002 0.016814748
000070 e9 a3 19 bd 1a 18 a0 3c be d3 f1 3b 26 1f 00 3d
       -0.037509833 0.019542743 0.007379978 0.031279705
000080 78 d6 ab 3c 3f ed 0f bd c9 e1 15 bd cd d9 a2 bc
       0.02097629 -0.035138365 -0.03659228 -0.019879246
000090 e6 b6 ea 3c 33 78 0d bc b9 2b 4e 3c 18 1c 9e bc
       0.028651666 -0.008634615 0.0125836665 -0.019300506
0000a0 6c 84 04 3d 60 19 92 bc 66 91 c5 3c 46 e4 12 bb
       0.03235285 -0.017834365 0.024117183 -0.0022413894
0000b0 02 13 b0 bc 13 ab 80 3c 78 5d b1 bc 4f cd ff 3b
       -0.021493439 0.015706575 -0.021651015 0.007806457
0000c0 6e 1d 54 bc f5 8e d5 bb 84 4c 17 bd 02 d3 a0 bc
       -0.01294647 -0.006517286 -0.036938205 -0.019631866
0000d0 7a 7b 89 3c 23 ca 38 bc bd 11 07 3d b8 3e d5 3c
       0.016782511 -0.011278662 0.0329759 0.026030883
0000e0 c6 e7 8b bb 39 90 d8 bc 6c e0 9c 3c ef 2c 0b 3c
       -0.004269573 -0.026435958 0.019149981 0.0084946
0000f0 4d 61 d2 bc 87 b4 a8 3c a6 ae 9b 3c 17 cb ec 3c
       -0.025681162 0.020593895 0.019004177 0.028905435
000100 a0 c4 bb bc 50 ae 14 bc 77 3e 8e bb 5f d0 85 3a
       -0.022920907 -0.009074762 -0.0043409425 0.0010209194
000110 69 5b 02 bd 75 ef f7 bc 9b 82 68 3c 1b 81 5e bc
       -0.031825457 -0.03026555 0.014191295 -0.013580586
000120 a0 ad 4f 3c 5e 3c 1c bb 3c b5 f9 3b 21 9d 80 3b
       0.012675673 -0.0023839693 0.007620482 0.003924981
000130 9b a6 19 3c 0e ca 6d 3c a2 4e 13 bd 12 72 78 3c
       0.009378101 0.014513506 -0.035963662 0.015163915
000140 26 f6 e3 bc f2 1a f2 bc 8b 03 df b9 67 44 0e bc
       -0.027827334 -0.029553864 -0.00042536514 -0.008683301
000150 af 8e 96 3c 27 b7 be bc 50 b2 0c bd 03 c2 bf 3c
       0.018378584 -0.023280693 -0.03434974 0.023407942
000160 99 98 01 bc 50 95 89 3c 7c 80 05 3c 77 f3 f9 bc
       -0.007909917 0.01679483 0.008148309 -0.0305116
000170 0a 27 5c 3b f2 65 6c 3b 1a e9 f0 bc ea 92 c1 bc
       0.0033592605 0.0036071506 -0.029408026 -0.023629624
000180 47 ad 95 3b 8f 5d eb ba f7 f8 bc bc 67 2a 95 bc
       0.0045677754 -0.001795696 -0.023067934 -0.018208696
000190 0f 06 d3 3c 5a f1 47 bc e9 ac 51 3c 0a 37 0c 3c
       0.025759725 -0.012203539 0.012797573 0.008558044
0001a0 71 6c e0 bc fc 21 0a bd 35 56 fc 3c 71 22 06 bb
       -0.027395459 -0.033723816 0.030802825 -0.0020467306
0001b0 b5 ba aa 3c 1d f0 9c 3b 47 c9 11 3c 0a 43 c5 3c
       0.020840982 0.004789366 0.008898086 0.024079818
0001c0 68 12 00 3d 0e 6c d7 bc 02 31 f4 3a 44 b4 c4 3c
       0.031267554 -0.026296642 0.0018630328 0.024011739
0001d0 e3 38 bb 3c ab 7e 90 3c 27 64 fd bc 61 b1 ff bc
       0.022854274 0.017638525 -0.030931545 -0.03121251
0001e0 b8 d6 ef bc 1f 92 2d bb 5b 02 ef 3c 3a 95 e1 bc
       -0.02927719 -0.00264848 0.029175928 -0.027536977
0001f0 34 23 5f 3c 31 9e c7 bc 6b 9e 14 bd ba e1 d7 bb
       0.013619233 -0.024367424 -0.03628389 -0.006588188
000200 ba 48 a6 3c 01 2a 0f 3d c0 66 b9 bc 32 63 78 3b
       0.02029835 0.034952167 -0.022632003 0.0037900922
000210 dd 81 da 3c 3a b8 a9 3c e9 01 9d 3c 66 b6 b7 3c
       0.026673252 0.020717729 0.01916595 0.022425842
000220 9c 13 a8 3c 93 71 df 3b 78 2a dd bc c1 99 05 bd
       0.020517163 0.006818959 -0.02699779 -0.032617334
000230 d2 56 9b bc 27 62 dd bb 28 c8 c8 bc 62 fe 26 3c
       -0.018962298 -0.0067560854 -0.024509504 0.0101924855
000240 e1 dc e1 3b cd 4c 66 bc 4b 71 d7 3b d4 b9 6e 3b
       0.006892786 -0.014056397 0.006574785 0.003642668
000250 bc 7e 6d 3c 40 f8 9f 3c e5 0a 57 bc 57 e5 14 3d
       0.014495548 0.019527555 -0.013125156 0.036351528
000260 d1 92 54 bb ae 77 81 3b 80 d8 d0 bc 82 4d 73 bc
       -0.0032436142 0.0039510345 -0.02549386 -0.014850022
000270 07 4d 4d bc b2 17 ab ba e3 55 13 3d c4 40 e2 bb
       -0.012530572 -0.0013053326 0.03597058 -0.0069046933
000280 f2 f5 bc bc 26 f3 88 3c 5d c0 6b 3c 22 3d c1 3c
       -0.023066495 0.016717505 0.014389125 0.02358872
000290 9d 64 9b bc 7b 41 cf 3b 23 d4 7c bc 68 fc 2e bc
       -0.018968875 0.0063249446 -0.015431437 -0.0106802955
0002a0 b4 6e fe bc 68 9f 9a bc 5f b9 5c bc 88 0c 44 3c
       -0.031058647 -0.018874839 -0.01347193 0.011965878
0002b0 42 92 e0 3a 74 08 61 3b b9 ab f1 3c a3 d8 f5 3c
       0.0017133432 0.0034337314 0.029500829 0.030010527
0002c0 a1 26 bd 3c 0f a5 28 3a f4 4d a4 bc 09 e8 13 3d
       0.023089709 0.0006433287 -0.020056702 0.036109958
0002d0 3f 7e a3 b9 6d 11 0f 3c ee c8 97 bc 8a f8 b5 3a
       -0.00031183843 0.008732182 -0.018528428 0.0013883275
0002e0 51 eb 6d bc c6 54 3a 3d 59 52 85 bc 6e 1d 65 bc
       -0.014521436 0.045491003 -0.016274618 -0.013984067
0002f0 c1 11 11 3c 35 99 e8 bb db 37 c6 3c 42 ff cc bb
       0.0088543305 -0.007098342 0.024196556 -0.006256015
000300 58 56 59 bc 78 93 cb 3a 9a bf c3 3c 64 05 e3 bc
       -0.013265215 0.001553162 0.023895074 -0.027712531
000310 9c 3b 68 3c 61 97 a6 3c 81 c7 04 3d 48 76 e7 bc
       0.014174368 0.020335855 0.032416824 -0.028254643
000320 1e 79 21 3b 95 ce 01 bd c6 0b e5 3c cb e7 61 bc
       0.0024638842 -0.031691153 0.027959716 -0.013788174
000330 89 6f cf 3c 17 ed 06 3c b1 1f 40 3c 11 23 8b 3c
       0.025321739 0.008235238 0.011726306 0.016984494
000340 bf f9 a1 3c 57 3b e9 3c d4 5c 6e 3c 0e 08 96 3c
       0.019772409 0.028470678 0.014548499 0.018314388
000350 27 3d 98 bc 77 a9 34 3d 8e 5b 58 3d 49 28 40 3d
       -0.018583847 0.044106927 0.05282169 0.04691342
000360 d8 7e 1e 3d cd 65 57 bc fa e8 28 ba a6 4d 33 3d
       0.038695186 -0.01314683 -0.00064434076 0.043775223
000370 1a 69 ac bc db 14 09 3d 7d b3 f4 bc 63 fa e2 bc
       -0.02104621 0.033467155 -0.029870743 -0.027707284
000380 ed d1 74 3c 84 11 e7 bc 80 07 2e bc 3b a7 bb 3c
       0.014942628 -0.028206594 -0.010621905 0.02290689
000390 3d fc b1 3c 31 27 f0 3c 8a 65 06 bc 93 d6 d4 bc
       0.021726722 0.029315563 -0.00820292 -0.025981223
0003a0 6e 62 27 3d 43 42 84 3b f7 c6 e5 3a 64 ec dc 3c
       0.040865354 0.0040362193 0.001753061 0.026968189
0003b0 76 e4 da bb ec b7 15 3d 22 1c 0e 3d 38 8a 87 bc
       -0.0066800667 0.036552355 0.0346948 -0.0165454
0003c0 48 1d 2c bc 95 54 61 3c 1d a0 0e 3d 45 d3 7f 3c
       -0.010505028 0.013753076 0.034820665 0.015614335
0003d0 f9 0a c5 bb b6 53 0d 3c 0a 7f c4 bc 60 48 46 bc
       -0.006013271 0.008625915 -0.023986358 -0.0121022165
0003e0 06 13 81 bc 51 e4 00 3d c2 fd f6 3c 8c 8c 6f bc
       -0.015756141 0.03146774 0.030150298 -0.014620911
0003f0 fb 53 81 ba 62 b9 5b 3c 3b 8d 01 3b 41 dd a9 bc
       -0.0009866947 0.013410898 0.0019768018 -0.020735385

fc1.bias f4 [256]
000000 a2 48 3b 3c 61 3b dc bc 7e 3d ef 3c 1a 16 fd bb
       0.011430891 -0.026883783 0.029204126 -0.007723582
000010 3b bb d9 3c 9f 39 92 bb 52 3e e3 3c ee 46 a9 3c
       0.026578536 -0.0044624354 0.027739678 0.020663705
000020 2c fe 83 3c ee 57 e4 3c 6e 61 f5 bc 6a 60 b5 ba
       0.01611241 0.02787396 -0.029953685 -0.0013837938
000030 b2 c9 1b bc 0c 74 aa 3c a8 78 ee bc d4 0f f8 3c
       -0.009508537 0.020807289 -0.029110268 0.030280985
000040 6f f8 d6 bb 85 fe ab 3c 47 aa 51 ba 00 b1 39 bc
       -0.0065603773 0.020995388 -0.00079980906 -0.011333704
000050 c8 8b 07 bc 11 c1 15 3d 65 73 04 3c ec 11 8c 3c
       -0.008273073 0.036561076 0.008084153 0.01709839
000060 70 8d 76 bb 0b e8 a9 3c 45 4a b5 3b 7b 8c 61 bc
       -0.0037620924 0.02074053 0.0055325353 -0.013766403
000070 b8 29 bb bc d4 fb cd bb 14 52 04 3c a1 dc 98 bb
       -0.022847041 -0.006286124 0.00807621 -0.004664973
000080 8c 8c 2b bc f6 f3 0e 3d dc 52 b7 3c 12 31 44 3a
       -0.010470521 0.034900628 0.022378378 0.00074841187
000090 95 14 fc 3a 60 26 d3 3c 7f 3f 8d bc 52 50 0a 3d
       0.0019232208 0.025775135 -0.017242191 0.033768006
0000a0 da 09 7b 3c bc 3c 4e 3c cf 16 03 3c 02 6b c4 3b
       0.015322173 0.012587722 0.008001043 0.0059942016
0000b0 57 93 0e 3b cf bb 4d bc 33 a7 a2 bb 9c bf 6f bc
       0.0021755302 -0.012556984 -0.0049637794 -0.014633086
0000c0 9a 10 f9 bb 95 1d 94 3b d1 05 01 bc 69 a2 2f ba
       -0.007600856 0.004520128 -0.007874922 -0.0006699921
0000d0 f8 c0 55 3c d9 9c d5 bc 18 33 f8 bc 8d 65 0b 3d
       0.013046496 -0.026075767 -0.0302978 0.034032393
0000e0 14 73 a2 3c 1b 68 6d bc bd c3 bf 3c c4 d7 9c bb
       0.019830264 -0.014490153 0.023408765 -0.0047864635
0000f0 4b d7 be 3c 50 d4 38 3c 82 eb 3e bc e6 eb f9 3c
       0.023296019 0.011281088 -0.011652829 0.030507993
000100 cc 1c 8b bb be ce cd bc f0 d0 f2 bb 0c 9d 46 bc
       -0.004245376 -0.025122996 -0.007410161 -0.012122404
000110 d8 e0 1c 3d 15 95 4a 3b 0f 4c 72 bc 47 f0 88 bc
       0.038300365 0.0030911614 -0.014788642 -0.016716136
000120 c2 1f b1 3b 4b 81 84 3c 75 61 c6 bb 93 d9 18 3b
       0.005405397 0.016174933 -0.0060540983 0.0023323044
000130 4f d4 10 3d 3e ce b2 3c b7 a9 84 3c f5 7a 57 bc
       0.035358723 0.02182686 0.016194208 -0.013151874
000140 9b 33 bd bc a9 9b e3 3c fd 86 2c 3d e3 d1 ea bc
       -0.023095896 0.027784185 0.042120922 -0.028664535
000150 67 1b 50 bb 69 1d cb 3a 6b c7 ee bc 1c 2c bd bb
       -0.0031754614 0.0015496436 -0.029147824 -0.0057730805
000160 07 d9 8d 3c 62 2d b6 3c f1 56 0d bd 3d ea 1d bd
       0.0173154 0.022238437 -0.034506742 -0.038553465
000170 73 ea 7b 3b d4 36 a3 3c 10 c0 f3 bc ab 0b c9 bc
       0.0038439303 0.019923605 -0.029754668 -0.024541697
000180 96 ea cc bb 17 74 04 bd 88 5a 12 bd 0d ef b2 3b
       -0.0062535508 -0.032337274 -0.03573087 0.005460626
000190 24 12 69 bb 41 1d c9 3b 6f 9a cf 3c 53 a9 bb bc
       -0.0035563791 0.0061375205 0.025342194 -0.022907889
0001a0 27 2c 75 3c d0 02 ad bc 02 a8 ff bb 72 56 e4 3c
       0.01496414 -0.021119505 -0.0078020105 0.027873252
0001b0 38 b6 d3 3c bc f9 3e b9 d7 e8 24 3c bf 76 1a 3d
       0.025843725 -0.00018212845 0.010065279 0.0377109
0001c0 08 e3 58 3c f0 2d b5 3c 9f 83 e7 3c b8 70 8c 3c
       0.013237722 0.022116631 0.028261004 0.017143592
0001d0 62 4e d6 3c 94 83 9b 3c 22 35 87 bc a5 4b c4 b9
       0.026160423 0.01898364 -0.016504828 -0.00037440393
0001e0 fe f2 ed bc 24 81 8b 3c 0d 65 66 3b b4 40 53 bc
       -0.029046532 0.017029352 0.0035155446 -0.012893844
0001f0 ad b0 4d 3c e6 11 89 3c 1b e6 b1 bb 81 b9 d1 3b
       0.01255433 0.016732167 -0.005429042 0.0064002876
000200 96 a3 ca bc ef 46 87 3c 21 0e 2d 3c 72 9d 90 3c
       -0.024736207 0.016513316 0.010562451 0.0176532
000210 6e 14 d9 3b 4a 2d 6f bc 3f 21 85 bc ee 00 c1 bc
       0.00662475 -0.0145982 -0.016251205 -0.023560014
000220 5d 86 cf bc a3 84 38 3c 7a 6f ca 3b 6b d8 ee ba
       -0.025332624 0.011262092 0.00617784 -0.0018222457
000230 6e 8b ce bb 75 da 7f bb a4 b0 aa bc 3e 27 8e 3c
       -0.0063032424 -0.0039040123 -0.020836182 0.017352697
000240 52 6c 89 bb 34 19 0f 3d 81 32 fa bb fd dd f7 ba
       -0.004193821 0.034936145 -0.007635415 -0.0018910762
000250 fe ed 84 bc 5e b5 e2 3c a6 8b 99 bc 22 ad e9 3c
       -0.016226765 0.027674373 -0.018743347 0.028524939
000260 35 e5 04 3d 56 af 4c bc 8a 10 28 bc 9f be 21 bb
       0.03244515 -0.012492975 -0.0102578495 -0.002468027
000270 21 1e 9e 3c b1 d9 f7 3c 0d 58 10 3d bf 31 42 bb
       0.019301476 0.03025517 0.03524022 -0.0029631702
000280 22 cd a1 3c da dc 79 3c da a7 78 bc 85 f0 eb bc
       0.019751135 0.015250409 -0.015176738 -0.028801212
000290 4c fa 15 bc 6d 7a 17 3d 16 bf d0 3c af 18 8f 3c
       -0.009153914 0.03698199 0.025481742 0.017467825
0002a0 61 39 82 3c 5f 34 20 bc 5d e9 76 b7 df ac e9 3c
       0.015896501 -0.009778111 -1.4717077e-05 0.028524814
0002b0 d9 73 cb bc d2 1a 0a 3c 8f 84 0c 3d e3 52 a6 3b
       -0.024835514 0.008429246 0.034306105 0.005075799
0002c0 de 06 01 3d be 36 e3 bb dc d8 6b 3a 14 1f 8c 3c
       0.03150069 -0.006934016 0.0008996853 0.017104663
0002d0 38 26 73 bc 8e c9 6e 3c 34 4c 32 3c 4b 95 80 3c
       -0.014840655 0.014574422 0.010882426 0.015696188
0002e0 8f 5a 82 bb 56 7b 6a bc 4d ec 7f ba 78 1f 1c 3c
       -0.0039780806 -0.014311632 -0.00097626896 0.009528987
0002f0 95 24 02 3b e6 97 e1 3c b1 83 fc 3c 72 17 3b 3b
       0.001985823 0.027538251 0.030824514 0.002854791
000300 61 8b ca bc ad 89 e8 bc a5 6c 6e ba 4b 84 0e 3d
       -0.024724664 -0.028385961 -0.0009095169 0.034794133
000310 f5 12 df 3c 11 21 d9 3c e4 62 22 3b f7 35 19 3d
       0.02723072 0.026505025 0.0024778182 0.03740498
000320 1f af 25 3d f2 b0 aa ba 11 b0 ce 3c fc 77 06 bc
       0.04045021 -0.0013022705 0.02523044 -0.008207317
000330 10 7d 0d bd 66 2b 83 bc e1 e7 fd 3b 27 1e e9 bb
       -0.034543097 -0.016011905 0.0077485894 -0.00711419
000340 c5 97 00 bc 4d 37 c9 3c dd 0b ee 3c ef 7e 20 3d
       -0.007848685 0.024562502 0.029058391 0.039183553
000350 e3 6d da 3b 09 19 11 3d 27 00 12 bc 32 34 52 3a
       0.0066659315 0.035424266 -0.008911169 0.0008018642
000360 7a c6 af bb 95 7b e6 bc 67 34 56 3a 79 58 82 bc
       -0.0053642364 -0.0281351 0.00081712607 -0.015911328
000370 09 97 60 3c 9c 88 67 3c c3 83 35 3c 4c b5 21 bc
       0.013707885 0.014131691 0.011078778 -0.009869885
000380 a1 b3 5b 3c de f5 74 bc 48 e2 51 bc f0 03 5e bc
       0.013409526 -0.014951197 -0.012810297 -0.013550743
000390 af b2 fb 3a 44 9c 45 bc 5d 55 bf bc 5e e1 e5 bc
       0.0019203032 -0.012061182 -0.023356134 -0.028061565
0003a0 b0 11 01 3d 6e c6 fe bc d7 39 ad 3a 56 10 9b bb
       0.03151101 -0.031100478 0.001321609 -0.004732172
0003b0 e4 89 8f bc 5d b0 d4 3c 85 14 c3 3c 67 62 19 3d
       -0.017521806 0.025963003 0.023813495 0.03744736
0003c0 a2 cc 05 bc 50 9c d4 bb 4f fd 24 3d d2 f1 a5 3c
       -0.008166464 -0.0064883605 0.040280636 0.02025691
0003d0 c5 9f ca 3b eb f7 f3 3c a5 3d 3d bc c6 7b bd 3c
       0.006183597 0.029781302 -0.011550342 0.023130309
0003e0 9a 1f c7 3b 11 0a a3 3c 58 64 0f bb 0b e9 a1 bc
       0.0060767652 0.019902261 -0.0021879878 -0.019764444
0003f0 20 00 0b 3d 5a ec 03 3d 26 ad a9 3b 78 c0 eb bb
       0.033935666 0.032207824 0.0051781116 -0.007194575

fc2.weight f4 [10, 256]
000000 99 c0 e0 3d d2 09 86 bd ff 29 b2 3d 18 7c 74 bd
       0.10974235 -0.06544842 0.08699416 -0.059688658
000010 a7 03 36 3d 78 e8 64 3c 80 5b 03 be ba 3e a8 bc
       0.044437077 0.0139714405 -0.12827873 -0.020537723
000020 af 75 ac bd 80 19 58 3c 01 88 11 bd 2e 49 4e 3d
       -0.08420884 0.013189673 -0.035530094 0.05036276
000030 57 ca 79 bd 17 ad 8e 3d ea 81 b6 3d f0 2e 88 bc
       -0.060983982 0.06966608 0.08911498 -0.016623944
000040 93 ab 1c 3c 7b 55 b2 3d 04 b8 a9 bd 4c 27 f2 3c
       0.009562391 0.0870771 -0.08287051 0.029559754
000050 45 ec e4 bc 4e 72 72 bd dd c5 48 bd 83 df 76 3d
       -0.027944693 -0.05919104 -0.049016822 0.06027175
000060 c6 6b 03 be 48 9f e2 bc 54 1b 81 bd 6e 6c 76 3c
       -0.12834081 -0.027663842 -0.063040406 0.0150405
000070 e2 16 91 3c ca 8e a8 3d 5f 4f ee bc 98 3b e2 3d
       0.017711107 0.0823036 -0.029090581 0.11046523
000080 6d 4d 2f be 21 da 5c bd e3 be 4b bd 1d 16 35 ba
       -0.1711938 -0.05391896 -0.04974259 -0.0006907897
000090 a6 57 ad 3b ff b4 28 ba 26 49 11 3e 90 8e 29 3e
       0.0052899895 -0.0006435662 0.1418806 0.1655829
0000a0 e2 70 8d bd 17 a8 09 3e 8a d8 cf bd 9a 6d 4a bd
       -0.06906296 0.13443027 -0.101487234 -0.04942093
0000b0 83 d3 c5 bd ac f7 05 be cf 94 b3 bd 54 d2 f4 3d
       -0.09659483 -0.1308276 -0.08768617 0.119541794
0000c0 97 0c 3b 3b a2 c8 3e be 3d 97 27 bd 69 16 66 bd
       0.002854144 -0.18631223 -0.040915716 -0.056173716
0000d0 92 7f 0d 3e 6b 7f 01 3d 07 be 33 b9 48 d8 3d 3c
       0.13818195 0.031615656 -0.00017141561 0.01158721
0000e0 33 5d 0d 3e 72 c7 a1 3c 84 92 00 3d 31 27 b9 bd
       0.13805084 0.019748423 0.03138973 -0.09040678
0000f0 44 f6 0e 3d 0d 02 cc bd ef e6 9c 3d d6 4e 7e 3c
       0.034902826 -0.09961329 0.076612346 0.015521726
000100 1d 38 64 3d 32 f6 14 bd 05 de e7 3c 88 64 5d bd
       0.055717576 -0.036367603 0.02830411 -0.054050952
000110 16 eb 95 3d e0 d4 4a 3d e5 c2 46 bd b7 f7 6d bd
       0.0732023 0.04951942 -0.04852571 -0.058097567
000120 ba 57 51 bc 57 fb b5 3c a7 59 3c bd 17 78 96 3d
       -0.012777263 0.022214575 -0.045983937 0.07347124
000130 59 c1 9e bd b8 69 0d be 48 1b 71 bd cc dc 1a 3e
       -0.07751722 -0.1380986 -0.058863908 0.1512329
000140 e8 d4 33 3e 14 2c 8b 3c 1c c3 d0 bd 3e 69 32 be
       0.17561686 0.016988792 -0.10193464 -0.17422959
000150 bd 71 20 3d fe 99 3a be 2b a7 8f bc a0 36 bf 3c
       0.03917097 -0.18222806 -0.017535767 0.023341477
000160 3b 2b 5f bd 16 ef c3 bc 32 34 2c 3c b5 c1 1f bd
       -0.054484587 -0.023917716 0.010510491 -0.039003093
000170 10 81 51 3c 8b 76 16 3d c3 8c 28 3d 77 2f 64 3d
       0.012787119 0.036734145 0.041149866 0.05570933
000180 f3 24 04 bd 6e c3 12 bd 85 1c 4d 3d c2 d2 34 3d
       -0.0322618 -0.035830908 0.050076026 0.044146307
000190 41 22 f3 3d ce fd 8a 3d 19 5b 92 3d e9 3a 60 3d
       0.11871768 0.06786691 0.07146282 0.05474368
0001a0 1d b0 c1 3d 31 d1 ca bd 2c 4d 06 bd 80 60 00 be
       0.09457419 -0.09903181 -0.03278844 -0.12536812
0001b0 ea 63 a0 3d e3 3c 25 bd d5 f0 0e bd 7f 19 4c 3d
       0.07831557 -0.04034127 -0.034897644 0.049829002
0001c0 a0 44 ab 3d 94 58 2d 3c 08 92 8c bd 7a c4 8b 3c
       0.083626986 0.010580201 -0.06863791 0.01706146
0001d0 ac 98 83 3d f2 3d ba 3d 0d 0b fc 3c e1 b0 1b be
       0.06425604 0.090938464 0.030766988 -0.15204193
0001e0 21 e7 64 bd dc 61 03 3d 6e f4 b1 3c 03 50 5a 3c
       -0.055884484 0.032075748 0.021722998 0.01332474
0001f0 b8 66 af bd 2a 54 e5 bc 3a cc 80 bd 52 6e 94 3d
       -0.08564514 -0.027994234 -0.06288953 0.072476044
000200 38 70 c3 bc e1 c4 ce bd 74 af 8a 3c 66 5f 53 bc
       -0.023857221 -0.100961454 0.016929366 -0.012901163
000210 64 8f a7 3b 30 90 17 bd 38 7e 31 3d 0b 6b e1 3d
       0.005113529 -0.037002742 0.043333262 0.11006745
000220 11 7b 75 3d 2a 41 fe bc 2f 02 34 3d d2 05 66 bd
       0.05993182 -0.031036932 0.043947395 -0.056157894
000230 b8 a3 e2 bc a4 5e 88 bd f4 9f 30 3e 83 47 f0 bd
       -0.027665958 -0.06658676 0.17248517 -0.1173239
000240 41 e2 a8 bd b1 78 5d 3d 24 4b a8 bd b0 07 b4 bd
       -0.082462795 0.05407018 -0.08217457 -0.08790529
000250 dc 4b 03 bc 5d 48 26 3b be 90 05 bc 6d a5 ce bd
       -0.008013692 0.0025372722 -0.008152185 -0.10090146
000260 69 b4 16 3d d9 89 33 3c 8d 73 84 bd f7 06 e7 bd
       0.036793146 0.010958158 -0.06467352 -0.11280625
000270 a3 7a 02 3d 70 c2 b4 3d fe b6 95 3c 67 55 1e bd
       0.031855237 0.088261485 0.018275734 -0.038655665
000280 64 8d 25 3d b1 7d 5a 3d 11 b9 8e 3d 09 0a 85 3d
       0.040418044 0.053342525 0.06968892 0.06496055
000290 7f 75 8a 3d d1 e5 9e bd 63 0a 34 bd c9 dc 48 ba
       0.06760692 -0.07758678 -0.043955218 -0.0007662294
0002a0 e7 9e 4c 3d 30 46 21 bd 60 18 56 bd aa 54 22 3e
       0.04995623 -0.039373577 -0.05226934 0.1585261
0002b0 56 f9 2b 3d dd 4d 32 3e f9 7d 1f be 77 3e 7c bd
       0.041985832 0.17412515 -0.15575399 -0.06158301
0002c0 65 e7 04 be 03 ef 85 bd ee d2 51 bc 75 69 aa 3d
       -0.12978895 -0.065397285 -0.012806637 0.083208956
0002d0 15 02 c3 bd 97 40 d4 3d 24 1d 93 3b 3e 80 a4 bb
       -0.095218815 0.10363882 0.004489558 -0.0050201705
0002e0 7b 85 92 bd e7 8c f9 3c e4 a7 31 bd 0d ab 2b 3d
       -0.07154366 0.030462695 -0.043373004 0.041911174
0002f0 e2 d9 9f 3d df 35 0b be a1 78 98 bb 4d d1 a3 3a
       0.0780523 -0.13594769 -0.004653052 0.001249829
000300 d1 f7 90 bd 2b 22 9d 3d 3e 91 2f bd 56 d6 10 3e
       -0.07078517 0.07672533 -0.042863123 0.14144263
000310 da 9d 79 bc 7b c6 2f bd 9f 4a f2 3d c8 25 b1 bd
       -0.015235389 -0.042913895 0.11830639 -0.08649784
000320 a8 60 08 3e 07 e8 d1 bb d3 7d e7 3d 16 79 20 3d
       0.13318121 -0.0064058336 0.11303296 0.039177977
000330 16 99 79 3c 71 84 52 bd 65 b6 a5 bd eb 78 1f 3d
       0.015234252 -0.051395837 -0.080914296 0.038933676
000340 92 60 6f bd 44 92 b8 3d 35 9f 8a bb 98 4b ab 3d
       -0.058441706 0.09012273 -0.0042304047 0.08364028
000350 96 8d 25 3d c5 b3 45 3d ed 49 3d bd ed 15 fb 3c
       0.04041823 0.048267145 -0.04621308 0.030650103
000360 b9 0e cb bd 0e 09 3c bc 13 4d 51 bd 93 dd ef bc
       -0.099149175 -0.011476768 -0.051098894 -0.02928046
000370 65 66 0a bd db 7f d5 bc a6 83 0b 3d 20 f8 e7 3d
       -0.033789057 -0.026061943 0.034061097 0.11326623
000380 29 8f ac 3d 23 af 21 3a e9 13 37 bd 68 fe 89 3b
       0.08425743 0.000616776 -0.044696722 0.004211236
000390 60 a9 19 bd f8 93 74 3d a4 91 a0 3c 3e 97 b6 bd
       -0.037515044 0.059711426 0.019600697 -0.08915566
0003a0 70 1b 50 bd 66 fa 12 be b2 53 cf 3d 61 12 c3 bd
       -0.050807416 -0.14353332 0.101233855 -0.0952499
0003b0 59 e3 6d 3d 68 dd 9c 3d 22 7a 75 bc 27 5f bb bd
       0.058078144 0.076594174 -0.014982732 -0.09149008
0003c0 a6 4c 64 3d 48 2c 92 3d 05 42 a4 bd 4c d8 13 3d
       0.05573716 0.07137352 -0.08020405 0.03609495
0003d0 37 a6 22 bd d7 0c 4b bd 4c 7c 2a bd 55 0b ac bd
       -0.039709296 -0.049572792 -0.041622445 -0.08400599
0003e0 8d e5 35 3d 87 0e d2 3d fc 26 8d 3d 12 1e 03 3d
       0.04440837 0.10256677 0.06892201 0.0320111
0003f0 45 63 3a 3d a9 27 61 3c b9 fe c4 bd b9 c4 57 bd
       0.045504827 0.013742366 -0.09618897 -0.052677844

fc2.bias f4 [10]
000000 e4 d7 03 3d 59 14 44 bd 32 34 89 3c 3b dd 1a 3d
       0.03218831 -0.047870968 0.016748521 0.037808638
000010 51 c5 3f bc 54 21 9f 3d 5a b1 a8 3c 28 93 27 bd
       -0.011704759 0.07770029 0.02059238 -0.040911824
000020 dd e6 37 3d 89 ae 2a bd
       0.044897903 -0.041670356
