model_checkpoint_epoch_8.pth (torch, 815827 bytes, 4 tensors)

fc1.weight f4 [256, 784]
0.016022291 -0.018143479 -0.009303618 0.014383187 -0.036002655 0.019038506 -0.009727325 0.015789455
0.0025849047 -0.006752986 0.0075257625 -0.00061813154 0.0106638735 -0.016297864 -0.0049838643 -0.005595241
0.0027965822 -0.0025226567 0.028840274 0.008733943 -0.015680205 -0.023950018 -0.0083662635 -0.017784994
-0.01382458 -0.0006699253 0.01891031 0.017032055 -0.03729244 0.01976005 0.0075973007 0.031497084
0.021193597 -0.03492108 -0.03639054 -0.019684602 0.028790757 -0.0084396675 0.012769198 -0.01913978
0.032504555 -0.017680056 0.024327097 -0.0020511681 -0.021317873 0.015898181 -0.02146837 0.007991148
-0.012738162 -0.006300789 -0.03672459 -0.01941984 0.016999818 -0.011061322 0.033193294 0.02624819
-0.0040522483 -0.02621865 0.019367252 0.008734445 -0.025455806 0.020804368 0.019181369 0.02906291
-0.022808267 -0.008908526 -0.0042651417 0.00074475206 -0.032369994 -0.031194462 0.013154565 -0.014266384
0.012152745 -0.0029796707 0.007898724 0.0044278135 0.00972193 0.014731758 -0.03578982 0.015297682
-0.027670568 -0.02933682 -0.00020803971 -0.008465961 0.018595891 -0.023063386 -0.034132436 0.023689171
-0.0076620486 0.016427347 0.0077787973 -0.03097421 0.003229342 0.0039222375 -0.029076658 -0.024397636
0.0033171216 -0.0021744044 -0.022798402 -0.01683751 0.027543887 -0.008856747 0.014473304 0.009756272
-0.024750652 -0.031565156 0.032134242 -0.0022841014 0.020528376 0.005270175 0.009188146 0.024297126
0.031484924 -0.026079368 0.0020732693 0.024214106 0.02278079 0.016359989 -0.032152627 -0.03164044
-0.030397093 -0.0014154281 0.029699313 -0.026000006 0.013489859 -0.025465954 -0.037044425 -0.005268536
0.019636638 0.03718507 -0.020028023 0.005601104 0.029691415 0.023432542 0.021404142 0.023467544
0.02203841 0.0076165455 -0.026694866 -0.032429233 -0.01874499 -0.0065387627 -0.024301404 0.0103112385
0.006085082 -0.015742162 0.005190553 0.0024043026 0.015718438 0.022505064 -0.00915448 0.0405037
-0.0048978752 0.00320159 -0.024753062 -0.016994972 -0.016474552 -0.0011023456 0.03585406 -0.008339204
-0.021656288 0.019221542 0.016791223 0.023673814 -0.017639356 0.007894239 -0.015080054 -0.010514115
-0.03084134 -0.018658709 -0.013140134 0.011984976 0.0010862584 0.003915835 0.029945252 0.0312301
0.026739743 0.00025586985 -0.018189497 0.03845353 0.0014392186 0.012447469 -0.015237756 0.0013185102
-0.01728775 0.042575452 -0.017443111 -0.0140099125 0.008000832 -0.0048303665 0.027242545 -0.0056878105
-0.011169978 0.0031003961 0.024552623 -0.027510472 0.014391723 0.02052733 0.03291078 -0.028032044
0.0011791757 -0.030844292 0.030708428 -0.011577832 0.026598023 0.008333944 0.017180156 0.023877695
0.022348117 0.0309136 0.015061215 0.019850101 -0.017396795 0.042819317 0.053017613 0.044121362
0.034979984 -0.01475952 -0.00041951705 0.04608425 -0.02032302 0.034087583 -0.029541342 -0.027469251
0.015302593 -0.027956517 -0.010159471 0.023251701 0.020513222 0.030563394 -0.0048620636 -0.024558794
0.04066065 0.007839442 0.0056701764 0.029935913 -0.003041122 0.036979664 0.042532854 -0.010238295
-0.005884123 0.009585588 0.03104104 0.00840114 -0.009117661 0.0041084094 -0.027909527 -0.0111360075
-0.014230708 0.03203485 0.030590752 -0.014376139 -0.00076511677 0.013655323 0.002441786 -0.020420633
00000000: 2e41 833c a2a1 94bc 346e 18bc 75a7 6b3c
00000010: 8577 13bd a4f6 9b3c 5c5f 1fbc e358 813c
00000020: 8167 293b 2748 ddbb ac9a f63b 1b0a 22ba
00000030: 87b7 2e3c 1983 85bc af4f a3bb 4958 b7bb
00000040: dd46 373b 2853 25bb 7042 ec3c d018 0f3c
00000050: c673 80bc d432 c4bc a712 09bc d6b1 91bc
00000060: 7e80 62bc ed9d 2fba cbe9 9a3c cf86 8b3c
00000070: f5bf 18bd d4df a13c c7f2 f83b 1603 013d
00000080: 329e ad3c 6809 0fbd 3f0e 15bd 9a41 a1bc
00000090: 98da eb3c 8846 0abc e635 513c 07cb 9cbc
000000a0: 7f23 053d c4d5 90bc 9f49 c73c e46c 06bb
000000b0: d2a2 aebc e73c 823c 6fde afbc 4eed 023c
000000c0: b9b3 50bc d976 cebb 866c 16bd 5b16 9fbc
000000d0: 3443 8b3c 8c3a 35bc b1f5 073d 7206 d73c
000000e0: b9c8 84bb 7fc8 d6bc 12a8 9e3c eb1a 0f3c
000000f0: b288 d0bc ec6d aa3c 3f22 9d3c 5715 ee3c
00000100: 67d8 babc 11f5 11bc 9ac2 8bbb 773b 433a
00000110: 6696 04bd 878b ffbc 3f86 573c 8dbd 69bc
00000120: 4f1c 473c 9446 43bb a669 013c 3117 913b
00000130: bb48 1f3c 795d 713c 5998 12bd 21a3 7a3c
00000140: 63ad e2bc c553 f0bc 3c25 5ab9 d0b4 0abc
00000150: 6956 983c 6def bcbc 74ce 0bbd cb0f c23c
00000160: ec11 fbbb a592 863c 48e5 fe3b a0bd fdbc
00000170: 5ea3 533b 1d86 803b 2c32 eebc 8ddd c7bc
00000180: 1164 593b 7480 0ebb b7c3 babc d1ee 89bc
00000190: b8a3 e13c e41b 11bc 7021 6d3c c5d8 1f3c
000001a0: e1c1 cabc 774a 01bd 329f 033d ddb0 15bb
000001b0: 202b a83c 6fb1 ac3b e189 163c c40a c73c
000001c0: 56f6 003d 66a4 d5bc b0df 073b a95c c63c
000001d0: c89e ba3c 6205 863c 79b2 03bd 6899 01bd
000001e0: 5303 f9bc e385 b9ba f94b f33c f7fd d4bc
000001f0: 9204 5d3c fa9d d0bc e5bb 17bd afa3 acbb
00000200: 04dd a03c 5f4f 183d cf11 a4bc 7789 b73b
00000210: 693b f33c 9af5 bf3c bd57 af3c 023f c03c
00000220: e589 b43c 3794 f93b 31af dabc 84d4 04bd
00000230: 188f 99bc 1e43 d6bb bd13 c7bc 78f0 283c
00000240: 5e65 c73b b5f5 80bc 8415 aa3b 8191 1d3b
00000250: f4c3 803c 8a5c b83c acfc 15bc 35e7 253d
00000260: 5b7e a0bb c4d1 513b efc6 cabc 0a39 8bbc
00000270: a4f5 86bc 957c 90ba b5db 123d 28a1 08bc
00000280: 8768 b1bc 7f76 9d3c bf8d 893c 96ef c13c
00000290: 6980 90bc d756 013c 5512 77bc 6543 2cbc
000002a0: faa6 fcbc 26da 98bc b749 57bc a25c 443c
000002b0: c960 8e3a 6850 803b bf4f f53c 44d6 ff3c
000002c0: 4e0d db3c 4526 8639 2402 95bc 7381 1d3d
000002d0: 2aa4 bc3a 78f0 4b3c c8a7 79bc dcd1 ac3a
000002e0: 0a9f 8dbc 9963 2e3d dbe4 8ebc d589 65bc
000002f0: ec15 033c 0d48 9ebb c22b df3c d060 babb
00000300: 4902 37bc 0430 4b3b 9522 c93c a45d e1bc
00000310: 43cb 6b3c ee28 a83c 74cd 063d 75a3 e5bc
00000320: 928e 9a3a 2bad fcbc 3e90 fb3c f2b0 3dbc
00000330: 19e4 d93c 188b 083c 66bd 8c3c 289b c33c
00000340: 6613 b73c 853e fd3c 50c3 763c ae9c a23c
00000350: b983 8ebc 4f63 2f3d ff28 593d 9ab8 343d
00000360: 2c47 0f3d ead1 71bc a0f2 dbb9 d7c2 3c3d
00000370: 767c a6bc 6c9f 0b3d af00 f2bc 3207 e1bc
00000380: bab7 7a3c 1105 e5bc e973 26bc 5a7a be3c
00000390: 580b a83c 1560 fa3c f251 9fbb 862f c9bc
000003a0: c88b 263d 0171 003c e3cc b93b 293c f53c
000003b0: 904d 47bb fd77 173d ee36 2e3d 86be 27bc
000003c0: 9acf c0bb df0c 1d3c c749 fe3c efa4 093c
000003d0: 3e62 15bc d69f 863b 85a2 e4bc cd73 36bc
000003e0: ea27 69bc fa36 033d 7599 fa3c e689 6bbc
000003f0: 1e92 48ba 93ba 5f3c 5f06 203b 2c49 a7bc

fc1.bias f4 [256]
0.010918599 -0.029701035 0.024929328 -0.005221333 0.02516991 -0.0034576682 0.028346155 0.020215726
0.020196069 0.027944542 -0.028843505 0.00010598415 -0.013187007 0.020545552 -0.028799096 0.028170748
-0.0059896177 0.02221694 -0.0024507905 -0.008202827 -0.00711762 0.036198594 0.0106941 0.016207108
-0.006932146 0.017172059 0.006027403 -0.0127777755 -0.024062576 -0.0066933706 0.008960232 -0.0030054725
-0.008107258 0.034872446 0.022418419 0.00075814634 0.0016827617 0.02698723 -0.013267258 0.030454261
0.012082218 0.014816134 0.0058384216 0.005905802 0.0025647078 -0.01240131 -0.006480986 -0.017947324
-0.0062726974 0.0032014232 -0.00951072 -0.0035976653 0.011051347 -0.030687422 -0.030001879 0.03696146
0.020342529 -0.016216863 0.021462241 -0.004048456 0.021251041 0.010576628 -0.0068371906 0.026679674
-0.010111225 -0.025624132 -0.010674637 -0.014704429 0.039556276 0.0054580183 -0.014575643 -0.015499775
0.007337559 0.013773449 -0.010788655 0.003437229 0.033561226 0.018364163 0.017768264 -0.012726326
-0.021431636 0.024252808 0.04323806 -0.032911327 -0.0025936626 0.00082503265 -0.027999487 -0.0043522622
0.018227493 0.019291751 -0.039734863 -0.04175093 0.0060133603 0.020175617 -0.028175624 -0.025928294
-0.0072597507 -0.033984266 -0.03645308 0.0052996445 -0.0021857575 0.0046976623 0.027640432 -0.019741233
0.016476471 -0.02023452 -0.009598246 0.029885309 0.02632001 -0.00028845723 0.01092885 0.03812928
0.015721943 0.023074364 0.029181853 0.017829834 0.027954571 0.0148313455 -0.01849206 0.00046239875
-0.03199671 0.010189276 0.0043854653 -0.012898276 0.0138170635 0.014296201 -0.005111416 0.0012354017
-0.025357878 0.019099806 0.011961972 0.018297885 0.0048649926 -0.01635726 -0.015996184 -0.023812892
-0.024341226 0.006692324 0.0052515944 -0.0033201638 -0.005391597 -0.0016719841 -0.022299802 0.01800928
-0.0042100023 0.034229703 -0.0076909745 -0.0017580714 -0.016429609 0.027586328 -0.02044204 0.034433033
0.034045152 -0.015575249 -0.010110379 -0.0033286484 0.015609996 0.02887201 0.03218057 -0.00310194
0.014611787 0.017350283 -0.018613566 -0.030228805 -0.0091926465 0.036236472 0.029691711 0.015331333
0.015267596 -0.007737533 -0.001819203 0.030140508 -0.026126675 0.0139872115 0.034959204 0.0066694594
0.028837979 -0.006441849 -0.0012456488 0.016090652 -0.0138516035 0.012136278 0.011556445 0.016421068
-0.0033041965 -0.015115848 0.0006230507 0.011397904 0.0015275558 0.025541529 0.029717833 0.0026945653
-0.023730103 -0.0282465 -0.0012135268 0.035337247 0.025797773 0.02525079 0.0037450744 0.03861141
0.044499062 -0.00040946624 0.026360856 -0.011575624 -0.035433486 -0.01440911 0.0051602465 -0.010975357
-0.008512044 0.02366716 0.025661152 0.040389877 0.005065322 0.034490906 -0.009985255 0.0016467063
-0.0036770958 -0.028458845 -0.00012279056 -0.014708776 0.008189087 0.014591854 0.0127080325 -0.013417959
0.012346865 -0.014055827 -0.011630814 -0.0130387405 0.00031437725 -0.016329087 -0.019389374 -0.0287077
0.028645365 -0.033638306 -0.00013694985 -0.0009879955 -0.018314004 0.02791909 0.02235986 0.04359332
-0.0045506083 -0.0045323856 0.042591903 0.017654737 0.006459443 0.025226284 -0.01114015 0.020324897
0.00799508 0.01673233 -0.0014639932 -0.020629803 0.034691736 0.031251967 0.0043810173 -0.0076064095
00000000: ece3 323c 964f f3bc 9738 cc3c b717 abbb
00000010: 2131 ce3c 0c9a 62bb 3236 e83c 739b a53c
00000020: 3a72 a53c f4eb e43c 3749 ecbc cf43 de38
00000030: 510e 58bc 254f a83c 15ec ebbc 57c6 e63c
00000040: 8e44 c4bb 4d00 b63c 719d 20bb 2665 06bc
00000050: ed3a e9bb fa44 143d 4e36 2f3c c5c4 843c
00000060: 0e27 e3bb 6bac 8c3c 8581 c53b e059 51bc
00000070: e11e c5bc 1054 dbbb f0cd 123c 76f7 44bb
00000080: 4ed4 04bc 69d6 0e3d d5a6 b73c 57be 463a
00000090: 1d90 dc3a 5314 dd3c ea5e 59bc 377b f93c
000000a0: 7ff4 453c 5fbf 723c 3b50 bf3b 7585 c13b
000000b0: a814 283b dd2e 4bbc 735e d4bb 4406 93bc
000000c0: 338b cdbb f8ce 513b dad2 1bbc cfc6 6bbb
000000d0: b510 353c 3064 fbbc 80c6 f5bc e664 173d
000000e0: 60a5 a63c 3ad9 84bc 95d1 af3c e9a8 84bb
000000f0: aa16 ae3c 9849 2d3c 830a e0bb 558f da3c
00000100: 8da9 25bc b3e9 d1bc ace4 2ebc d8ea 70bc
00000110: c305 223d 2dd9 b23b aece 6ebc c5f2 7dbc
00000120: e86f f03b 08aa 613c e6c2 30bc 2243 613b
00000130: 7f77 093d 7170 963c c08e 913c 1482 50bc
00000140: 6691 afbc d3ad c63c 641a 313d 07ce 06bd
00000150: 70fa 29bb 0147 583a 2e5f e5bc 6c9d 8ebb
00000160: d351 953c bc09 9e3c 06c1 22bd 0603 2bbd
00000170: b90b c53b 5647 a53c 91d0 e6bc 9367 d4bc
00000180: 34e3 edbb 1633 0bbd d34f 15bd a4a8 ad3b
00000190: ed3e 0fbb d9ee 993b 306e e23c 5eb8 a1bc
000001a0: aaf9 863c ddc2 a5bc f641 1dbc 09d2 f43c
000001b0: 109d d73c 133c 97b9 eb0e 333c 732d 1c3d
000001c0: 4ecb 803c 7306 bd3c c80e ef3c df0f 923c
000001d0: fc00 e53c 2cff 723c a97c 97bc 1c6e f239
000001e0: fb0e 03bd ecf0 263c f3b3 8f3b 4a53 53bc
000001f0: f760 623c 9d3a 6a3c aa7d a7bb 34ed a13a
00000200: 53bb cfbc 3277 9c3c 26fc 433c 72e5 953c
00000210: 846a 9f3b a9ff 85bc 6e0a 83bc 4113 c3bc
00000220: 4067 c7bc 484b db3b 9115 ac3b 1b97 59bb
00000230: feab b0bb 7a26 dbba 13ae b6bc 3388 933c
00000240: 0ff4 89bb 7234 0c3d 9204 fcbb 166f e6ba
00000250: 6397 86bc b9fc e13c 1176 a7bc a709 0d3d
00000260: ee72 0b3d 542f 7fbc 01a6 25bc 7425 5abb
00000270: 12c1 7f3c fe84 ec3c c6cf 033d eb49 4bbb
00000280: 4766 6f3c 2e22 8e3c 7a7b 98bc 66a2 f7bc
00000290: c19c 16bc b26c 143d 083c f33c 4530 7b3c
000002a0: f024 7a3c 228b fdbb 5372 eeba 3ae9 f63c
000002b0: 9c07 d6bc 9e2a 653c 6231 0f3d 7b8b da3b
000002c0: a03d ec3c 2516 d3bb 0a45 a3ba 8bd0 833c
000002d0: d6f1 62bc 3dd7 463c 3e57 3d3c 7a85 863c
000002e0: 388b 58bb 76a8 77bc 3a54 233a 46be 3a3c
000002f0: 4438 c83a 783c d13c d072 f33c 4e97 303b
00000300: a265 c2bc 3465 e7bc 340f 9fba cabd 103d
00000310: da55 d33c bfda ce3c ec6f 753b ff26 1e3d
00000320: a644 363d a1ad d6b9 b9f2 d73c b0a7 3dbc
00000330: b422 11bd 3014 6cbc 4917 a93b fcd1 33bc
00000340: 1a76 0bbc a2e1 c13c 5637 d23c db6f 253d
00000350: 00fb a53b 5646 0d3d 3299 23bc 4bd6 d73a
00000360: 6efb 70bb 8622 e9bc 57c1 00b9 14fd 70bc
00000370: 852b 063c ac12 6f3c 5a35 503c 00d7 5bbc
00000380: 814a 4a3c 694a 66bc 2b8f 3ebc 71a0 55bc
00000390: 00d3 a439 94c4 85bc 77d6 9ebc 692c ebbc
000003a0: afa9 ea3c 52c8 09bd 329a 0fb9 a17f 81ba
000003b0: 4007 96bc 93b6 e43c 062c b73c e98e 323d
000003c0: 451d 95bb 6884 94bb d974 2e3d aba0 903c
000003d0: bca9 d33b 5aa7 ce3c 2d85 36bc 6680 a63c
000003e0: ccfd 023c 3d12 893c 76e3 bfba d5ff a8bc
000003f0: ec18 0e3d 1002 003d a38e 8f3b 303f f9bb

fc2.weight f4 [10, 256]
0.11319067 -0.067814335 0.15503812 -0.05933038 0.021937609 0.010962364 -0.17537448 -0.055553135
-0.1163162 0.0132555785 -0.03655839 0.039579492 -0.06377487 0.08038113 0.08999579 -0.04491363
0.019337533 0.09621554 -0.10001983 0.050007053 -0.00630695 -0.08262447 -0.04043547 0.053878207
-0.13465671 -0.04669685 -0.06936408 -0.0036081122 0.04730276 0.07191587 -0.02981691 0.106649026
-0.18562485 -0.056122206 -0.053634927 -0.00015352544 0.024963027 -0.00031134541 0.20064028 0.16546674
-0.08085171 0.13572165 -0.10651287 -0.06809016 -0.10080087 -0.15350218 -0.08944977 0.13154191
0.022240253 -0.23262794 -0.02141918 -0.08513462 0.15125272 0.056342885 -0.0005854827 0.0032310884
0.14776447 0.042510673 0.08361071 -0.10053311 0.042987473 -0.12135079 0.077440985 0.047042254
0.05986632 -0.050533414 0.026421016 -0.07270434 0.10479842 0.03640559 -0.06159146 -0.09655146
-0.02337133 -0.010861326 -0.0349169 0.06908668 -0.083581075 -0.19447906 -0.07009156 0.16900821
0.18919055 0.053385217 -0.1047053 -0.24412543 0.03544098 -0.23772751 -0.019003982 0.037385143
-0.0790573 -0.019940425 0.05317491 -0.026791485 0.023982566 0.038023505 0.066600725 0.056786362
-0.03440064 -0.048822895 0.06166086 0.08787656 0.1248389 0.07165113 0.099407956 0.04490561
0.10088865 -0.12983556 -0.014950678 -0.14864585 0.0777734 -0.034137297 -0.06577076 0.06902211
0.10571533 0.025867583 -0.09980676 0.023763414 0.09378187 0.12219374 0.033370227 -0.16471605
-0.035176635 0.032528616 0.013513817 0.026825668 -0.09874456 -0.037513375 -0.06124804 0.06880371
-0.0094747245 -0.12348728 0.029653491 -0.021675022 0.014352719 -0.042178385 0.04258007 0.09744095
0.06773365 -0.017162263 0.04076561 -0.07504558 -0.04540176 -0.090270236 0.18126696 -0.12457118
-0.118066095 0.043056734 -0.09327414 -0.1214015 0.0019177312 0.014569731 0.00024814546 -0.10667664
0.059863932 0.004704437 -0.06652582 -0.12850551 0.056911457 0.09750077 0.0019540626 -0.030585365
0.081084885 0.076178424 0.087891094 0.08343391 0.06963354 -0.10762788 -0.0403569 0.028572297
0.051330063 -0.05298999 -0.07401551 0.16240363 0.033564188 0.20982555 -0.2140364 -0.059926383
-0.14790966 -0.08513847 0.041609883 0.09127795 -0.1203639 0.10306045 0.004761353 -0.004619575
-0.089606926 0.055778347 -0.025434608 0.043388568 0.08502308 -0.16791885 -0.0010047936 0.009042456
-0.095854774 0.0651535 -0.052212957 0.1378705 0.006770767 -0.05209193 0.14167137 -0.10540379
0.148517 -0.023540009 0.11527828 0.0542736 0.032422137 -0.07703145 -0.10766008 0.034902215
-0.078832604 0.08912434 -0.0064335326 0.087698184 0.04970778 0.05069825 -0.055590697 0.025233265
-0.112146154 -0.01141679 -0.037193123 -0.04535323 -0.038650632 -0.039815586 0.025756352 0.19355963
0.077817544 0.010947388 -0.040050127 -0.01602181 -0.054469444 0.09672748 0.01872024 -0.12249334
-0.054663982 -0.18857975 0.10054879 -0.15088858 0.06431551 0.06628255 -0.030539943 -0.08475305
0.061005924 0.07996017 -0.071251735 0.051566467 -0.08387397 -0.00833849 -0.046077363 -0.08221932
0.078970216 0.12983641 0.115183614 0.03007606 0.07232827 0.0128803 -0.14187627 -0.052828252
00000000: 83d0 e73d 3ee2 8abd 50c2 1e3e 6a04 73bd
00000010: 80b6 b33c 7d9b 333c 5e95 33be af8b 63bd
00000020: 3037 eebd ed2d 593c 40be 15bd 1b1e 223d
00000030: 669c 82bd dd9e a43d b64f b83d 5bf7 37bd
00000040: bf69 9e3c a70c c53d 32d7 ccbd 32d4 4c3d
00000050: 88aa cebb 0537 a9bd aa9f 25bd 65af 5c3d
00000060: 73e3 09be 3245 3fbd c10e 8ebd 1476 6cbb
00000070: 8ac0 413d a148 933d 9842 f4bc ce6a da3d
00000080: 7114 3ebe 66e0 65bd 4cb0 5bbd acfb 20b9
00000090: 437f cc3c 133c a3b9 a574 4d3e 1d70 293e
000000a0: 9595 a5bd 9efa 0a3e 6b23 dabd db72 8bbd
000000b0: b070 cebd ad2f 1dbe 7131 b7bd ecb2 063e
000000c0: 3131 b63c 0536 6ebe 4777 afbc 0f5b aebd
000000d0: fee1 1a3e ccc7 663d 147b 19ba abc0 533b
000000e0: 924f 173e ac1f 2e3d 183c ab3d 4ee4 cdbd
000000f0: a213 303d c386 f8bd 6199 9e3d 61af 403d
00000100: 6336 753d 20fc 4ebd e370 d83c 03e6 94bd
00000110: 8ea0 d63d 071e 153d 5447 7cbd c6bc c5bd
00000120: 3b75 bfbc b4f3 31bc 0605 0fbd 517d 8d3d
00000130: 8e2c abbd 8525 47be 2a8c 8fbd 7d10 2d3e
00000140: 2bbb 413e 75aa 5a3d bb6f d6bd 04fc 79be
00000150: 902a 113d d76e 73be 3dae 9bbc 2a21 193d
00000160: cbe8 a1bd 1a5a a3bc efcd 593d d179 dbbc
00000170: 1677 c43c 89be 1b3d f665 883d d198 683d
00000180: afe7 0cbd 84fa 47bd 1990 7c3d a0f8 b33d
00000190: 8aab ff3d d4bd 923d 6696 cb3d f2ee 373d
000001a0: b59e ce3d 9df3 04be b0f3 74bc 9e36 18be
000001b0: a947 9f3d 8dd3 0bbd d2b2 86bd 775b 8d3d
000001c0: 4781 d83d 41e8 d33c 7d67 ccbd 7eab c23c
000001d0: b610 c03d b640 fa3d 38af 083d 53ab 28be
000001e0: 6015 10bd ba3c 053d 0f69 5d3c 81c1 db3c
000001f0: 963a cabd a0a7 19bd 3adf 7abd f6e8 8c3d
00000200: e03b 1bbc e6e6 fcbd e1eb f23c d18f b1bc
00000210: ab27 6b3c 3ec3 2cbd 7168 2e3d 1f8f c73d
00000220: f1b7 8a3d e097 8cbc d7f9 263d 7fb1 99bd
00000230: 32f7 39bd 9adf b8bd 0c9e 393e 2d1f ffbd
00000240: a3cc f1bd 425c 303d 8306 bfbd 5aa1 f8bd
00000250: 625c fb3a e2b5 6e3c 8519 8239 4879 dabd
00000260: e233 753d ae27 9a3b b03e 88bd f396 03be
00000270: fd1b 693d 7cae c73d bb0f 003b 298e fabc
00000280: d50f a63d 6f03 9c3d 3f00 b43d 66df aa3d
00000290: 089c 8e3d 026c dcbd 474d 25bd 7310 ea3c
000002a0: 793f 523d 080c 59bd 7295 97bd 234d 263e
000002b0: 9a7a 093d 82dc 563e 5c2c 5bbe 5e75 75bd
000002c0: a175 17be 145d aebd 206f 2a3d efef ba3d
000002d0: 5981 f6bd 5b11 d33d 2005 9c3b ce5f 97bb
000002e0: d683 b7bd d677 643d 3d5c d0bc 36b8 313d
000002f0: 9520 ae3d ebf2 2bbe 47b3 83ba cf26 143c
00000300: 824f c4bd 336f 853d 41dd 55bd ed2d 0d3e
00000310: 4fdd dd3b 595e 55bd 4d12 113e f1dd d7bd
00000320: d714 183e fad6 c0bc 0517 ec3d ff4d 5e3d
00000330: 13cd 043d aac2 9dbd e37c dcbd a0f5 0e3d
00000340: fd72 a1bd d286 b63d 62d0 d2bb 1b9b b33d
00000350: 639a 4b3d f8a8 4f3d 12b3 63bd feb5 ce3c
00000360: e2ac e5bd 7d0d 3bbc d157 18bd 4fc4 39bd
00000370: 2050 1ebd ab15 23bd fcfe d23c 7f34 463e
00000380: ce5e 9f3d ac5c 333c 9a0b 24bd 2c40 83bc
00000390: 5a1b 5fbd 0f19 c63d 305b 993c cadd fabd
000003a0: 57e7 5fbd 0d1b 41be 86ec cd3d 8982 1abe
000003b0: dab7 833d 25bf 873d e72e fabc 0293 adbd
000003c0: 59e1 793d 28c2 a33d 6eec 91bd 5c37 533d
000003d0: 1ec6 abbd 299e 08bc 9ebb 3cbd 9a62 a8bd
000003e0: 23bb a13d d6f3 043e 63e5 eb3d 1262 f63c
000003f0: d820 943d e507 533c 0348 11be 7062 58bd

fc2.bias f4 [10]
0.026223108 -0.04844588 0.008093539 0.039576616 -0.005352242 0.07313786 0.017511437 -0.055126388
0.07580884 -0.043648444
00000000: d8d1 d63c 306f 46bd c39a 043c 171b 223d
00000010: dc61 afbb 4dc9 953d 2574 8f3c 35cc 61bd
00000020: aa41 9b3d b6c8 32bd
