model_checkpoint_epoch_4.pth (torch, 815827 bytes, 4 tensors)

fc1.weight f4 [256, 784]
000000 6f bf 82 3c 61 23 95 bc bb 71 19 bc ee a3 6a 3c
       0.015960423 -0.018205347 -0.009365494 0.01432131
000010 78 b8 13 bd e5 74 9b 3c e3 62 20 bc 1c d7 80 3c
       -0.036064595 0.018976638 -0.009789201 0.015727572
000020 a0 59 25 3b 27 4f df bb ac 93 f4 3b 60 42 32 ba
       0.0025230423 -0.0068148556 0.007463893 -0.0006800052
000030 00 b4 2d 3c d8 04 86 bc af 56 a5 bb 49 5f b9 bb
       0.010601997 -0.016359732 -0.005045734 -0.005657111
000040 fc 38 33 3b 09 61 29 bb b1 c0 eb 3c 49 15 0e 3c
       0.0027347198 -0.002584519 0.028778406 0.008672067
000050 83 f5 80 bc 93 b4 c4 bc 2e 16 0a bc 95 33 92 bc
       -0.01574207 -0.024011886 -0.00842814 -0.017846862
000060 05 84 63 bc 30 d6 3f ba 0c 68 9a 3c 10 05 8b 3c
       -0.013886456 -0.0007317988 0.018848442 0.016970187
000070 e8 00 19 bd 15 5e a1 3c c7 eb f6 3b 28 c2 00 3d
       -0.03735438 0.019698182 0.007535431 0.03143516
000080 73 1c ad 3c 3e 4a 0f bd 0d 45 15 bd 19 a6 a1 bc
       0.02113173 -0.034982912 -0.036442805 -0.019732522
000090 39 d1 eb 3c b0 05 0b bc 2c 9e 50 3c 28 f0 9c bc
       0.028786289 -0.008485243 0.012733024 -0.019157484
0000a0 7b 15 05 3d 36 01 91 bc e8 cb c6 3c 62 16 09 bb
       0.03249119 -0.017700773 0.024267152 -0.0020917882
0000b0 f5 de ae bc 97 e6 81 3c e4 30 b0 bc f3 43 02 3c
       -0.021346549 0.015857024 -0.021507688 0.007950771
0000c0 78 a0 51 bc a3 7d d0 bb 2e ab 16 bd ad 91 9f bc
       -0.012794606 -0.0063626333 -0.036784343 -0.019478643
0000d0 75 c1 8a 3c 13 3e 36 bc be b4 07 3d b3 84 d6 3c
       0.01693795 -0.011123198 0.033131354 0.026186323
0000e0 bd cf 86 bb 3e 4a d7 bc 64 26 9e 3c 18 d0 0d 3c
       -0.00411412 -0.026280519 0.019305415 0.00865557
0000f0 21 17 d1 bc 68 f6 a9 3c f3 da 9c 3c 4e e9 ed 3c
       -0.025523724 0.020747378 0.019147372 0.029041912
000100 22 bc ba bc eb 86 12 bc 64 cf 8a bb 68 56 85 3a
       -0.022794787 -0.0089433 -0.0042361487 0.0010172846
000110 7c 9e 02 bd a2 0c f9 bc 6a be 65 3c 22 9a 5f bc
       -0.031889424 -0.030401532 0.014022449 -0.013647588
000120 da e5 4f 3c ca 6d 1c bb ec ac fe 3b 61 29 87 3b
       0.012689078 -0.002386915 0.0077720787 0.004124806
000130 ba 5d 1c 3c 54 1a 70 3c 9f ba 12 bd 26 8b 7a 3c
       0.0095438305 0.014654715 -0.035822507 0.015291965
000140 5e d7 e2 bc 92 d5 f0 bc cd 82 8d b9 57 b8 0b bc
       -0.027690586 -0.029398713 -0.0002699107 -0.008527837
000150 aa d4 97 3c 2c 71 bd bc 52 0f 0c bd e3 26 c1 3c
       0.018534023 -0.023125254 -0.034194298 0.023578113
000160 a7 25 fe bb c4 42 89 3c a5 22 05 3c 14 60 fa bc
       -0.0077559534 0.01675547 0.008125936 -0.030563392
000170 38 ba 5d 3b 30 41 72 3b 7d 73 f0 bc 57 40 c3 bc
       0.003383292 0.0036965124 -0.029351944 -0.02383439
000180 f3 f6 8b 3b 51 1b fd ba 4a 1b bd bc cc 99 92 bc
       0.004271382 -0.0019310509 -0.023084302 -0.017895602
000190 08 b1 d7 3c a9 38 37 bc 88 19 5b 3c 9a 99 15 3c
       0.026329532 -0.011182942 0.013372786 0.00913086
0001a0 1d f1 d8 bc fd d1 06 bd 7c 6b 00 3d 26 23 fb ba
       -0.02648216 -0.032915104 0.031352505 -0.0019160255
0001b0 92 8b ab 3c 08 f2 a3 3b 9c 83 14 3c 05 89 c6 3c
       0.020940576 0.0050032176 0.009064581 0.024235258
0001c0 6a b5 00 3d 1a 26 d6 bc 75 25 04 3b a1 ed c5 3c
       0.03142301 -0.026141215 0.0020163928 0.024161162
0001d0 09 ba bb 3c 18 3f 8e 3c a9 df ff bc 4d 52 00 bd
       0.022915857 0.01736407 -0.03123458 -0.03132849
0001e0 e5 88 f2 bc ff 2a 1d bb d7 3d f1 3c 82 ec db bc
       -0.029606292 -0.0023981926 0.029448433 -0.026846174
0001f0 53 be 63 3c 8f 32 c7 bc 39 57 14 bd 1b ba c4 bb
       0.013900357 -0.0243161 -0.036215995 -0.006003631
000200 c6 33 a8 3c 14 99 14 3d 1a 43 ad bc 28 90 a1 3b
       0.0205325 0.0362788 -0.02115016 0.004930515
000210 ea 04 e4 3c 43 44 b2 3c 78 b5 a3 3c a4 a2 bb 3c
       0.027834374 0.021761065 0.019983992 0.022904702
000220 3e c8 ac 3c 66 13 e9 3b 05 d4 db bc 24 fe 04 bd
       0.021091577 0.007112908 -0.026834497 -0.03246893
000230 d7 10 9a bc 1e 4a d8 bb d4 87 c7 bc 80 e9 28 3c
       -0.018806858 -0.0066006323 -0.02435676 0.010309577
000240 c7 62 dc 3b 6e bc 6c bc 45 95 cb 3b f7 7a 5d 3b
       0.0067256424 -0.014449222 0.0062128627 0.0033795217
000250 30 39 73 3c 86 c8 a7 3c 58 17 41 bc 23 df 19 3d
       0.0148451775 0.02048136 -0.011785351 0.037566315
000260 ac f7 54 bb 76 f2 88 3b d4 53 ce bc c5 b8 79 bc
       -0.0032496257 0.004179294 -0.025186457 -0.015241806
000270 88 cc 54 bc f3 84 15 ba 06 d5 15 3d 9c a0 dc bb
       -0.012988217 -0.000570371 0.036580108 -0.0067330133
000280 a2 19 b7 bc 18 5b 90 3c 84 a4 78 3c 16 a9 c2 3c
       -0.02235109 0.017621562 0.015175942 0.023762267
000290 a5 d1 97 bc 4a af db 3b 2b 0c 7a bc 70 ab 2c bc
       -0.018532583 0.0067042457 -0.01526169 -0.010538921
0002a0 b9 28 fd bc fb 59 99 bc 8f a6 59 bc 31 33 45 3c
       -0.030903207 -0.018719664 -0.01328434 0.012036131
0002b0 28 cc ce 3a 0a 6a 6b 3b e1 1a f3 3c 5c 96 fa 3c
       0.0015777396 0.0035921359 0.029675903 0.030589275
0002c0 94 eb c6 3c 91 d8 5d 3a 60 b5 9d bc c0 89 17 3d
       0.024282254 0.0008462752 -0.019251525 0.036996603
0002d0 76 68 e5 39 aa f1 23 3c 9a 83 90 bc f7 c8 a8 3a
       0.00043756113 0.010006348 -0.017640878 0.0012877275
0002e0 c6 15 77 bc fe 26 38 3d 23 cb 84 bc f0 ff 5c bc
       -0.015080875 0.04495906 -0.016210144 -0.013488755
0002f0 6f ae 0e 3c 25 6f d1 bb 45 d7 cd 3c a0 8d c1 bb
       0.00870858 -0.0063914233 0.025127063 -0.0059067756
000300 9c 97 50 bc ce fd f3 3a e6 e4 c5 3c 07 ca e1 bc
       -0.012731459 0.0018615068 0.024156999 -0.027562154
000310 af c7 6a 3c 41 d6 a7 3c 56 a9 05 3d 1b 7d e6 bc
       0.014329835 0.020487906 0.032632194 -0.028135827
000320 ae 28 0b 3b 6a aa 00 bd 79 08 ed 3c d1 87 52 bc
       0.0021233964 -0.03141252 0.028934704 -0.012849764
000330 9a a1 d5 3c ef 79 0d 3c c9 f0 5b 3c 05 d6 9b 3c
       0.026078034 0.008635028 0.013424107 0.01902295
000340 eb 0c aa 3c 05 fc f0 3c 1a 7d 76 3c 7a 0d 99 3c
       0.020758113 0.029417047 0.015044475 0.018683184
000350 72 32 95 bc 11 43 34 3d da 8c 59 3d fb c7 3e 3d
       -0.01821253 0.044009272 0.053112842 0.046577435
000360 fc 9b 1b 3d 3a e1 5b bc 2e 6b 0c ba 83 43 36 3d
       0.037990555 -0.013420397 -0.0005356547 0.044497978
000370 5a 88 a9 bc bb 2f 0a 3d e2 0b f3 bc 45 a9 e1 bc
       -0.0206949 0.033736926 -0.029668752 -0.027546534
000380 54 d3 77 3c 18 b7 e5 bc de b9 2a bc 4d ba bc 3c
       0.015126068 -0.028041407 -0.010420291 0.023038054
000390 e1 dc ae 3c 2b 6d f3 3c 89 28 ec bb c6 0c d1 bc
       0.021345558 0.029715141 -0.0072069806 -0.025518786
0003a0 95 ad 27 3d ac 9d a2 3b 1e c3 30 3b 90 2f e3 3c
       0.040937025 0.0049626436 0.0026971768 0.02773264
0003b0 a2 bb b6 bb 27 f3 17 3d e7 16 17 3d 71 66 70 bc
       -0.005576567 0.037097123 0.036887076 -0.014672861
0003c0 ac 45 14 bc fa db 53 3c 40 0e 0b 3d fb c0 68 3c
       -0.009049814 0.0129308645 0.033949137 0.014206166
0003d0 bb 9f db bb 42 c4 f9 3b e5 46 cc bc c1 dc 3d bc
       -0.006702391 0.0076222727 -0.024936149 -0.011588276
0003e0 a0 26 76 bc 8e 7a 02 3d ce 14 f9 3c af d1 6c bc
       -0.015023857 0.03185516 0.030405428 -0.014454289
0003f0 b4 80 59 ba d1 6a 5e 3c ff c6 0e 3b 7b cc a8 bc
       -0.00082970713 0.013575272 0.0021786091 -0.020605316

fc1.bias f4 [256]
000000 9d 47 35 3c 7c d3 e2 bc 75 79 e2 3c c8 7c e5 bb
       0.011064437 -0.027688734 0.027645806 -0.0070034005
000010 58 2a d8 3c 98 ef 79 bb f9 94 e6 3c b0 07 ac 3c
       0.026387379 -0.0038137194 0.028147208 0.02099976
000020 be 4c 88 3c 2b e5 e2 3c 47 03 f4 bc f9 8c 7c ba
       0.016638156 0.027697166 -0.029786719 -0.00096340437
000030 f3 0a 32 bc d1 29 a6 3c 1f 17 ed bc 6f 51 f5 3c
       -0.010866868 0.020283611 -0.028941689 0.029946057
000040 93 15 cc bb ec 8e ad 3c 7b e2 c4 ba 09 a0 32 bc
       -0.006228158 0.021186315 -0.001502111 -0.010902413
000050 fe 2b 04 bc 88 58 17 3d cd 3e 0f 3c 52 d4 8a 3c
       -0.008067129 0.036949664 0.008743 0.016946945
000060 0a b7 99 bb 07 1f a3 3c 6c 00 b6 3b dd 3e 63 bc
       -0.0046910094 0.019912256 0.0055542495 -0.013869968
000070 5e 7a bc bc 77 1a e0 bb 9f 4c 04 3c c5 da 82 bb
       -0.023007568 -0.0068390924 0.0080749085 -0.0039933645
000080 95 61 1f bc 7d 7c 0d 3d f1 86 b9 3c 49 d2 79 3a
       -0.009727855 0.03454255 0.022647353 0.0009529931
000090 3f 68 b2 3a 21 b4 d6 3c c7 05 85 bc 65 f2 07 3d
       0.001361139 0.026208939 -0.016238106 0.03319015
0000a0 b2 a6 65 3c eb 57 5d 3c 5d 41 01 3c 2b a1 c4 3b
       0.014016794 0.013509731 0.007889119 0.006000658
0000b0 79 f9 0a 3b 01 35 49 bc 56 9a af bb 03 4e 79 bc
       0.0021205826 -0.0122807035 -0.0053589744 -0.015216353
0000c0 a8 1c f9 bb c3 0a 7c 3b c8 88 07 bc 09 52 85 ba
       -0.007602293 0.0038458563 -0.008272357 -0.0010171543
0000d0 d2 a1 50 3c b9 1b de bc b7 63 f7 bc ee fc 0f 3d
       0.0127338935 -0.027112829 -0.030198915 0.035153322
0000e0 18 83 a1 3c d1 c8 72 bc 93 69 bb 3c c1 d6 7a bb
       0.01971583 -0.014818386 0.02287749 -0.0038274976
0000f0 62 1f b8 3c 5a ca 33 3c da 1c 35 bc b5 34 f2 3c
       0.022475902 0.010973537 -0.011054242 0.029566148
000100 73 f7 b5 bb 66 c9 cc bc 9a 36 0e bc 8c 14 53 bc
       -0.00555318 -0.024998378 -0.00868001 -0.012883317
000110 11 fb 1c 3d 0d 7f 6e 3b 4a a6 72 bc b5 70 82 bc
       0.038325373 0.0036391646 -0.014810154 -0.015922884
000120 1e 5f cd 3b 06 8b 7d 3c 3f 2c ea bb 10 30 25 3b
       0.0062674424 0.01547504 -0.007146388 0.002520565
000130 9c 5f 0e 3d a5 ef af 3c 83 71 86 3c 7b dc 61 bc
       0.03475915 0.021476576 0.016411548 -0.013785477
000140 97 ae ba bc 7d 77 d8 3c 8b a0 2d 3d 14 c1 ef bc
       -0.022788329 0.026424164 0.042389434 -0.029266872
000150 6a 50 51 bb 93 43 93 3a b7 f5 e9 bc 18 a0 a6 bb
       -0.00319388 0.0011235349 -0.028559549 -0.0050850026
000160 65 60 90 3c 9a 22 b1 3c 4c c9 12 bd 15 cf 24 bd
       0.01762409 0.021622945 -0.035836503 -0.04023655
000170 93 e6 88 3b 6c ee a4 3c 86 44 ef bc e0 6c cc bc
       0.004177877 0.02013322 -0.02920748 -0.02495426
000180 48 91 cf bb f6 94 06 bd 26 6c 16 bd bb 26 ac 3b
       -0.0063344575 -0.032856904 -0.036724232 0.0052536405
000190 fe 16 4f bb ea a6 b8 3b 59 22 d4 3c 44 b8 b5 bc
       -0.0031599398 0.005635132 0.025895284 -0.022182591
0001a0 e6 da 78 3c 41 27 ac bc f0 a6 05 bc 9c 96 e9 3c
       0.015188908 -0.021014811 -0.008157477 0.028514199
0001b0 24 b3 d1 3c ec 01 a9 b8 81 4d 29 3c 19 a6 1b 3d
       0.025598116 -8.058906e-05 0.01033342 0.0380002
0001c0 44 cf 64 3c 47 95 b2 3c 1e 8f e7 3c 93 82 8d 3c
       0.013965432 0.021799697 0.028266486 0.017274177
0001d0 c1 1b d9 3c a3 2f 90 3c 1c c8 8c bc d4 9a a9 b9
       0.026502492 0.01760084 -0.017185263 -0.00032349548
0001e0 a9 f4 f3 bc fe 18 7f 3c 4c ee 6a 3b 5f 74 4b bc
       -0.029779749 0.015569923 0.0035847602 -0.012417882
0001f0 ec 91 4d 3c 35 b2 83 3c 0c 80 ac bb ee 61 9a 3b
       0.0125469975 0.016076187 -0.005264288 0.004711381
000200 44 b0 cb bc f1 1a 8a 3c 97 8f 33 3c c7 b2 8e 3c
       -0.024864323 0.01685855 0.010959527 0.017419232
000210 55 a4 b9 3b fe 48 73 bc 0a 99 83 bc e4 7a bf bc
       0.005665342 -0.014848946 -0.016064186 -0.023374029
000220 fc 0a cd bc 44 53 1e 3c 4a 4b c2 3b 58 15 1e bb
       -0.025029652 0.009663407 0.0059293853 -0.0024121609
000230 a9 4c c1 bb aa 33 4e bb 5b c3 ab bc aa 24 93 3c
       -0.005899031 -0.00314639 -0.020967176 0.017961819
000240 1c 8a 85 bb b3 55 0e 3d c7 ac f2 bb 94 57 e6 ba
       -0.004075302 0.034749698 -0.0074058506 -0.0017573708
000250 fa b9 86 bc 23 91 e4 3c 59 3b 99 bc 97 a8 f6 3c
       -0.016446102 0.027901238 -0.018705057 0.030109687
000260 85 34 07 3d 19 3f 62 bc 62 c2 26 bc dc b7 28 bb
       0.03300907 -0.013808989 -0.01017818 -0.0025744354
000270 a8 e6 97 3c b1 d2 f1 3c dc a3 0c 3d 4e 5d 30 bb
       0.018542603 0.02951941 0.034335956 -0.0026911083
000280 98 58 98 3c 54 72 82 3c 91 9e 80 bc 3e ff f1 bc
       0.018596932 0.015923657 -0.01570061 -0.029540654
000290 76 39 18 bc e6 ec 16 3d 5c f8 da 3c a6 c3 8a 3c
       -0.0092910435 0.036847018 0.026729755 0.016938996
0002a0 50 a0 82 3c 9f bd 18 bc 3e 1d f4 b8 e8 2e ea 3c
       0.015945584 -0.009322553 -0.000116402734 0.02858682
0002b0 6b e7 d1 bc 70 49 10 3c 86 32 10 3d d3 57 af 3b
       -0.025623044 0.008806571 0.035204433 0.0053510456
0002c0 9c df fa 3c 5d 9b da bb 06 c5 53 3a 0a d6 8a 3c
       0.030624203 -0.006671353 0.000807837 0.016947765
0002d0 90 f1 76 bc eb 38 67 3c 84 36 36 3c 65 86 81 3c
       -0.015072241 0.014112691 0.011121396 0.015811155
0002e0 6d c0 75 bb 9b 02 6d bc 71 c9 00 ba 1e fd 25 3c
       -0.0037498728 -0.014465953 -0.00049128296 0.010131149
0002f0 c0 10 dd 3a b8 f6 d8 3c bc 51 f8 3c a2 33 5a 3b
       0.0016865954 0.026484832 0.030312411 0.0033294936
000300 39 2a c8 bc 0c a5 e7 bc 6e c4 5e ba dc 95 0d 3d
       -0.024434196 -0.028276943 -0.0008497898 0.034566745
000310 38 87 da 3c cc 36 d5 3c a5 19 3a 3b 24 53 1a 3d
       0.026675805 0.026027106 0.0028396633 0.037676945
000320 4f ec 27 3d 75 df 99 ba 65 52 cf 3c de 19 20 bc
       0.040996846 -0.0011739569 0.025307843 -0.009771792
000330 73 f8 0e bd 9e 92 80 bc d4 0d f1 3b 43 2c f8 bb
       -0.03490491 -0.015694913 0.007356385 -0.007573636
000340 0b f6 02 bc 67 8c c8 3c 6e 51 e2 3c 84 8d 23 3d
       -0.0079932315 0.024481012 0.02762672 0.03992988
000350 b1 88 c2 3b 76 bf 0f 3d 65 37 11 bc 8e 8f 9a 3a
       0.005936705 0.0350947 -0.008863305 0.001179205
000360 e7 a6 ab bb 10 33 e6 bc 25 a8 a4 3a 16 89 81 bc
       -0.005238402 -0.02810052 0.0012562318 -0.015812438
000370 79 b8 53 3c 64 fc 6c 3c e3 e0 37 3c 38 aa 2a bc
       0.0129224 0.0144644715 0.011223051 -0.01041656
000380 35 78 4e 3c eb eb 6d bc 82 38 4e bc a9 9b 5a bc
       0.012601902 -0.014521579 -0.012586715 -0.013342776
000390 38 91 91 3a c8 2a 5a bc c3 41 b9 bc 34 e0 e8 bc
       0.0011105901 -0.013315864 -0.022614365 -0.02842722
0003a0 e3 c3 f7 3c a0 02 01 bd 56 2c 8a 3a 95 63 8e bb
       0.030244773 -0.031496644 0.0010541778 -0.004345367
0003b0 ac 79 90 bc 82 e3 cf 3c 4f d2 bf 3c 8f 09 1f 3d
       -0.017636143 0.025377039 0.023415713 0.038827475
0003c0 b0 cd 05 bc a5 89 b7 bb 38 e4 29 3d 9a 1c a0 3c
       -0.0081667155 -0.0056011253 0.041477412 0.019544888
0003d0 a6 8a d5 3b 02 be e7 3c 57 72 3a bc fc 38 b6 3c
       0.0065167723 0.028288845 -0.0113798 0.02224397
0003e0 5c e9 ca 3b ec 56 99 3c 27 24 ff ba 9d 9d a2 bc
       0.0061923694 0.018718205 -0.001946573 -0.019850546
0003f0 99 db 0c 3d 2d ba 02 3d b9 9a b0 3b f9 b3 f0 bb
       0.034389112 0.031915832 0.005389538 -0.007345673

fc2.weight f4 [10, 256]
000000 03 07 e0 3d b2 72 88 bd 9a a3 d1 3d ef b9 73 bd
       0.109388374 -0.066625014 0.10236283 -0.059503492
000010 72 d8 22 3d 98 36 4f 3c c5 8d 0f be a8 fb f3 bc
       0.0397572 0.0126472935 -0.14018925 -0.029783085
000020 aa 5a bb bd e1 80 5f 3c 47 0c 13 bd bd 43 44 3d
       -0.09148152 0.013641567 -0.03590038 0.047916163
000030 bc 0a 7c bd 24 e2 93 3d e1 da be 3d 19 8d b8 bc
       -0.061533675 0.07220867 0.093190916 -0.022528218
000040 3c 1c 46 3c 94 3a ba 3d ad a2 b0 bd 4e 16 07 3d
       0.012091693 0.09093204 -0.08624778 0.032980256
000050 e8 0c b8 bc a7 b3 84 bd 20 81 43 bd 12 47 71 3d
       -0.022467092 -0.064795785 -0.047730565 0.05890567
000060 88 e6 04 be 64 be 02 bd c5 cd 86 bd f9 bf 68 3c
       -0.12978566 -0.031919852 -0.06582216 0.014205926
000070 a5 05 e1 3c 5d a6 a2 3d 32 6f e5 bc cd 57 e4 3d
       0.027468512 0.079418875 -0.028007124 0.11149559
000080 9c 72 31 be c3 43 5f bd ea 14 51 bd e6 a3 e0 3a
       -0.17328876 -0.054507982 -0.051045336 0.0017138689
000090 51 18 5a 3c ed 3d 3d ba 99 e1 1f 3e 8c 92 2c 3e
       0.013311462 -0.00072190055 0.15613402 0.16852778
0000a0 67 45 90 bd c1 05 0c 3e 31 b6 d6 bd 96 fc 5b bd
       -0.070444874 0.1367407 -0.10483969 -0.05370768
0000b0 7f 03 c8 bd 9c 36 0c be 39 be b5 bd 6e a1 00 3e
       -0.09766292 -0.13692707 -0.08874173 0.1256158
0000c0 58 d3 f4 3b 16 7c 4b be 4f c3 14 bd 2e c3 7f bd
       0.007471483 -0.19871554 -0.036319073 -0.062441997
0000d0 14 71 15 3e bb 42 24 3d 2d 35 2d 3a 2d ce 0f 3c
       0.14593917 0.0401027 0.000660735 0.0087771835
0000e0 4f 40 11 3e 56 b2 ba 3c f6 ac 3e 3d da af ba bd
       0.14184688 0.022790115 0.046551667 -0.09115572
0000f0 3e 53 14 3d 51 a7 d9 bd f2 55 99 3d 1d 06 b1 3c
       0.0362122 -0.10627616 0.07487096 0.02160936
000100 af 01 71 3d a0 29 22 bd b8 3f e6 3c c7 94 71 bd
       0.058839496 -0.039590478 0.028106555 -0.058979776
000110 22 67 a4 3d 2c e5 33 3d dd 52 50 bd d0 81 89 bd
       0.080274835 0.043919727 -0.050860275 -0.06714213
000120 e5 a0 65 bc 07 b1 8b 3c 09 0c 2c bd c0 56 98 3d
       -0.014015411 0.017052187 -0.042003665 0.07438421
000130 8f a4 a2 bd bb 01 1d be 0d 0c 7d bd 56 bb 20 3e
       -0.07941543 -0.15332691 -0.06177907 0.15696463
000140 5f 3a 38 3e 8b 97 df 3c a1 f7 d5 bd 98 0d 45 be
       0.17991017 0.027293941 -0.10447622 -0.19243467
000150 09 6d 1c 3d 31 97 49 be 69 ed a3 bc 45 89 e0 3c
       0.03818992 -0.19686581 -0.020010667 0.027409205
000160 12 20 78 bd c7 c2 b8 bc f6 3e 96 3c ad 96 16 bd
       -0.06057746 -0.022553815 0.018340569 -0.03676479
000170 12 00 6b 3c ea 82 17 3d 78 88 41 3d 5d 46 6f 3d
       0.0143432785 0.036990084 0.047249287 0.058416713
000180 e5 40 08 bd 41 42 1d bd 29 93 60 3d 21 11 62 3d
       -0.033265013 -0.038393263 0.054827843 0.055192117
000190 17 7f f9 3d 59 e3 8d 3d 48 9b a6 3d 44 00 52 3d
       0.121824436 0.06928129 0.08135086 0.051269785
0001a0 0e 78 c3 3d 4f ac d9 bd 34 44 f9 bc 24 04 06 be
       0.09544383 -0.106285684 -0.03042803 -0.13087517
0001b0 96 aa 9f 3d af c0 1d bd b2 f9 2d bd 03 d2 56 3d
       0.077962086 -0.038513836 -0.042474456 0.052446377
0001c0 83 43 b9 3d 1c 9f 7d 3c 63 af 9d bd f4 c9 9a 3c
       0.0904608 0.015479829 -0.07699468 0.018895127
0001d0 be ee 91 3d 8a f1 c3 3d b2 ff 0c 3d 92 8c 1c be
       0.071256146 0.09567554 0.034423538 -0.15287998
0001e0 f1 3d 3f bd da ac 01 3d 32 05 a3 3c b3 1c 79 3c
       -0.04668993 0.031658985 0.019899938 0.015204596
0001f0 38 ba ba bd c4 16 f6 bc 49 28 82 bd 7f bf 8d 3d
       -0.0911755 -0.030040152 -0.0635534 0.069212906
000200 aa a7 7c bc 7f 47 da bd 32 57 a1 3c e4 4c 88 bc
       -0.015420834 -0.10658168 0.019694898 -0.016638227
000210 86 22 07 3c 0f 33 1a bd 50 d4 2c 3d 8d fb d8 3d
       0.008247977 -0.03764635 0.042194664 0.105948545
000220 15 b2 82 3d 9d 0f cf bc 0c a1 2f 3d ac b6 76 bd
       0.06381623 -0.025276 0.042878196 -0.060232803
000230 8c bf 02 bd eb 5f 92 bd 11 01 34 3e 14 4c f0 bd
       -0.031920955 -0.07147201 0.17578532 -0.11733261
000240 b9 2f bc bd 11 b6 52 3d 3f 92 aa bd 4a 22 bd bd
       -0.0918879 0.051443163 -0.083286755 -0.09235056
000250 a9 ab b2 bb 49 42 71 3b 78 78 05 bb d3 08 d1 bd
       -0.0054525924 0.003681319 -0.0020365994 -0.10206761
000260 69 f8 28 3d 03 b5 54 3c f7 43 87 bd c8 22 f0 bd
       0.041252527 0.01298261 -0.0660476 -0.11725384
000270 01 0a 1b 3d 84 9e b5 3d f7 9f 6e 3c 16 c1 16 bd
       0.037851337 0.08868125 0.014564506 -0.036805235
000280 b4 0d 4b 3d ab 46 70 3d 92 25 9d 3d 6b 5d 8f 3d
       0.049573615 0.058661144 0.076731816 0.0700024
000290 d5 19 8e 3d 99 a9 ae bd e9 8a 26 bd b8 28 e2 3b
       0.06938521 -0.08528442 -0.04065982 0.0069018267
0002a0 00 96 50 3d 88 91 30 bd b7 2b 67 bd 50 ae 25 3e
       0.0509243 -0.04310754 -0.056438174 0.16179776
0002b0 99 5d 24 3d f6 37 3a 3e 9f 63 2e be 6e 61 78 bd
       0.040128324 0.1818541 -0.1703019 -0.06063979
0002c0 08 22 09 be f4 84 91 bd bc 83 a5 ba 0d 91 af 3d
       -0.13391888 -0.07105437 -0.0012627761 0.08572588
0002d0 b6 db cd bd b0 1e d3 3d e8 7e 6d 3b 63 9f 9a bb
       -0.10051672 0.103085876 0.0036238972 -0.0047187074
0002e0 1d 5e 9a bd 73 23 1b 3d 41 4b 13 bd 4a 41 3f 3d
       -0.07537482 0.037875604 -0.03596044 0.046693124
0002f0 de cd a3 3d 87 2e 14 be c0 a1 1f bb 33 ae 21 3b
       0.079982504 -0.14470874 -0.0024357885 0.0024670481
000300 08 e1 9c bd 53 82 9e 3d 91 71 41 bd 50 0b 12 3e
       -0.07660109 0.07739701 -0.047227446 0.14262128
000310 73 39 17 bc 3d 2d 3c bd bc 7f 00 3e 0d 9f b9 bd
       -0.009230006 -0.04594158 0.12548727 -0.0906354
000320 d1 27 0b 3e 39 1d 34 bc 68 26 ea 3d d2 5a 2f 3d
       0.13589408 -0.010993295 0.11433107 0.042811222
000330 c9 f3 a9 3c 7c e1 66 bd 2b e4 b4 bd c8 cb 22 3d
       0.020746129 -0.056367382 -0.08832582 0.039745122
000340 87 4f 83 bd f5 da b3 3d d5 e4 79 bb e6 4c ad 3d
       -0.06411653 0.08781997 -0.003813078 0.08461933
000350 91 6c 2c 3d ae 5a 4a 3d b0 21 41 bd 3b 19 f4 3c
       0.042095724 0.049402885 -0.047151268 0.029797187
000360 51 3e d4 bd 91 08 3d bc 8e d0 45 bd 17 02 0a bd
       -0.103634484 -0.011537687 -0.048294596 -0.0336934
000370 f1 ee 0f bd 40 84 ee bc 39 4d f1 3c 52 c8 0a 3e
       -0.03513998 -0.029115796 0.029455768 0.13552979
000380 7c 9c ab 3d be 7a 40 3b 1d 36 2e bd 80 9d ab 3a
       0.083794564 0.0029370035 -0.042532075 0.0013093203
000390 e3 68 29 bd c9 ec 85 3d 7c 63 91 3c 61 c4 c6 bd
       -0.041359793 0.06539304 0.017747633 -0.09705425
0003a0 02 6e 4c bd b4 fd 1d be 6f e9 cf 3d 2a 03 e1 bd
       -0.0499096 -0.15428811 0.10151946 -0.109869316
0003b0 5a 13 70 3d 8a c4 9c 3d 3f 00 a2 bc 43 73 b4 bd
       0.058612205 0.07654674 -0.019775508 -0.08811047
0003c0 90 b6 68 3d 08 1f 97 3d bb bd 99 bd af e0 26 3d
       0.05681473 0.073789656 -0.07506891 0.04074162
0003d0 1e 37 4a bd b7 4d 26 bd 63 09 36 bd 8a 50 ab bd
       -0.04936897 -0.04060146 -0.044442546 -0.08364971
0003e0 1e 6a 5b 3d e9 47 e5 3d 95 e1 a3 3d 88 d0 01 3d
       0.053567998 0.111953564 0.08002011 0.03169301
0003f0 ef e7 54 3d 6c fc 8b 3c a4 3d d8 bd 2e d8 57 bd
       0.051979 0.017088138 -0.10558632 -0.0526964

fc2.bias f4 [10]
000000 6f 96 f9 3c d7 1c 48 bd da a6 5f 3c d6 5b 25 3d
       0.03046724 -0.04885563 0.01365062 0.040370785
000010 9b db 35 bc d7 8f 9c 3d 79 42 a8 3c 08 e0 36 bd
       -0.011099721 0.07644623 0.02053951 -0.044647247
000020 40 b8 5b 3d 16 0c 2f bd
       0.05364251 -0.042736135
