model_checkpoint_epoch_7.pth (torch, 815827 bytes, 4 tensors)

fc1.weight f4 [256, 784]
0.015989162 -0.018176608 -0.009336754 0.014350051 -0.036035795 0.019005377 -0.009760461 0.015756328
0.00255177 -0.0067861206 0.007492628 -0.00065126567 0.010630738 -0.016330993 -0.005016999 -0.005628376
0.0027634476 -0.0025557913 0.028807145 0.008700808 -0.01571333 -0.023983147 -0.008399399 -0.017818123
-0.013857716 -0.0007030594 0.01887718 0.016998926 -0.03732558 0.01972692 0.007564166 0.031463943
0.021160468 -0.034954187 -0.036421377 -0.019714508 0.02876928 -0.008469536 0.012741627 -0.01916213
0.032480992 -0.017704863 0.02429506 -0.0020793325 -0.021343911 0.015869148 -0.021496233 0.007962991
-0.012770085 -0.0063339164 -0.036757473 -0.019452607 0.01696669 -0.0110944575 0.033160154 0.026215062
-0.004085383 -0.02625178 0.019334132 0.008696448 -0.025490627 0.020772323 0.019154508 0.029038657
-0.02282732 -0.008934558 -0.0042722635 0.000775994 -0.032301072 -0.031042758 0.013316785 -0.01414187
0.012304913 -0.0028161465 0.007861858 0.0043374444 0.009655362 0.014694391 -0.03581219 0.015276836
-0.027695647 -0.029370273 -0.00024117419 -0.008499096 0.018562762 -0.023096515 -0.03416556 0.023641389
-0.0077095986 0.016458018 0.007827551 -0.030913254 0.003255872 0.0038532708 -0.029147664 -0.024297312
0.0034630974 -0.0021711572 -0.022898808 -0.017053759 0.02725032 -0.009322858 0.014205936 0.009604664
-0.025152642 -0.031837728 0.031970404 -0.0022020882 0.020628328 0.005205571 0.0091441255 0.024263997
0.031451784 -0.026112495 0.0020410325 0.024181822 0.022782337 0.016550465 -0.032033466 -0.031665314
-0.030348416 -0.0017275751 0.02960433 -0.026097063 0.013801524 -0.024849255 -0.036465347 -0.005125919
0.019795604 0.036841966 -0.020395884 0.005305168 0.02906512 0.022909326 0.021022944 0.02333498
0.021832617 0.0074945823 -0.026754284 -0.032457724 -0.01877812 -0.0065718973 -0.024333648 0.010285916
0.006184332 -0.015511755 0.005300684 0.0024708465 0.015298503 0.021913717 -0.0098300185 0.03991765
-0.00431466 0.0036637485 -0.024839787 -0.016572757 -0.015769579 -0.0010013495 0.03602931 -0.00818411
-0.02218534 0.018689428 0.016289363 0.023601206 -0.017875016 0.0075881956 -0.0151492525 -0.010538813
-0.030874468 -0.018691575 -0.013197831 0.011975197 0.0011555199 0.0038042164 0.029834142 0.031197404
0.026268153 0.0004768626 -0.01817511 0.03852068 0.001568361 0.012186842 -0.01577393 0.000998101
-0.017102212 0.042978764 -0.017257074 -0.014097129 0.007616435 -0.005459116 0.02662411 -0.005837514
-0.011659087 0.0027198344 0.024442233 -0.027540632 0.014358587 0.020500759 0.032820813 -0.02808397
0.0013289371 -0.03092595 0.030463785 -0.01162807 0.026820278 0.008777469 0.016854811 0.023528786
0.022687323 0.030994555 0.015232685 0.019422648 -0.017820911 0.042920396 0.052900963 0.044403464
0.03514362 -0.014745019 -0.00057659904 0.045601875 -0.020445593 0.03398077 -0.029580047 -0.02750482
0.015242096 -0.027993612 -0.010244387 0.02317182 0.020629795 0.030473154 -0.005228523 -0.024676418
0.04094398 0.0074337297 0.005321558 0.02994063 -0.0031847225 0.037300944 0.041516706 -0.011054587
-0.006632532 0.010194125 0.031644892 0.009657048 -0.008937012 0.004660268 -0.027460758 -0.011333038
-0.014343968 0.032033432 0.030553466 -0.014412054 -0.0007986766 0.013618959 0.0023738826 -0.020474607
00000000: b4fb 823c 1ce7 94bc 2ff9 18bc 7a1c 6b3c
00000010: 459a 13bd 2ab1 9b3c 57ea 1fbc 6a13 813c
00000020: 993b 273b 1b5e debb b884 f53b b3b9 2aba
00000030: 8c2c 2e3c 93c8 85bc a365 a4bb 3d6e b8bb
00000040: f51a 353b 107f 27bb f6fc eb3c d58d 0e3c
00000050: 3eb9 80bc 4e78 c4bc a29d 09bc 50f7 91bc
00000060: 790b 63bc 854d 38ba 51a4 9a3c 5541 8b3c
00000070: b5e2 18bd 5a9a a13c d3dc f73b 56e0 003d
00000080: b858 ad3c 1f2c 0fbd 952e 15bd 5280 a1bc
00000090: 8ead eb3c cfc3 0abc 42c2 503c e6f9 9cbc
000000a0: ca0a 053d ca09 91bc 6f06 c73c 6945 08bb
000000b0: 6dd9 aebc 0400 823c de18 b0bc 3477 023c
000000c0: 9e39 51bc be8c cfbb 018f 16bd 135b 9fbc
000000d0: bafd 8a3c 87c5 35bc f1d2 073d f8c0 d63c
000000e0: adde 85bb f90d d7bc 9d62 9e3c 8c7b 0e3c
000000f0: b8d1 d0bc b82a aa3c eae9 9c3c 7ae2 ed3c
00000100: 5c00 bbbc 4162 12bc 58fe 8bbb 136c 4b3a
00000110: 214e 04bd 624d febc a52e 5a3c 4db3 67bc
00000120: 8c9a 493c 198f 38bb 06cf 003c 1f21 8e3b
00000130: 8631 1e3c bec0 703c ceaf 12bd b24b 7a3c
00000140: fbe1 e2bc ed99 f0bc b4e3 7cb9 cb3f 0bbc
00000150: ef10 983c e734 bdbc 30f1 0bbd 96ab c13c
00000160: cda0 fcbb f7d2 863c 213f 003c cb3d fdbc
00000170: 7860 553b 2887 7c3b 15c7 eebc 280b c7bc
00000180: 22f5 623b f949 0ebb 4896 bbbc 53b4 8bbc
00000190: 103c df3c e7be 18bc 04c0 683c e15c 1d3c
000001a0: ea0c cebc 4768 02bd 66f3 023d e950 10bb
000001b0: bdfc a83c 7f93 aa3b 3ed1 153c 4ac5 c63c
000001c0: 96d3 003d dfe9 d5bc d8c2 053b f518 c63c
000001d0: 06a2 ba3c d794 873c 8635 03bd 7db3 01bd
000001e0: 3e9d f8bc cd6f e2ba c884 f23c 82c9 d5bc
000001f0: ca1f 623c aa90 cbbc b05c 15bd 53f7 a7bb
00000200: 642a a23c 9ae7 163d 4515 a7bc fad6 ad3b
00000210: f919 ee3c 57ac bb3c 4f38 ac3c 0029 bf3c
00000220: 51da b23c 1d95 f53b cd2b dbbc 64f2 04bd
00000230: 92d4 99bc 1259 d7bb 5c57 c7bc 4286 283c
00000240: f0a5 ca3b 0425 7ebc 5cb1 ad3b eded 213b
00000250: 93a6 7a3c 6584 b33c 160e 21bc b180 233d
00000260: fe61 8dbb 801b 703b cf7c cbbc 97c3 87bc
00000270: 342f 81bc b73f 83ba 7893 133d a516 06bc
00000280: 08be b5bc 921a 993c 4571 853c 5157 c13c
00000290: a06e 92bc 66a6 f83b 9234 78bc fcaa 2cbc
000002a0: 74ec fcbc 131f 99bc b73b 58bc 9e33 443c
000002b0: d074 973a 2950 793b bb66 f43c b391 ff3c
000002c0: 4f30 d73c 6a03 fa39 f8e3 94bc dcc7 1d3d
000002d0: 7691 cd3a 52ab 473c 5438 81bc b6d2 823a
000002e0: f019 8cbc 800a 303d b55e 8dbc a5f7 66bc
000002f0: 4a93 f93b 62e2 b2bb ce1a da3c 9e48 bfbb
00000300: c105 3fbc 403f 323b 143b c83c e49c e1bc
00000310: 4740 6b3c 35f1 a73c 1e6f 063d 5b10 e6bc
00000320: bb2f ae3a 6b58 fdbc 308f f93c a983 3ebc
00000330: 33b6 db3c 60cf 0f3c 1a13 8a3c 71bf c03c
00000340: c4da b93c 4be8 fd3c 8392 793c 3f1c 9f3c
00000350: 29fd 91bc 4ccd 2f3d aeae 583d 68e0 353d
00000360: c2f2 0f3d 1895 71bc e826 17ba 08c9 3a3d
00000370: 847d a7bc 6b2f 0b3d db51 f2bc ca51 e1bc
00000380: fcb9 793c dc52 e5bc 13d8 27bc d4d2 bd3c
00000390: d1ff a83c d6a2 f93c 0854 abbb 3326 cabc
000003a0: e0b4 273d a596 f33b 7760 ae3b 0d46 f53c
000003b0: c7b6 50bb e0c8 183d 6c0d 2a3d 4c1e 35bc
000003c0: b655 d9bb 4205 273c 139e 013d 9838 1e3c
000003d0: 8c6c 12bc 29b5 983b 62f5 e0bc 35ae 39bc
000003e0: f602 6bbc 7d35 033d 434b fa3c 8920 6cbc
000003f0: 485e 51ba 0e22 5f3c 2493 1b3b 5dba a7bc

fc1.bias f4 [256]
0.0109966975 -0.029479688 0.02555204 -0.0054373103 0.02527469 -0.0038310813 0.028136723 0.02058042
0.019342791 0.027795572 -0.02880426 -1.6597929e-05 -0.012696012 0.020852694 -0.028652878 0.028915402
-0.005859386 0.02202002 -0.0019491103 -0.009103659 -0.0073314356 0.036418732 0.010255739 0.016307298
-0.0068099312 0.018122124 0.0055919345 -0.012456045 -0.024225514 -0.006778743 0.008799268 -0.003423455
-0.00856978 0.03489153 0.022413377 0.0003320393 0.0016268654 0.026818912 -0.013401161 0.03107296
0.012990506 0.015419128 0.006428426 0.0058669597 0.0026247846 -0.012189809 -0.007132006 -0.017680837
-0.0057676258 0.0036010824 -0.00920172 -0.0027243495 0.0115334 -0.031101272 -0.029787142 0.036722172
0.020183027 -0.015903803 0.021352952 -0.0039049783 0.021195399 0.010680826 -0.007952087 0.027448801
-0.009121047 -0.025444346 -0.0098876795 -0.01443658 0.03958806 0.005245933 -0.014451007 -0.015448131
0.006915308 0.014564188 -0.01021368 0.0031209462 0.033814076 0.018709147 0.017397892 -0.012745503
-0.02169419 0.024229573 0.04332706 -0.03246142 -0.002672421 0.0006089361 -0.028413622 -0.0043599233
0.018010696 0.019921605 -0.038569253 -0.04199504 0.0052366005 0.020083856 -0.028274264 -0.025671702
-0.007365941 -0.033709884 -0.036775213 0.0054343673 -0.0027334553 0.004778365 0.027299488 -0.020214064
0.016093552 -0.020698177 -0.00921887 0.029349519 0.026447522 -0.00016501971 0.010294654 0.038430035
0.015617873 0.022750279 0.02931657 0.017773239 0.027709184 0.015866367 -0.018078852 0.00051624526
-0.031572834 0.011469107 0.004350643 -0.0128210215 0.013239178 0.014642966 -0.005233586 0.0021807137
-0.02520152 0.019140145 0.011739031 0.018128993 0.0056162262 -0.01600615 -0.016281048 -0.023670068
-0.0246202 0.0071042324 0.005430028 -0.0035715704 -0.005949413 -0.0021320414 -0.022010272 0.018159509
-0.004722653 0.033871867 -0.007650426 -0.0015547889 -0.016568117 0.027571158 -0.019616032 0.033538867
0.033477735 -0.015620334 -0.009992129 -0.0033855892 0.016213601 0.028723931 0.032528266 -0.002902256
0.015433226 0.017296229 -0.01803289 -0.030421587 -0.009126759 0.036713134 0.029035939 0.015293517
0.015495121 -0.0081070345 -0.0016951967 0.029652711 -0.025773875 0.012564367 0.03559961 0.006032032
0.02914489 -0.00665183 -0.0009585613 0.016142264 -0.013044859 0.012642361 0.011213205 0.016485153
-0.003248477 -0.015293413 0.00027433826 0.011744224 0.0017281667 0.025612528 0.02991396 0.0026944631
-0.024441652 -0.028198 -0.00071509625 0.035099212 0.026107881 0.02524272 0.0035721753 0.03806694
0.043724783 -0.00073237723 0.026188526 -0.011216575 -0.03526689 -0.014509271 0.005595009 -0.0104738455
-0.008385937 0.02392779 0.025501851 0.040960904 0.0054553114 0.034680724 -0.009716893 0.0016090018
-0.004090582 -0.028418314 -0.0005412301 -0.014996954 0.008956181 0.014912753 0.012341295 -0.01307296
0.012851329 -0.014049999 -0.012008182 -0.0128612295 0.0007649046 -0.015125753 -0.020550603 -0.028769102
0.02898592 -0.033051215 0.00072254153 -0.0020202678 -0.018047493 0.028147843 0.022482656 0.04279258
-0.0055588335 -0.004605275 0.04236273 0.017672243 0.0064229514 0.025936933 -0.010883911 0.020656247
0.0077 0.016661145 -0.0014235477 -0.020397244 0.034510463 0.031576272 0.004067286 -0.007582144
00000000: 7e2b 343c 637f f1bc 8352 d13c 772b b2bb
00000010: de0c cf3c e112 7bbb fc7e e63c 4598 a83c
00000020: c674 9e3c 8ab3 e33c e9f6 ebbc c83b 8bb7
00000030: ef02 50bc 45d3 aa3c 71b9 eabc fedf ec3c
00000040: 1800 c0bb 5463 b43c 4a79 ffba 8327 15bc
00000050: 8a3c f0bb cf2b 153d b007 283c e296 853c
00000060: d825 dfbb d974 943c 8c3c b73b 7014 4cbc
00000070: 9674 c6bc 3820 debb ce2a 103c 0b5c 60bb
00000080: 4368 0cbc 6cea 0e3d 429c b73c 8f15 ae39
00000090: 8b3c d53a 56b3 db3c 8b90 5bbc b88c fe3c
000000a0: 22d6 543c 83a0 7c3c 8ca5 d23b a03f c03b
000000b0: 9404 2c3b c4b7 47bc 9ab3 e9bb 67d7 90bc
000000c0: 5afe bcbb 2300 6c3b d0c2 16bc 008b 32bb
000000d0: 96f6 3c3c 18c8 febc 2a04 f4bc fd69 163d
000000e0: e056 a53c b148 82bc 63ec ae3c aaea 7fbb
000000f0: f9a1 ad3c a2fe 2e3c 7849 02bc 4fdc e03c
00000100: 7270 15bc a970 d0bc efff 21bc 6887 6cbc
00000110: 1727 223d 13e6 ab3b ebc3 6cbc 281a 7dbc
00000120: cf99 e23b a29e 6e3c 4757 27bc ca88 4c3b
00000130: a180 0a3d ed43 993c 0686 8e3c 84d2 50bc
00000140: 04b8 b1bc 197d c63c b777 313d 44f6 04bd
00000150: c923 2fbb 03a1 1f3a afc3 e8bc b0dd 8ebb
00000160: 2b8b 933c a232 a33c cbfa 1dbd fe02 2cbd
00000170: ca97 ab3b e686 a43c 6e9f e7bc 764d d2bc
00000180: fe5d f1bb 6013 0abd 9ba1 16bd c712 b23b
00000190: c523 33bb d593 9c3b 2da3 df3c f797 a5bc
000001a0: a0d6 833c 398f a9bc be0a 17bc 676e f03c
000001b0: 79a8 d83c 2409 2db9 e9aa 283c d068 1d3d
000001c0: 1be2 7f3c cb5e ba3c 4e29 f03c 2f99 913c
000001d0: 5ffe e23c 2ffa 813c 1a1a 94bc a254 073a
000001e0: 8452 01bd ece8 3b3c d78f 8e3b 430f 52bc
000001f0: 23e9 583c 0de9 6f3c 807e abbb 4eea 0e3b
00000200: 6b73 cebc cbcb 9c3c 1155 403c 4183 943c
00000210: 5208 b83b 541f 83bc d55f 85bc bbe7 c1bc
00000220: 4db0 c9bc 9fca e83b 60ee b13b 0211 6abb
00000230: 4bf3 c2bb b8b9 0bbb e34e b4bc 40c3 943c
00000240: 7cc0 9abb 3abd 0a3d 6db0 fabb 0fca cbba
00000250: dcb9 87bc e9dc e13c cdb1 a0bc 0d60 093d
00000260: f31f 093d 6eec 7fbc 07b6 23bc c3e0 5dbb
00000270: 63d2 843c 734e eb3c 5c3c 053d c733 3ebb
00000280: a4db 7c3c d2b0 8d3c b6b9 93bc b136 f9bc
00000290: 6788 15bc 8360 163d c7dc ed3c a991 7a3c
000002a0: 3fdf 7d3c 5ed3 04bc 5d31 deba 3eea f23c
000002b0: bc23 d3bc c6da 4d3c e6d0 113d 5aa8 c53b
000002c0: 44c1 ee3c 98f7 d9bb f647 7bba c83c 843c
000002d0: 1bba 55bc e821 4f3c 97b7 373c df0b 873c
000002e0: 66e4 54bb 3991 7abc 0fd5 8f39 d86a 403c
000002f0: a783 e23a 5dd1 d13c 1f0e f53c 9795 303b
00000300: dc39 c8bc 7eff e6bc 4c75 3bba 31c4 0f3d
00000310: 32e0 d53c d2c9 ce3c 281b 6a3b 14ec 1b3d
00000320: c218 333d 01fd 3fba 5289 d63c bac5 37bc
00000330: 0474 10bd 4bb8 6dbc 5656 b73b 7e9a 2bbc
00000340: 2b65 09bc 3604 c43c 42e9 d03c 9fc6 273d
00000350: 78c2 b23b 600d 0e3d 9a33 1fbc 24e5 d23a
00000360: 4a0a 86bb 86cd e8bc 56e1 0dba c9b5 75bc
00000370: f2bc 123c 9f54 743c 2533 4a3c f82f 56bc
00000380: 618e 523c f831 66bc f7bd 44bc e8b7 52bc
00000390: e183 483a 02d2 77bc bd59 a8bc 2ead ebbc
000003a0: e173 ed3c b660 07bd f168 3d3a 7866 04bb
000003b0: 56d8 93bc 4e96 e63c 8c2d b83c 4647 2f3d
000003c0: e026 b6bb d9e7 96bb 8b84 2d3d 61c5 903c
000003d0: 9f77 d23b b179 d43c 6e52 32bc 4a37 a93c
000003e0: 4850 fc3b f47c 883c 5696 baba 1f18 a7bc
000003f0: d85a 0d3d 1f56 013d de46 853b a273 f8bb

fc2.weight f4 [10, 256]
0.11160609 -0.06830108 0.14327775 -0.058882214 0.02599713 0.010951588 -0.1680779 -0.049887042
-0.111253805 0.012774485 -0.03638639 0.0416539 -0.06339641 0.07931636 0.088447146 -0.040650573
0.016878534 0.0931434 -0.09799376 0.046634883 -0.010060141 -0.07936599 -0.042444933 0.05467041
-0.13353862 -0.043120414 -0.06866335 2.2497614e-05 0.04148809 0.07255874 -0.02918677 0.106691554
-0.1830431 -0.05600583 -0.05312274 0.0027917544 0.022737652 -0.0003901631 0.19221535 0.16772574
-0.07884935 0.13770726 -0.10614895 -0.06472076 -0.10020835 -0.15002233 -0.08948966 0.129779
0.0193647 -0.22546107 -0.02504803 -0.07886745 0.14887778 0.051707007 -0.0012698668 0.0044864262
0.1453724 0.038092427 0.07572879 -0.09910344 0.039041772 -0.117565475 0.079024315 0.040964365
0.057603274 -0.048308637 0.026348406 -0.07006427 0.09965915 0.038728792 -0.059157684 -0.09003566
-0.021672895 -0.0040819403 -0.038408775 0.06989587 -0.082946375 -0.18564542 -0.06765474 0.16372494
0.18381639 0.047948316 -0.105040394 -0.23439676 0.035874907 -0.23050985 -0.019293712 0.03458372
-0.07409777 -0.020474905 0.04415683 -0.030618712 0.021881677 0.037505463 0.06271567 0.056827903
-0.034146097 -0.046719316 0.060966976 0.08116704 0.122743286 0.07099707 0.09373036 0.0458247
0.10022382 -0.12528293 -0.019052438 -0.14494085 0.077452235 -0.03574722 -0.059574276 0.066256575
0.10082544 0.023479003 -0.09413036 0.022533752 0.08955519 0.11571565 0.033174653 -0.16289987
-0.03778615 0.03285097 0.014880921 0.023728656 -0.09746015 -0.035620265 -0.061925113 0.06818578
-0.010757675 -0.1199742 0.027906697 -0.021062423 0.012172409 -0.04113942 0.042661205 0.098273486
0.06668177 -0.020987164 0.040351633 -0.07171345 -0.04235042 -0.085704796 0.17884602 -0.12123451
-0.112693116 0.044905618 -0.091593854 -0.11584689 -0.00010891816 0.012382804 -0.0024602606 -0.106561325
0.05593209 0.0046150777 -0.06686477 -0.12602212 0.05096436 0.09399409 0.0042923447 -0.032126598
0.07279706 0.07213521 0.0850003 0.08090068 0.068991765 -0.10242579 -0.0418419 0.022145223
0.047786806 -0.05040372 -0.07113179 0.16016553 0.034414694 0.2030082 -0.20550838 -0.05954625
-0.14584775 -0.08187847 0.032769904 0.089906394 -0.11667299 0.10153205 0.0035707448 -0.0050131367
-0.08627768 0.05068647 -0.027855769 0.04283349 0.08371997 -0.16313207 -0.0011184013 0.00986565
-0.09157113 0.06708467 -0.05179345 0.13873857 0.0026418963 -0.05113606 0.13674936 -0.101638
0.14773954 -0.021477025 0.1145773 0.052313004 0.029048199 -0.071136475 -0.10457353 0.032896727
-0.07595463 0.08938162 -0.0062561203 0.087489866 0.047437347 0.049747735 -0.053980205 0.02574606
-0.11072545 -0.01145818 -0.039680876 -0.042423155 -0.03843392 -0.03777633 0.025685199 0.17882238
0.07903726 0.009460466 -0.04011278 -0.011709078 -0.051689334 0.08887805 0.018391429 -0.117123365
-0.05324676 -0.1826203 0.10123795 -0.14236608 0.06278735 0.06900997 -0.028817302 -0.08435858
0.0605037 0.077987544 -0.07192002 0.049015712 -0.07600683 -0.016567007 -0.046389334 -0.08290822
0.07303914 0.12590532 0.10775339 0.030264266 0.067205444 0.01240117 -0.13382977 -0.052773904
00000000: bc91 e43d 70e1 8bbd 67b7 123e 7a2e 71bd
00000010: eff7 d43c 4a6e 333c 9d1c 2cbe 5b56 4cbd
00000020: 09d9 e3bd 134c 513c e509 15bd 489d 2a3d
00000030: fad5 81bd 9e70 a23d c723 b53d 3781 26bd
00000040: da44 8a3c f8c1 be3d f4b0 c8bd 3804 3f3d
00000050: 4ad3 24bc a38a a2bd bdda 2dbd 14ee 5f3d
00000060: 59be 08be 089f 30bd 5f9f 8cbd 42b9 bc37
00000070: 6aef 293d ad99 943d 1819 efbc 1a81 da3d
00000080: a76f 3bbe 5f66 65bd 3b97 59bd def5 363b
00000090: 5044 ba3c ce8e ccb9 1ad4 443e 4cc0 2b3e
000000a0: c57b a1bd 2203 0d3e 9f64 d9bd 518c 84bd
000000b0: 093a cdbd 749f 19be 5b46 b7bd c9e4 043e
000000c0: b8a2 9e3c 44df 66be 8731 cdbc 4285 a1bd
000000d0: 6b73 183e baca 533d a971 a6ba df02 933b
000000e0: 81dc 143e ce06 1c3d b217 9b3d bff6 cabd
000000f0: 44ea 1f3d 2bc6 f0bd 80d7 a13d 40ca 273d
00000100: 69f1 6b3d 47df 45bd 9dd8 d73c db7d 8fbd
00000110: 191a cc3d 15a2 1e3d 544f 72bd 9e64 b8bd
00000120: 5b8b b1bc ccc1 85bb 8552 1dbd 9125 8f3d
00000130: cadf a9bd d519 3ebe 918e 8abd 83a7 273e
00000140: 5d3a 3c3e 7465 443d 6b1f d7bd b405 70be
00000150: 91f1 123d c60a 6cbe d90d 9ebc a9a7 0d3d
00000160: 92c0 97bd fdba a7bc cbdd 343d 18d4 fabc
00000170: 3441 b33c 549f 193d 1371 803d 60c4 683d
00000180: c7dc 0bbd c15c 3fbd 82b8 793d e83a a63d
00000190: d560 fb3d e966 913d b4f5 bf3d aeb2 3b3d
000001a0: 2542 cd3d 2b4a 00be dc13 9cbc 606b 14be
000001b0: 479f 9e3d ad6b 12bd 2804 74bd 87b1 873d
000001c0: 917d ce3d 0a57 c03c 6bc7 c0bd b498 b83c
000001d0: b668 b73d 54fc ec3d 25e2 073d 39cf 26be
000001e0: a6c5 1abd bd8e 063d 1bcf 733c 9962 c23c
000001f0: 3099 c7bd 8ee6 11bd 30a5 7dbd fca4 8b3d
00000200: f640 30bc 09b5 f5bd 969c e43c 1a8b acbc
00000210: c96e 473c cf81 28bd 84bd 2e3d 9c43 c93d
00000220: 7490 883d 46ed abbc c147 253d 80de 92bd
00000230: a277 2dbd ff85 afbd 6923 373e cc49 f8bd
00000240: a6cb e6bd f4ee 373d 8f95 bbbd 2241 edbd
00000250: fe6a e4b8 3fe1 4a3c 533c 21bb d33c dabd
00000260: 0c19 653d 143a 973b 66f0 88bd f10b 01be
00000270: 01c0 503d f97f c03d cca6 8c3b 2e97 03bd
00000280: a016 953d a0bb 933d a314 ae3d 41af a53d
00000290: 8e4b 8d3d 9dc4 d1bd 6a62 2bbd e669 b53c
000002a0: 19bc 433d 2274 4ebd 8bad 91bd 6f02 243e
000002b0: 6cf6 0c3d 62e1 4f3e ca70 52be c5e6 73bd
000002c0: 1d59 15be e6af a7bd bc39 063d d820 b83d
000002d0: 40f2 eebd 09f0 cf3d 2803 6a3b 3d45 a4bb
000002e0: 5ab2 b0bd 9e9c 4f3d c831 e4bc 2b72 2f3d
000002f0: 6075 ab3d 180c 27be 5297 92ba 89a3 213c
00000300: a589 bbbd b063 893d 5e25 54bd 7c11 0e3e
00000310: aa23 2d3b 0c74 51bd 0608 0c3e 9527 d0bd
00000320: 0949 173e 96f0 afbc 81a7 ea3d 2946 563d
00000330: 7df6 ed3c 00b0 91bd a62a d6bd b8be 063d
00000340: 1a8e 9bbd b60d b73d 2400 cdbb e32d b33d
00000350: aa4d 423d 48c4 4b3d 591a 5dbd 67e9 d23c
00000360: 06c4 e2bd 17bb 3bbc 6a88 22bd e7c3 2dbd
00000370: e36c 1dbd 5abb 1abd c469 d23c 371d 373e
00000380: 49de a13d 1200 1b3c 4c4d 24bd 6fd7 3fbc
00000390: 32b8 53bd b205 b63d 9fa9 963c 60de efbd
000003a0: 4619 5abd d100 3bbe d855 cf3d 6ac8 11be
000003b0: a796 803d 1955 8d3d 4312 ecbc 31c4 acbd
000003c0: bad2 773d efb7 9f3d ce4a 93bd b3c4 483d
000003d0: 78a9 9bbd 88b7 87bc be02 3ebd c9cb a9bd
000003e0: 8b95 953d 53ed 003e cfad dc3d c4ec f73c
000003f0: 02a3 893d 472e 4b3c ac0a 09be 7329 58bd

fc2.bias f4 [10]
0.026574522 -0.048447225 0.010626616 0.038250137 -0.0070853196 0.073499024 0.017959598 -0.051811043
0.07184704 -0.04363503
00000000: d0b2 d93c 9970 46bd 421b 2e3c 2dac 1c3d
00000010: f82b e8bb a886 963d 0220 933c d137 54bd
00000020: 8a24 933d a5ba 32bd
