model_checkpoint_epoch_1.pth (torch, 815827 bytes, 4 tensors)

fc1.weight f4 [256, 784]
00000000: 497c 803c 8666 97bc f1f7 1dbc b81d 663c
00000010: 03da 14bd c031 993c 19e9 24bc 0928 7d3c
00000020: 8b40 133b bd5b e8bb 1687 eb3b 74a6 7aba
00000030: ca2d 293c fd47 88bc 4563 aebb df6b c2bb
00000040: e71f 213b 1e7a 3bbb 8c7d e93c 138f 093c
00000050: a838 83bc b8f7 c6bc 649c 0ebc ba76 94bc
00000060: 3b0a 68bc 161d 84ba e724 983c ebc1 883c
00000070: 7322 1abd f01a 9f3c 31df ed3b 3a41 ff3c
00000080: 4ed9 aa3c a46b 10bd 7449 16bd c594 a3bc
00000090: 973a ea3c 561e 0fbc 1bac 4c3c 36d8 9ebc
000000a0: b735 043d 32a1 92bc d09f c43c 6d4d 19bb
000000b0: b5d3 b0bc 3486 7f3c 1f23 b2bc ac17 fd3b
000000c0: 57d8 55bc e97f d9bb b0c7 17bd c0c6 a1bc
000000d0: 507e 883c 49c4 3abc 3393 063d 8e41 d43c
000000e0: 53dc 8fbb 638d d9bc 4ce3 9b3c 381b 093c
000000f0: d662 d3bc 7bbd a73c 74e0 9a3c f23f ec3c
00000100: 5bc6 bbbc dd18 14bc a0c2 89bb df01 bc3a
00000110: b477 ffbc d14f f2bc b46a 763c aacf 52bc
00000120: a020 563c b01a 0abb b724 f93b 9f65 7a3b
00000130: b621 183c da20 6c3c 4ec3 13bd 09d8 773c
00000140: cc8d e4bc 8d16 f3bc 9425 0fba 8d3e 10bc
00000150: 8591 953c 51b4 bfbc d030 0dbd fcab be3c
00000160: 2f61 03bc 598c 8c3c b9ad 0a3c 6659 f6bc
00000170: 5ecf 713b 34fb 893b c63c ebbc a1df b5bc
00000180: 667e d03b 7047 52b9 7f21 b3bc 876b 90bc
00000190: 14a1 d43c d424 5cbc eb70 4a3c cb1e 043c
000001a0: c02f edbc 623c 10bd db01 f63c f7f2 f6ba
000001b0: f0b1 ac3c cae0 963b fd94 0f3c e045 c43c
000001c0: b227 ff3c 2769 d8bc 0cd5 e43a fae6 c33c
000001d0: bd1a bc3c a670 983c 922b f4bc 514a f8bc
000001e0: d616 e1bc 6307 e5ba 455c f13c 244a e6bc
000001f0: 5b91 633c 17f2 c2bc 030b 13bd f645 05bc
00000200: 1013 9f3c 89a4 023d 9e34 cfbc d184 243b
00000210: b1e9 d03c 6e3e 9c3c 76bb 953c 5a43 b53c
00000220: 6d9b a33c 0ec1 d73b 5f35 debc a6ff 05bd
00000230: fc53 9cbc b456 e1bb e1b5 c9bc 1083 273c
00000240: 467b fa3b 33e6 4dbc ac52 093c 1586 aa3b
00000250: 3b83 743c 89d5 943c 5b34 81bc b38e 093d
00000260: 7b32 74bb 0c4f 413b a695 d5bc 77c0 66bc
00000270: f859 41bc 95cd 94bb 1d4b 073d 65ec fabb
00000280: 6c74 c6bc 7f16 7a3c 234e 4f3c e1c3 bc3c
00000290: ffa2 a0bc ce39 bb3b 651c 7fbc cb2d 30bc
000002a0: df6b ffbc e49b 9bbc 7b81 5fbc ef43 483c
000002b0: 96b8 2e3b 0b6b 853b b7be f63c 400c f03c
000002c0: 0abd a83c 10ef e6b9 612c b9bc d07b 083d
000002d0: b4f1 e6ba 1978 ce3b c353 a9bc 793d 273b
000002e0: 65aa 47bc 06b0 3e3d d433 8bbc 96d2 81bc
000002f0: 5d25 0b3c f687 1ebc 21eb ac3c 8f49 06bc
00000300: b374 73bc cfff 833a 113c c13c b1ec e3bc
00000310: 5941 663c 9bad a53c 44e9 033d 30e5 e5bc
00000320: d6ad 893b 8b6b febc 7cfc d73c 2887 84bc
00000330: 542c ba3c 2614 ce3b 555c ed3b 8c1f 413c
00000340: e171 8d3c ce73 d13c 442b 4b3c b24a 903c
00000350: 09de a3bc 13cf 2f3d 4b7f 4d3d bb72 3c3d
00000360: 4ff1 213d 8f50 55bc 654d d8ba 0e7b 273d
00000370: e86c bbbc 6f12 063d 11c3 f6bc 221a e4bc
00000380: bbf4 713c 5e44 e8bc 2a91 31bc 043a bc3c
00000390: e69e c23c 7267 f33c 1bab 1dbc a65c ddbc
000003a0: 7cb0 253d 1f20 143b c531 6bba cc15 c33c
000003b0: 8a72 3abc cbf4 053d c3ab f13c a8d6 a0bc
000003c0: c34b 6ebc 6aee 613c 2d72 0b3d e213 873c
000003d0: 1391 85bb f97c 493c 8bf4 b3bc c0f7 6ebc
000003e0: 2db1 96bc 7ee7 f83c 4cda f23c 7d5d 72bc
000003f0: a9a3 91ba 684b 593c 688f e03a 4fcd a9bc
0.015684264 -0.018481504 -0.009641633 0.014045171 -0.036340725 0.01870048 -0.01006534 0.01545144
0.002246889 -0.007091014 0.0071877344 -0.00095615466 0.010325858 -0.01663589 -0.0053218924 -0.0059332694
0.0024585666 -0.0028606723 0.028502248 0.008395928 -0.016018227 -0.024288043 -0.008704279 -0.01812302
-0.014162595 -0.0010079469 0.018572284 0.01669403 -0.03763051 0.019422024 0.0072592725 0.031159032
0.020855572 -0.035258904 -0.036691144 -0.0199684 0.028592391 -0.00873526 0.012492205 -0.019390207
0.03227779 -0.01789913 0.024001986 -0.0023392097 -0.021585325 0.015595961 -0.021745263 0.007723769
-0.013052068 -0.0066375625 -0.03705567 -0.019748092 0.016661793 -0.011399337 0.032855224 0.025910165
-0.0043902784 -0.026556676 0.019029282 0.008368306 -0.025803965 0.020476094 0.018905856 0.028839085
-0.022921732 -0.009039131 -0.0042041093 0.0014343819 -0.031185009 -0.029579075 0.015040088 -0.012866894
0.013069302 -0.0021073036 0.0076032537 0.0038207544 0.009285381 0.014412129 -0.03607493 0.01512719
-0.027899645 -0.029673839 -0.00054606167 -0.008803976 0.018257866 -0.023401411 -0.03447038 0.023275368
-0.008018776 0.017156767 0.00846427 -0.030071925 0.0036897282 0.004210854 -0.028715502 -0.022201361
0.006362724 -0.00020053773 -0.021866558 -0.017629398 0.025955714 -0.013436515 0.012356023 0.008063982
-0.028953433 -0.035213836 0.030030182 -0.001884072 0.021080941 0.0046044337 0.008763549 0.0239591
0.031146858 -0.026417328 0.0017458512 0.02391385 0.022961969 0.018608402 -0.029805932 -0.030308874
-0.02747671 -0.0017473515 0.029462943 -0.028111525 0.013889636 -0.023797078 -0.035899173 -0.008134356
0.01941827 0.031895194 -0.025293645 0.0025103579 0.025502058 0.019072738 0.018277865 0.022126842
0.019971574 0.006584293 -0.027125059 -0.03271451 -0.019083016 -0.006876791 -0.02462286 0.010224119
0.00764409 -0.012567091 0.008381527 0.005203972 0.014923866 0.018168228 -0.015772035 0.033583354
-0.0037261534 0.0029496578 -0.026072334 -0.014083973 -0.011801235 -0.004541109 0.033030618 -0.007657575
-0.024225436 0.015264153 0.012652907 0.023042621 -0.019608973 0.005713678 -0.015570735 -0.010753105
-0.031179367 -0.018995233 -0.01364171 0.012223228 0.0026660315 0.0040715984 0.030120237 0.029302716
0.020597953 -0.00044047134 -0.02260417 0.0333212 -0.001761964 0.006300938 -0.020669824 0.0025518818
-0.012186621 0.046554588 -0.016992487 -0.015847486 0.008492795 -0.00967597 0.021108212 -0.008196249
-0.014859366 0.0010070744 0.023588212 -0.027822824 0.014053666 0.020224383 0.03220488 -0.028063387
0.004201631 -0.03105714 0.026365511 -0.016177729 0.022726215 0.006289023 0.007243673 0.0117873065
0.017266216 0.025567915 0.012400452 0.017613743 -0.020003336 0.04292209 0.050170224 0.046007853
0.03953677 -0.013019695 -0.0016502558 0.04088884 -0.022879079 0.032732423 -0.030122312 -0.027844492
0.014767821 -0.028352913 -0.0108378325 0.022976883 0.02375741 0.029712413 -0.009623314 -0.027021717
0.04045151 0.0022602153 -0.0008971955 0.023814104 -0.011379847 0.032704156 0.029500848 -0.019633606
-0.01454443 0.0137897525 0.034044433 0.016488973 -0.004076132 0.012297862 -0.021967193 -0.014585435
-0.01839503 0.030383822 0.029645108 -0.014792797 -0.0011111397 0.013262607 0.0017132582 -0.020727782

fc1.bias f4 [256]
00000000: 03f2 3f3c 949e c1bc 7b85 f63c bf99 1dbc
00000010: 28c9 db3c 6b28 a7bb e7bd e73c 9a71 b03c
00000020: 3df1 893c 44de df3c 68b5 f2bc 3443 10bb
00000030: d71d a3bb 490a b63c 93ac f4bc d1c5 ff3c
00000040: 9901 d8bb 7aa8 9f3c 8f50 1ab9 7e96 5fbc
00000050: c604 11bc 070f 1c3d d772 cd3b 170c 903c
00000060: 8b78 1db9 e5be bf3c c421 9d3b 95f4 68bc
00000070: f7df bfbc 5822 91bb 961c 113c 6b0a eebb
00000080: 18e2 4ebc 112c 153d 6871 b13c 5c71 183b
00000090: 7091 3b3b 8d1a cd3c 42e2 9ebc aa84 183d
000000a0: bfc1 8f3c 2dcc 483c 81a5 eb3b 65d3 cb3b
000000b0: e7cd eb3a 52e4 2ebc d1e3 83ba a39c 52bc
000000c0: 5767 cebb 5ca9 903b f3e8 f9bb 2795 cf3a
000000d0: 53bd 723c 2fee b1bc 8e09 febc b1ee 013d
000000e0: 03ca 9f3c 1fee 6bbc 9c5e cc3c 8d40 cfbb
000000f0: 1772 d33c 8cb2 413c db07 02bc ead6 073d
00000100: fc27 09b9 8aa7 cebc fe9e b9bb 4c12 2bbc
00000110: 1bb6 193d f935 513b 08bb 77bc 5023 8bbc
00000120: 1963 183b adce 933c 0536 75bb 85dc 233b
00000130: ae43 113d a2eb c23c 658b 843c f9a2 61bc
00000140: 2718 bebc dd8f f13c 8476 1f3d 263e c9bc
00000150: 8959 75bb eb8e 583b a519 efbc 399f c6bb
00000160: dad6 9b3c 4707 cf3c 238e fcbc 7883 09bd
00000170: ad05 813b 30f7 9f3c ed8b f7bc aba4 cabc
00000180: 7335 bebb a7d6 f4bc 29e1 0dbd f91f bf3b
00000190: f310 a4bb c837 f03b 7c63 d93c 2b13 cabc
000001a0: 645b 6c3c e263 a4bc 76eb cfbb bfc1 d03c
000001b0: 942b d73c c3ad 633a 8170 283c 1986 193d
000001c0: ee27 443c c5f0 b13c 7c6d f43c 3b77 863c
000001d0: 0cc4 d03c 6ae8 b43c 0260 82bc ff33 16bb
000001e0: dabd ddbc a572 b43c bc3c 5a3b 6e5e 70bc
000001f0: 6e54 5f3c 470e 953c d280 ecbb 308d f93b
00000200: 41f1 cabc ca4f 8d3c 0303 183c 0c11 9e3c
00000210: 7028 153c 4dad 4cbc 0e9a 8abc b181 c2bc
00000220: 8701 c8bc 00e3 6e3c 697a ca3b 84a5 723a
00000230: cea4 e4bb 81ef 02bb 21c8 acbc 0ac0 673c
00000240: 600a 9cbb 16f6 0b3d 994d 0abc 9908 2ebb
00000250: 53b3 81bc 8e39 e83c 9025 96bc e93a c03c
00000260: 566e fb3c ce1d 49bc d0c3 11bc 9ac9 8fba
00000270: 4401 a83c 061e f93c 5e0f 1e3d f18b 58bb
00000280: eefe bf3c 39a2 533c ed6d 51bc b843 ecbc
00000290: 23a7 19bc d770 153d 52fb b33c 9f33 9b3c
000002a0: fba8 853c 61af 1abc 9909 383a 071a eb3c
000002b0: f9cb b9bc 95b1 0c3c f6af 0c3d 8205 b53b
000002c0: 49ae 0b3d 4382 01bc 8c6f 9e3a 9584 a03c
000002d0: f99b 58bc 393d 813c c562 3d3c 019a 633c
000002e0: 2699 88bb 1258 49bc b382 2fbb c135 113c
000002f0: bb7d 423b 1c8b fc3c dc8b 053d e2f9 123c
00000300: e712 babc 1f25 f3bc d115 64ba a57a 113d
00000310: 5067 d43c 33d7 e23c 5126 2c3b 57ea 153d
00000320: b146 283d 19b2 c1ba de0b c93c 0b76 f3bb
00000330: 07a1 06bd 6ad6 87bc 07fd 353c 380f a7bb
00000340: 14b9 d9bb 9287 b63c 301f 043d ed46 203d
00000350: 6a08 de3b 9c37 0e3d 3f31 25bc 7fe8 1dba
00000360: df94 a4bb 7357 e5bc 5580 973a f511 71bc
00000370: 733d 963c 9286 513c 479a 423c be75 00bc
00000380: 65f5 653c 5a34 83bc a988 5dbc 22a3 82bc
00000390: 3446 6f3b 0bee 2ebc 9991 d3bc 09ae e4bc
000003a0: b1cf 0c3d 587d f4bc 0c5b b93a 4e3d 3fbb
000003b0: 67f0 97bc dd58 d73c 64b8 c33c 731f 0e3d
000003c0: e3e1 05bc b57c ddbb d54a 163d 3821 b83c
000003d0: 3033 8c3b 806c 033d c627 52bc baf2 c53c
000003e0: a89b b53b 6a00 b43c 3d49 e1ba 49c8 96bc
000003f0: 3b15 063d 6def 0d3d 6889 bb3b 0547 d5bb
0.011715415 -0.023635186 0.030092945 -0.009619175 0.026829317 -0.0051012537 0.028288795 0.021538544
0.016838664 0.027327664 -0.029627517 -0.0022012712 -0.0049779224 0.022221701 -0.029867446 0.031222256
-0.0065919873 0.019489516 -0.00014716595 -0.01364672 -0.008851236 0.03810027 0.0062697935 0.01758389
-0.00015017593 0.023406455 0.004795285 -0.014218469 -0.023422224 -0.004429143 0.008856913 -0.0072644255
-0.012627147 0.036418978 0.021660522 0.0023260927 0.0028620623 0.025037074 -0.019394998 0.037235893
0.01754844 0.012255711 0.0071913605 0.0062202686 0.0017990441 -0.010674553 -0.0010062401 -0.012854728
-0.00629894 0.0044147205 -0.0076266467 0.0015837298 0.014815646 -0.02172002 -0.031010415 0.031721774
0.019505506 -0.014400034 0.024947457 -0.0063248337 0.025811238 0.011822354 -0.007936443 0.033163942
-0.00013080233 -0.025226373 -0.0056647053 -0.010441374 0.037527185 0.003192304 -0.015120275 -0.016984612
0.0023252426 0.018042887 -0.0037416231 0.0025003266 0.035464935 0.023794 0.01617975 -0.013771766
-0.023204876 0.029487545 0.038931385 -0.024565767 -0.00374374 0.003304417 -0.029187033 -0.0060614613
0.019023348 0.025272025 -0.030829495 -0.033572644 0.003937444 0.019527048 -0.030218089 -0.024736723
-0.0058047115 -0.02988751 -0.034638558 0.005832669 -0.0050069033 0.0073308684 0.026536696 -0.024667343
0.014426086 -0.02006716 -0.006345208 0.02548301 0.026265897 0.00086852553 0.010280729 0.0374814
0.011972411 0.021721253 0.029837362 0.016414275 0.025484107 0.02208348 -0.01591492 -0.0022919176
-0.027068067 0.022027323 0.003330036 -0.014670951 0.013630969 0.018195285 -0.007217505 0.007615708
-0.024773242 0.01724996 0.009278062 0.019295238 0.009103879 -0.01249249 -0.016919162 -0.023743482
-0.02441479 0.014580488 0.006179143 0.0009256231 -0.006977654 -0.0019979181 -0.021091523 0.014144907
-0.004761979 0.034170233 -0.008441352 -0.0026555418 -0.015832579 0.028347757 -0.018328458 0.02346559
0.03069226 -0.012275172 -0.008896783 -0.0010970116 0.020508416 0.030409824 0.038588874 -0.0033042396
0.02343699 0.012917095 -0.012782556 -0.028840885 -0.009378227 0.036484566 0.021970425 0.018945513
0.016315928 -0.009441228 0.0007020473 0.028698934 -0.02268027 0.008587261 0.034347497 0.005524338
0.03410176 -0.007904592 0.0012087687 0.01959447 -0.0132207805 0.015776264 0.011559193 0.013891698
-0.0041686473 -0.012289064 -0.0026780784 0.008862914 0.0029676992 0.030828051 0.032604083 0.0089707095
-0.022714091 -0.029680787 -0.00087007607 0.035517354 0.02592817 0.027690506 0.0026267956 0.036600437
0.04108304 -0.0014777809 0.024541792 -0.0074298433 -0.03286841 -0.016581733 0.01110769 -0.0050982498
-0.0066443775 0.022281442 0.032256305 0.03913014 0.0067759054 0.034721002 -0.010082542 -0.00060237193
-0.0050226296 -0.0279958 0.0011558632 -0.014713754 0.018339848 0.012788432 0.011877603 -0.007840572
0.014035557 -0.016016174 -0.013521352 -0.015946928 0.003651035 -0.010676871 -0.025826262 -0.027915018
0.034377757 -0.029844925 0.0014141514 -0.0029180828 -0.01854725 0.02628749 0.023891635 0.03469796
-0.008171531 -0.006759251 0.03669246 0.022476777 0.004278563 0.032085896 -0.012826866 0.024163593
0.0055422373 0.021972854 -0.0017187964 -0.01840605 0.03273509 0.034652162 0.005723167 -0.0065087103

fc2.weight f4 [10, 256]
00000000: 8273 e93d 1c11 67bd da5c 483d 7b1a 78bd
00000010: 64bb 5b3d ead2 983c d57b c4bd 9a03 123b
00000020: 1ef8 90bd 853f 913c 8f9a 0cbd 5417 633d
00000030: 0592 64bd 6bd9 783d 5549 9e3d e7b9 073b
00000040: 7645 253c 7847 a93d af4e 84bd 2782 a33c
00000050: ba6c 03bd e00d 3cbd 56ac 45bd 8629 813d
00000060: 5cca f6bd bb06 a6bc baae 52bd 9931 a23c
00000070: f837 70ba 80f1 ad3d d756 fdbc aa52 d63d
00000080: 2e45 1dbe 70dc 60bd fea3 45bd ebbc 1cbc
00000090: 2025 12bc 596f 1dba 4296 ca3d 0bc6 223e
000000a0: 3bb0 80bd 405a ee3d 9a59 adbd 50ad 20bd
000000b0: fb28 b2bd 799a e5bd 4e7a a2bd e756 d03d
000000c0: f690 03bc 09f8 19be d147 5abd 1dd6 29bd
000000d0: bde6 fa3d 7f06 9c3c 849b d23a dd35 843c
000000e0: 36a0 fe3d 1a66 863c 52ee 8fb9 4809 9dbd
000000f0: 37b5 283d cde0 aebd 566a 9f3d b75e 123c
00000100: 6990 573d f5d1 c2bc 1be3 f33c d037 19bd
00000110: 1b4c 563d 2146 5a3d 2991 32bd 1e49 24bd
00000120: b95b bcbb c1b9 f03c 744a 55bd d70f 903d
00000130: 07b7 8cbd 695d d2bd 4468 4abd d95f 0d3e
00000140: 1a12 2c3e 83d2 b9bb 3c95 c1bd 08ea f9bd
00000150: a1e0 293d 55fc 11be 60d0 33bc ee15 733c
00000160: fd05 40bd 763d dbbc 62b8 e2bb e84f 05bd
00000170: 8e4e 343c a7af 163d 40fa cf3c 8544 473d
00000180: 9dd8 e4bc c1ea f3bc 7c15 1b3d 54c8 883c
00000190: d7e0 e53d 3331 7b3d 383c 7e3d 54c2 5c3d
000001a0: 16e4 b93d 4a10 a8bd a7d3 22bd f893 e0bd
000001b0: a07b a83d c593 25bd cb87 a4bc ca8f 313d
000001c0: ae8b 9a3d 73d0 dbba 8a1d 34bd 243f 293c
000001d0: f24c 393d 21c8 af3d 5547 c13c 8083 0bbe
000001e0: 4635 9abd 4935 0b3d 8977 d63c 835f 683c
000001f0: a999 8fbd 6f80 b2bc 2beb 74bd 753f 993d
00000200: bdc7 42bd 2e03 c5bd 55c0 403c 1443 13bb
00000210: a908 673b 6741 11bd 1fdf 4b3d 2d95 e93d
00000220: 3a00 5f3d 8622 0fbd 73d6 423d 3027 35bd
00000230: 2088 c2bc 8a06 48bd ac47 263e c89f d2bd
00000240: 0dbc 7ebd 9250 7d3d 6b29 96bd 27c4 7ebd
00000250: 12ad 21bc 127c 1dba bb78 b9bc eb8f b0bd
00000260: b333 e23c 5a75 513c 95f7 73bd d360 c4bd
00000270: c77c c23c 4000 b73d c316 043d ba6e 3bbd
00000280: 259e a23c 36a6 1b3d 540b 5b3d d7bf 493d
00000290: 27d9 713d fe5a 69bd 413d 1bbd 909c cfbb
000002a0: e00b 6d3d 3652 0bbd 3ce0 0fbd 21aa 1b3e
000002b0: d17e 433d 46a0 1b3e f4b0 f1bd 0b20 78bd
000002c0: fcec dcbd a4b5 4bbd 4d0c 08bd 961f 9c3d
000002d0: be91 a4bd 4bc9 d73d 6dc9 8cba 13ae 28bb
000002e0: ea4c 86bd 6893 993c 7d82 5dbd d7fc 0e3d
000002f0: 0f36 913d eb52 e2bd b7d5 59bb fffb a53b
00000300: 4ad6 51bd bf5c 9e3d ff2f efbc ab66 033e
00000310: 2d89 dbbc c9c6 fbbc 8bdd d13d 5964 9fbd
00000320: 94f4 f63d 7e50 243b d259 df3d 689f 433d
00000330: 4a91 983b df53 34bd f0d3 86bd b18c 2a3d
00000340: 93ae 37bd 9886 b83d 8794 173b 08f9 903d
00000350: 88f0 093d 09fd 2f3d c8fa 33bd 10f9 f03c
00000360: 12b7 b1bd 33ad 49bc a11c 71bd 061a b9bc
00000370: 3a8b f4bc 9e36 9bbc 2a12 2b3d 0a53 993d
00000380: f490 a03d ae0c 14bb 9702 28bd 8489 e33b
00000390: bab3 d4bc de4f 483d 9a45 ae3c af44 8dbd
000003a0: 03c4 30bd 9ebf e9bd b248 cd3d 261c 71bd
000003b0: 444b 773d eade 9b3d f4fe 97bb efda b0bd
000003c0: 7ff9 4c3d 26d3 8d3d d1b9 9ebd 1c65 033d
000003d0: 739a d0bc db43 81bd a617 05bd e5c3 a4bd
000003e0: 00c7 ee3c 643b 9f3d ff63 2d3d 8a1f f03c
000003f0: 98ba 073d e6f0 783c d764 9bbd 222f 58bd
0.113989845 -0.0564128 0.048916675 -0.06057213 0.053645507 0.01865526 -0.095939316 0.0022279979
-0.070785746 0.017730484 -0.034327086 0.05544217 -0.055803318 0.06075422 0.07728831 0.0020710172
0.010087362 0.08265585 -0.0646032 0.019959522 -0.03208611 -0.04591167 -0.048260055 0.06306748
-0.12050316 -0.020266881 -0.051436163 0.01979904 -0.00091636134 0.08493328 -0.030925198 0.10464986
-0.15358421 -0.054897726 -0.0482521 -0.009566526 -0.008919984 -0.0006005667 0.09891941 0.1589586
-0.06283613 0.116383076 -0.08464356 -0.039227784 -0.08699223 -0.11211104 -0.07933484 0.10172825
-0.008030167 -0.15036024 -0.053291146 -0.04146396 0.12251041 0.019046066 0.0016068076 0.016138965
0.124329016 0.016406108 -0.00027452648 -0.07667786 0.041188445 -0.08538971 0.07783954 0.008933715
0.052627955 -0.023781756 0.029771378 -0.037406743 0.052318674 0.053289536 -0.043595467 -0.040108792
-0.005748239 0.02938545 -0.052072957 0.07034271 -0.06870847 -0.10271723 -0.04941584 0.13806094
0.1680378 -0.005670847 -0.09452292 -0.12202841 0.04147399 -0.14256413 -0.010974973 0.014836771
-0.04688071 -0.026762705 -0.006918953 -0.032546908 0.011005057 0.03678861 0.025387883 0.04864933
-0.02793532 -0.029775025 0.037862286 0.016697086 0.112245254 0.061326217 0.062069148 0.053896263
0.09076707 -0.08206232 -0.03975263 -0.10965723 0.082267046 -0.040424127 -0.020084282 0.04335002
0.07546173 -0.0016770497 -0.043973483 0.010329995 0.045239396 0.085830934 0.023593584 -0.13624382
-0.07529692 0.033986364 0.026180046 0.014182928 -0.0701173 -0.021789758 -0.059794586 0.074828066
-0.047553767 -0.09619747 0.0117646055 -0.0022470402 0.0035252965 -0.035462763 0.04977333 0.11405406
0.054443575 -0.034945033 0.047567796 -0.044226825 -0.02374655 -0.04883436 0.16238278 -0.10284382
-0.062191058 0.061844416 -0.073321186 -0.062198784 -0.009867923 -0.00060075626 -0.022640577 -0.086212
0.027612543 0.012784326 -0.059562284 -0.0958878 0.02374114 0.089355946 0.03224827 -0.045759894
0.0198508 0.038000308 0.0534776 0.04925522 0.059044983 -0.056971543 -0.037900213 -0.0063358024
0.057872653 -0.03401395 -0.035125956 0.15201618 0.047728363 0.15197858 -0.11801329 -0.060577434
-0.10787389 -0.049733773 -0.033214856 0.07623212 -0.080356106 0.105364405 -0.0010741182 -0.0025738522
-0.06557639 0.018747047 -0.05407952 0.034909096 0.07090389 -0.110509716 -0.0033238956 0.0050654407
-0.051229753 0.07732534 -0.029197691 0.12832133 -0.026798809 -0.030734437 0.10247334 -0.07782812
0.12058368 0.002507239 0.10905804 0.047759444 0.0046559917 -0.0440253 -0.065833926 0.04163808
-0.04484422 0.09010047 0.00231293 0.07078749 0.033676654 0.042965923 -0.043940336 0.029415637
-0.08677496 -0.01230936 -0.058865193 -0.022595417 -0.029851545 -0.018946942 0.04176537 0.074865416
0.078401476 -0.0022590565 -0.041018095 0.0069438834 -0.025964607 0.048904292 0.021273423 -0.06897866
-0.04315568 -0.11413501 0.10023631 -0.058864735 0.060374513 0.07610877 -0.004638547 -0.08635508
0.050042626 0.06925039 -0.077502854 0.032078847 -0.025464272 -0.063117705 -0.032493256 -0.080451764
0.029147625 0.07775 0.04233169 0.029311914 0.033136934 0.015194153 -0.07587593 -0.052779324

fc2.bias f4 [10]
00000000: 0d99 233d 8a3d 29bd 80fc 903c 72da 043d
00000010: db41 debb 18c1 a73d 8779 ba3c 400a 20bd
00000020: 4dc2 a73c 02f8 24bd
0.039940882 -0.041318454 0.017698526 0.03243489 -0.006782753 0.081911266 0.022763027 -0.039072275
0.020478392 -0.04027558
